trained_models/GAT_15_12_seed48_last.pt (torch, 32854 bytes, 29 tensors)

convs.0.att_src f4 [1, 1, 32]
00000000: 6296 94be 96d5 9c3e 1b74 94be d56b 83be
00000010: 42fa 8d3e 64f7 243e 2ff2 a8be 0b83 6b3e
00000020: 5ae4 663e d94d 0dbc ab60 27bd c153 e9bd
00000030: b3fc a9be de8f a8bd a200 153e b15d 123e
00000040: 78ed 873c 4bf2 fcbd aa34 d53d 45ff 2ebe
00000050: ecf2 b13e 343d e6be aff6 ddbe 60f8 173f
00000060: f77b 803e 1c71 80bd 6107 72be e4d9 b0be
00000070: 7f17 b43e 2045 9c3d cbde b53e 6d4f e33e
-0.29020983 0.30631703 -0.2899483 -0.25668207 0.27729994 0.16109997 -0.3299727 0.22999208
0.22548047 -0.008624517 -0.040863674 -0.11392928 -0.33200607 -0.082305655 0.14551023 0.14293553
0.016592726 -0.12350901 0.104104355 -0.17089565 0.34755647 -0.4496857 -0.43352267 0.59363365
0.25094578 -0.06271574 -0.23635627 -0.34541237 0.35174176 0.07630372 0.3552154 0.44396535

convs.0.att_dst f4 [1, 1, 32]
00000000: 647c 623e 9f9d a63e 31f1 e63d 5f4c 50bc
00000010: 1e45 bebe be69 7a3e bcc9 6f3e 0b20 76bc
00000020: 1dcf c83e af9b 833e 1592 75be 35be d1be
00000030: a7fd 05bd 741d 89be c62a 0f3d 3d8c fc3e
00000040: 756e 453e 44af 85be 52a1 983e 13f2 89be
00000050: 4c01 b0be 671c 96be aaec be3e 4b5f 613d
00000060: 8c4a e83e 3898 91be 334e 133e de65 81be
00000070: 6332 d23e 0add 09be e5a1 92be 6a08 a1be
0.22117764 0.3254213 0.11276472 -0.012713521 -0.37162107 0.244544 0.234168 -0.015022288
0.39220515 0.25704715 -0.23981507 -0.4096543 -0.032712605 -0.26780283 0.0349529 0.49325743
0.19280417 -0.2611028 0.29810578 -0.269425 -0.3437599 -0.29318544 0.37289935 0.05502252
0.45369375 -0.28436446 0.143853 -0.2527303 0.41054067 -0.13463226 -0.2863914 -0.31451732

convs.0.bias f4 [32]
00000000: 0782 36bd e7a1 cf3c c1b1 7cbc 57f3 74bd
00000010: f98a 9f3c ab0b 37bc 0000 0000 c377 a13c
00000020: ad0a 1bbb 9b49 09bd af70 ac3c a29d 80bc
00000030: d0d7 0abd 139a fa3c b507 4cbc 0dde 843d
00000040: 6dcb 873c 6d12 493d 14bf ed3d 45cc 19bd
00000050: a9a4 113d ed8f 2b3d 6591 99bc 3d41 bebc
00000060: c74c 31bc 3a52 f3bc 9922 953d 4b71 0f3d
00000070: 94a6 8d3d 1bc5 e7bb def8 4f3d 80a9 cf3c
-0.044557597 0.025345756 -0.015423239 -0.05980238 0.019475447 -0.011172215 0.0 0.019710427
-0.0023657486 -0.03351746 0.021049825 -0.015700165 -0.03389722 0.030591046 -0.012453009 0.06487665
0.016576493 0.049089838 0.11608711 -0.037548322 0.035557423 0.041885305 -0.018746087 -0.023224467
-0.010821528 -0.029702295 0.072819896 0.035020154 0.06916538 -0.0070730573 0.050774448 0.025349379

convs.0.lin_src.weight f4 [32, 7]
00000000: 929e 433d cc2f a9bd b7b6 53be ef1a 72b9
00000010: 4fe2 81be 9f5c 46be 59c3 7abc ced5 8cbe
00000020: eabb 80bd c46b a0be 2fd9 8f3e e91c e3bc
00000030: 662d a63e b602 9f3e 18cf 83bc 8521 b13e
00000040: 3f03 873e c8c6 40be 415a 513e e6b0 7fbc
00000050: c986 ec3e bd75 0f3e 6d76 8b3e fb39 a1be
00000060: 43f9 d1bd 9535 2c3d 62bb 913e a1c7 53be
00000070: fa5a 25be ca17 873d 46fb 29be 9751 7c3e
00000080: 1e6f 2ebe ca6d ac3e 1d9f 54be 298c 423e
00000090: 0d15 50bd 4c54 dfbc 18ea 8ebe 10ab 5e3e
000000a0: 3455 0c3e aff3 0d3e 7a71 61bd b8ba 93bd
000000b0: 55a2 1abe 94c8 67be bf6f 45be 317a d8bd
000000c0: c8a4 0cbe d30c ddbd 6eed 81be cd17 753e
000000d0: 4e8a 4a3e f147 2d3c 3fd1 eabd 3f56 f73e
000000e0: 86b3 c93e 457c 4d3e 0811 423e 0445 fbbd
000000f0: 3bd1 2bbe 5c78 c73e c397 003f fc1d 483e
00000100: 0d4e 843e 73ff 673e f53b c9be fe9e 3a3e
00000110: 293d 053f 8bf2 803d 5cab 923e 41da 0cbd
00000120: a26d a339 d025 a8be d978 a13e 88d8 62bc
00000130: 0d7f 833e 1fb4 14be 260e 123e bca9 54bc
00000140: dac8 a73d 73bf 9ebd 7521 b1be 70db 26be
00000150: 1d1a 7d3d e457 ac3e f2c2 da3e 66f5 fabe
00000160: 3705 36bc a467 4e3e 8111 ee3e 702c 4cbe
00000170: 6a05 8ebe 7c77 553e 192f 503d 2369 2f3e
00000180: 71ce c9bd 1c56 d4be e391 6abe c733 c8be
00000190: 752a 38be 117f 2fbe 0cdb c2be 96d4 07be
000001a0: 5689 16bb aa55 85be cf56 513e cd7c acbe
000001b0: 59c0 033f 536b e63e 22f4 8cbe 6f33 66be
000001c0: 9717 97be 42d2 6a3e 04b1 40bd f3f9 f23d
000001d0: abec 24be 6b3e 823e 52f8 be3d 67ee 34be
000001e0: 1912 903e d3f3 44be 0606 f63d 7105 59bd
000001f0: d879 ebbe 29c1 b5be bf19 5c3e ccaa 64be
00000200: f6f9 8dbe c526 bb3b b08e 8b3e 42db 42be
00000210: 5453 87be ce50 e0be 9e26 bb3e 6c9a 28be
00000220: ac58 8fbe b5b7 243e cb0a 77be ccc2 853d
00000230: 1021 d8be 0a12 8cbe ccb4 95be eafa c7bc
00000240: b092 e2bc 144c 00be 37df f53d e682 473e
00000250: 0721 9d3e f172 6abe 8148 c8be 131c 83bc
00000260: 9453 303d a7e7 adbe 7024 b5be 856e 8a3e
00000270: 9345 aabe 79fc 3dbe 561c cfba a73c 9b3d
00000280: 19e5 503e f121 58be 21a2 da3d b77d ef3d
00000290: 3b0c ee3e 4780 bfbd 5b74 a5be b9a8 713e
000002a0: 0215 4e3e e86d 183e e1f0 bcbe 09ac aabd
000002b0: dd99 c93d 31f0 84be 9974 22be 108b 26be
000002c0: 4f76 42bd 3bfe b13e 8e75 80be a057 553e
000002d0: 2510 573d a34b c73d 36e2 a13e 6687 8ebe
000002e0: 0180 39be 6884 433d f413 12be f209 6dbe
000002f0: d7aa 853e 18dd ab3d 0c54 613e ebd6 b6be
00000300: da69 77be adc9 6cbd 5330 cbbe ac5f fb3d
00000310: b6dd 703e 0b7f 1a3e ba1c 313e d253 553e
00000320: cf5a 70be 53c8 97be 06ea 93bc e40b a8be
00000330: 949f 41be 9cc4 e73d 80a7 8fbe 327f 853e
00000340: e9e1 f1bc 84e1 3e3e 8bc7 af3e 950e 423e
00000350: 562c 4dbe dfa3 043d 89dc 913e f8f3 c4be
00000360: 835d 8cbe 2379 f13d 160d d1be 4e37 ae3d
00000370: ab2e 103f 0a54 60be 02f2 a33d 0b6d 773d
0.047758646 -0.0826107 -0.20675169 -0.00023088952 -0.25367972 -0.1937127 -0.015305364 -0.2750687
-0.06285842 -0.3133222 0.28095385 -0.027723746 0.3245651 0.31056756 -0.016089961 0.34595886
0.26369664 -0.18825829 0.20444585 -0.015606141 0.46196583 0.14009757 0.2723879 -0.31489548
-0.10252621 0.042043287 0.28463274 -0.20681621 -0.16147986 0.06596334 -0.1659976 0.24640499
-0.17034575 0.33677512 -0.20763822 0.1899878 -0.050801326 -0.027261876 -0.27912974 0.21744943
0.13704377 0.13862489 -0.05503986 -0.07213348 -0.15100987 -0.22635108 -0.19280909 -0.10570181
-0.13734734 -0.10793462 -0.25376457 0.2393486 0.19779322 0.010576234 -0.11465692 0.48307988
0.39394778 0.20066936 0.1895181 -0.12269023 -0.16779034 0.38959014 0.5023157 0.19542688
0.25840798 0.2265604 -0.39303556 0.18224713 0.5204645 0.062962614 0.28646362 -0.03438783
0.00031171466 -0.3284135 0.31537512 -0.01384557 0.2568287 -0.14521836 0.1426321 -0.012979921
0.08192606 -0.0775136 -0.34595838 -0.16294646 0.06179248 0.33660805 0.42726856 -0.4901535
-0.011109642 0.20156723 0.4649773 -0.19938827 -0.27738506 0.20846361 0.050826166 0.1712995
-0.09853829 -0.41471946 -0.22907214 -0.39102003 -0.17984946 -0.17138316 -0.38057745 -0.13264689
-0.0022970042 -0.2604192 0.20443271 -0.33688965 0.51465374 0.45003757 -0.2753001 -0.22480558
-0.29510185 0.2293177 -0.047043815 0.1186408 -0.16105907 0.25438246 0.09324707 -0.17669068
0.28138807 -0.19233637 0.12012868 -0.052983705 -0.45991397 -0.35498932 0.21494196 -0.22330779
-0.27729768 0.005711409 0.272573 -0.19028953 -0.26430762 -0.4381165 0.365529 -0.16465157
-0.2799734 0.16085704 -0.24125211 0.06531295 -0.42212725 -0.27357513 -0.292395 -0.024411637
-0.027657837 -0.12529022 0.120054655 0.19483528 0.3068926 -0.22895409 -0.39117816 -0.016004598
0.043048456 -0.339658 -0.35379362 0.27037445 -0.33256206 -0.18553342 -0.0015801291 0.07579928
0.20399894 -0.21106698 0.10675455 0.116939 0.46493706 -0.09350639 -0.32315335 0.23599519
0.20125201 0.14885676 -0.36902526 -0.08333594 0.098438 -0.25964502 -0.15864791 -0.16263986
-0.04747611 0.34764275 -0.25089687 0.20834208 0.05250563 0.097312234 0.31617898 -0.27837676
-0.18115236 0.047733694 -0.14265424 -0.23148325 0.26106903 0.0839178 0.22004718 -0.35710844
-0.24161473 -0.05780952 -0.39685306 0.12274107 0.23522076 0.15087526 0.17296115 0.20832756
-0.2347214 -0.29645023 -0.018055927 -0.32821572 -0.1890853 0.11316797 -0.2805748 0.26073605
-0.029526668 0.18640715 0.34331927 0.18950875 -0.20036444 0.032382842 0.28488567 -0.38467383
-0.27415094 0.11790683 -0.40830296 0.08506642 0.5632121 -0.21907058 0.08005144 0.060406726

convs.0.lin_dst.weight f4 [32, 7]
00000000: 929e 433d cc2f a9bd b7b6 53be ef1a 72b9
00000010: 4fe2 81be 9f5c 46be 59c3 7abc ced5 8cbe
00000020: eabb 80bd c46b a0be 2fd9 8f3e e91c e3bc
00000030: 662d a63e b602 9f3e 18cf 83bc 8521 b13e
00000040: 3f03 873e c8c6 40be 415a 513e e6b0 7fbc
00000050: c986 ec3e bd75 0f3e 6d76 8b3e fb39 a1be
00000060: 43f9 d1bd 9535 2c3d 62bb 913e a1c7 53be
00000070: fa5a 25be ca17 873d 46fb 29be 9751 7c3e
00000080: 1e6f 2ebe ca6d ac3e 1d9f 54be 298c 423e
00000090: 0d15 50bd 4c54 dfbc 18ea 8ebe 10ab 5e3e
000000a0: 3455 0c3e aff3 0d3e 7a71 61bd b8ba 93bd
000000b0: 55a2 1abe 94c8 67be bf6f 45be 317a d8bd
000000c0: c8a4 0cbe d30c ddbd 6eed 81be cd17 753e
000000d0: 4e8a 4a3e f147 2d3c 3fd1 eabd 3f56 f73e
000000e0: 86b3 c93e 457c 4d3e 0811 423e 0445 fbbd
000000f0: 3bd1 2bbe 5c78 c73e c397 003f fc1d 483e
00000100: 0d4e 843e 73ff 673e f53b c9be fe9e 3a3e
00000110: 293d 053f 8bf2 803d 5cab 923e 41da 0cbd
00000120: a26d a339 d025 a8be d978 a13e 88d8 62bc
00000130: 0d7f 833e 1fb4 14be 260e 123e bca9 54bc
00000140: dac8 a73d 73bf 9ebd 7521 b1be 70db 26be
00000150: 1d1a 7d3d e457 ac3e f2c2 da3e 66f5 fabe
00000160: 3705 36bc a467 4e3e 8111 ee3e 702c 4cbe
00000170: 6a05 8ebe 7c77 553e 192f 503d 2369 2f3e
00000180: 71ce c9bd 1c56 d4be e391 6abe c733 c8be
00000190: 752a 38be 117f 2fbe 0cdb c2be 96d4 07be
000001a0: 5689 16bb aa55 85be cf56 513e cd7c acbe
000001b0: 59c0 033f 536b e63e 22f4 8cbe 6f33 66be
000001c0: 9717 97be 42d2 6a3e 04b1 40bd f3f9 f23d
000001d0: abec 24be 6b3e 823e 52f8 be3d 67ee 34be
000001e0: 1912 903e d3f3 44be 0606 f63d 7105 59bd
000001f0: d879 ebbe 29c1 b5be bf19 5c3e ccaa 64be
00000200: f6f9 8dbe c526 bb3b b08e 8b3e 42db 42be
00000210: 5453 87be ce50 e0be 9e26 bb3e 6c9a 28be
00000220: ac58 8fbe b5b7 243e cb0a 77be ccc2 853d
00000230: 1021 d8be 0a12 8cbe ccb4 95be eafa c7bc
00000240: b092 e2bc 144c 00be 37df f53d e682 473e
00000250: 0721 9d3e f172 6abe 8148 c8be 131c 83bc
00000260: 9453 303d a7e7 adbe 7024 b5be 856e 8a3e
00000270: 9345 aabe 79fc 3dbe 561c cfba a73c 9b3d
00000280: 19e5 503e f121 58be 21a2 da3d b77d ef3d
00000290: 3b0c ee3e 4780 bfbd 5b74 a5be b9a8 713e
000002a0: 0215 4e3e e86d 183e e1f0 bcbe 09ac aabd
000002b0: dd99 c93d 31f0 84be 9974 22be 108b 26be
000002c0: 4f76 42bd 3bfe b13e 8e75 80be a057 553e
000002d0: 2510 573d a34b c73d 36e2 a13e 6687 8ebe
000002e0: 0180 39be 6884 433d f413 12be f209 6dbe
000002f0: d7aa 853e 18dd ab3d 0c54 613e ebd6 b6be
00000300: da69 77be adc9 6cbd 5330 cbbe ac5f fb3d
00000310: b6dd 703e 0b7f 1a3e ba1c 313e d253 553e
00000320: cf5a 70be 53c8 97be 06ea 93bc e40b a8be
00000330: 949f 41be 9cc4 e73d 80a7 8fbe 327f 853e
00000340: e9e1 f1bc 84e1 3e3e 8bc7 af3e 950e 423e
00000350: 562c 4dbe dfa3 043d 89dc 913e f8f3 c4be
00000360: 835d 8cbe 2379 f13d 160d d1be 4e37 ae3d
00000370: ab2e 103f 0a54 60be 02f2 a33d 0b6d 773d
0.047758646 -0.0826107 -0.20675169 -0.00023088952 -0.25367972 -0.1937127 -0.015305364 -0.2750687
-0.06285842 -0.3133222 0.28095385 -0.027723746 0.3245651 0.31056756 -0.016089961 0.34595886
0.26369664 -0.18825829 0.20444585 -0.015606141 0.46196583 0.14009757 0.2723879 -0.31489548
-0.10252621 0.042043287 0.28463274 -0.20681621 -0.16147986 0.06596334 -0.1659976 0.24640499
-0.17034575 0.33677512 -0.20763822 0.1899878 -0.050801326 -0.027261876 -0.27912974 0.21744943
0.13704377 0.13862489 -0.05503986 -0.07213348 -0.15100987 -0.22635108 -0.19280909 -0.10570181
-0.13734734 -0.10793462 -0.25376457 0.2393486 0.19779322 0.010576234 -0.11465692 0.48307988
0.39394778 0.20066936 0.1895181 -0.12269023 -0.16779034 0.38959014 0.5023157 0.19542688
0.25840798 0.2265604 -0.39303556 0.18224713 0.5204645 0.062962614 0.28646362 -0.03438783
0.00031171466 -0.3284135 0.31537512 -0.01384557 0.2568287 -0.14521836 0.1426321 -0.012979921
0.08192606 -0.0775136 -0.34595838 -0.16294646 0.06179248 0.33660805 0.42726856 -0.4901535
-0.011109642 0.20156723 0.4649773 -0.19938827 -0.27738506 0.20846361 0.050826166 0.1712995
-0.09853829 -0.41471946 -0.22907214 -0.39102003 -0.17984946 -0.17138316 -0.38057745 -0.13264689
-0.0022970042 -0.2604192 0.20443271 -0.33688965 0.51465374 0.45003757 -0.2753001 -0.22480558
-0.29510185 0.2293177 -0.047043815 0.1186408 -0.16105907 0.25438246 0.09324707 -0.17669068
0.28138807 -0.19233637 0.12012868 -0.052983705 -0.45991397 -0.35498932 0.21494196 -0.22330779
-0.27729768 0.005711409 0.272573 -0.19028953 -0.26430762 -0.4381165 0.365529 -0.16465157
-0.2799734 0.16085704 -0.24125211 0.06531295 -0.42212725 -0.27357513 -0.292395 -0.024411637
-0.027657837 -0.12529022 0.120054655 0.19483528 0.3068926 -0.22895409 -0.39117816 -0.016004598
0.043048456 -0.339658 -0.35379362 0.27037445 -0.33256206 -0.18553342 -0.0015801291 0.07579928
0.20399894 -0.21106698 0.10675455 0.116939 0.46493706 -0.09350639 -0.32315335 0.23599519
0.20125201 0.14885676 -0.36902526 -0.08333594 0.098438 -0.25964502 -0.15864791 -0.16263986
-0.04747611 0.34764275 -0.25089687 0.20834208 0.05250563 0.097312234 0.31617898 -0.27837676
-0.18115236 0.047733694 -0.14265424 -0.23148325 0.26106903 0.0839178 0.22004718 -0.35710844
-0.24161473 -0.05780952 -0.39685306 0.12274107 0.23522076 0.15087526 0.17296115 0.20832756
-0.2347214 -0.29645023 -0.018055927 -0.32821572 -0.1890853 0.11316797 -0.2805748 0.26073605
-0.029526668 0.18640715 0.34331927 0.18950875 -0.20036444 0.032382842 0.28488567 -0.38467383
-0.27415094 0.11790683 -0.40830296 0.08506642 0.5632121 -0.21907058 0.08005144 0.060406726

convs.1.att_src f4 [1, 1, 32]
00000000: 576e 283e 26b2 f8be 0229 5ebd aa4d a83e
00000010: 7aa1 4f3d 813f 45be d890 e33d 449d 05bf
00000020: 5f9f cfbe 4e6d 163e c051 933e 874d 58be
00000030: 3293 b13e 8358 ce3e 0a52 f4be 553b b03e
00000040: 3250 07be 2238 c23e 9827 903c a27a ffbd
00000050: 236c 9a3e 4076 563e 2855 34be 9a77 493e
00000060: fae8 cabc 7936 b73e 4ea8 b5be 29bc ce3d
00000070: c0fe bf3d a4c3 883e 435d 463e da5e b03e
0.16448341 -0.48573416 -0.054238327 0.32871753 0.050691105 -0.19262506 0.11111611 -0.52193093
-0.40551278 0.14690134 0.28773308 -0.21123324 0.34682614 0.40301904 -0.4771884 0.34420267
-0.13214186 0.3793345 0.017597005 -0.12474562 0.30160627 0.20943546 -0.1761061 0.1967453
-0.024769295 0.35783747 -0.3547997 0.100944825 0.093747616 0.26711762 0.19371514 0.34447366

convs.1.att_dst f4 [1, 1, 32]
00000000: cde5 5abd f075 c8be 1699 9b3e 2fcd b0bd
00000010: f948 9dbd 27ac df3e ad6f dcbe f136 44be
00000020: aeb2 eb3e 3500 1ebe 5614 a63e 6a0b a7be
00000030: 4770 b4bd 0ae3 aabe eaf0 c33d 1b64 33be
00000040: 1ca4 473e 00ba cc3e c74c 433e 346e 7ebc
00000050: f3b2 1f3e 03d8 e03e 46d7 ecbd dd23 573b
00000060: 9f38 a03e 2ef9 e73e b6d9 7e3e b998 dc3d
00000070: 5488 6c3e 2320 dbbe 68fc 1fbe a3bc 663e
-0.05344181 -0.3915248 0.30390233 -0.08632886 -0.07679934 0.4368603 -0.43053952 -0.19161583
0.4603476 -0.15429766 0.3243739 -0.32625896 -0.08810478 -0.33376342 0.09567435 -0.17518656
0.19496197 0.39985657 0.19072257 -0.015529204 0.15595607 0.43914804 -0.11564498 0.0032827773
0.31293198 0.45307297 0.24887738 0.10771317 0.2309888 -0.42797956 -0.15623629 0.22532897

convs.1.bias f4 [32]
00000000: 582d b9bc 0295 113d 9ac7 4fbd ac9a 7fba
00000010: e657 e1bb 0d9a ce3c 07a1 b5bc b84d d5b9
00000020: b5e7 b1bc 23f4 533d f514 9fbc 6022 bc3c
00000030: 1972 ca3d 2523 5fbd fae2 943d 69ea 183d
00000040: 00d9 773d 4478 8c3d f199 82bc 80e8 d8bc
00000050: 028a f23b 9eb7 be3d bb9b 783c edc7 87bc
00000060: d811 393c 26cf af3d e617 5c3d ecdb 633b
00000070: aa15 d4bb 164b 94bc 09e7 333b 2627 863c
-0.02260463 0.035542496 -0.050727464 -0.0009750526 -0.0068769334 0.025219942 -0.02217151 -0.0004068443
-0.021716932 0.0517465 -0.019419173 0.02296561 0.09885044 -0.054476876 0.07269855 0.037332926
0.06050968 0.06858876 -0.015942546 -0.026478052 0.0074017057 0.09312366 0.015173848 -0.016574824
0.011295758 0.08584432 0.05373373 0.0034768535 -0.006472309 -0.01810221 0.002745094 0.01637609

convs.1.lin_src.weight f4 [32, 32]
00000000: 78d6 19bd ab38 c43d dd4a 7ebd f1e3 a5bd
00000010: d800 743d fc94 643e b9a3 40be a925 23be
00000020: d087 ba3d e2ee b33e e8fa 7f3d 1b2d 9cbd
00000030: 8239 a83d 6dbf 8abc e4f8 2d3e 0af1 32bd
00000040: 8f42 3f3e 9999 4fbe a16d aabe 3eab 25be
00000050: 73f3 903e 5563 063e d065 203e b724 f8bd
00000060: f847 32bd 3b50 5d3e e435 5b3e eb56 29be
00000070: b205 a23e d0fa 55be 1a1f 4b3d f9a0 2ebe
00000080: ecf5 833e 9670 7ebd e1a6 87be a193 d33d
00000090: 2979 a43e 033b 84be 55c9 9d3d d4d1 cf3c
000000a0: 441e 82be eb05 7bbe 5c91 713e 6814 d43d
000000b0: 6271 8cbe 6bd0 043e fff0 9c3e cd39 42be
000000c0: 24ee 4c3e 6968 763e e7e1 5f3e 8fe9 953c
000000d0: 34e8 e03d b1f6 aa3d 777c 633e 681c c73c
000000e0: 1adb 873e 6795 713c f10b 0abe 1060 943e
000000f0: a880 43bd 4c67 5c3e 28ab 84be 70ba 3cbe
00000100: 4434 8c3d 748d 193e 4d17 ecbd dd94 b1be
00000110: 751f 413e b90c 1d3e 593c aebd ca4f aabc
00000120: 4447 58be 8c78 fdbd 7486 fdbc 5dd1 793e
00000130: b382 bebe 46a5 8dbe 4a00 d7bd 6cdc afbd
00000140: 90ec 843d f81a 993d 7994 3dbd 3fab 9b3d
00000150: 8ac2 63be d678 49be 7b66 973d 894d b0be
00000160: ed50 7f3e 87f9 aebd 4473 a5be a76a 81be
00000170: 958e 233e 831a ee3d 512a 293e fe76 7f3c
00000180: 6277 21be 9564 043e 65bb 943e 3a38 1f3e
00000190: 0b4b 9fbe d0ca 3b3e 9a94 8a3e 3c92 aa3d
000001a0: 0b5d 9cbd f4b4 8abe 948f 943e 31df 3cbe
000001b0: 1ed6 563e 567f 823e 2da9 27bd aeff 92be
000001c0: 4382 18bd 4a18 e7bd 5843 a03e 552c 253e
000001d0: 3cd3 99be d30a 433e 7af0 e6bd 310c 8fbe
000001e0: b34e 113e 2b71 fd3c 50c6 5fbe 5dc0 67bb
000001f0: 7bfc 4abe 902f 383e 64c6 853e 10ec 333e
00000200: 8b97 323a 449b 97be 1d0d 473e b8d2 0abd
00000210: 1ea9 413e e6de 543d 5686 50be 676b cd3d
00000220: 44c5 823c 991d 56be 1061 b8bd 100c 26be
00000230: 0e61 7f3e 29d6 2abd bff2 99be 5f60 fabc
00000240: 88cb a03e e973 80bd 412e 95be 7296 563e
00000250: 9bc6 223e b70f 893e c10d 26be 68fd 5c3c
00000260: 4c96 8bbe 4256 2ebe 4e57 283e f616 a53c
00000270: f56f 823d c04f a9bd 3b09 33be e0fc 753d
00000280: bbb7 213b d6fa 313d a480 993e 644d d03d
00000290: 82b3 303e 3e14 6cbe a396 64be 5163 36be
000002a0: b993 513e 290d 15be 68af 533e 37a4 a43d
000002b0: ac4f b53d 2d77 363e cf0e 173c f551 53be
000002c0: b7b0 35bd eac1 953d b3e6 01be f4fc 88be
000002d0: 0e0d 7a3e e94c 8a3e 897c 8cbe 887e 93be
000002e0: 591f afbd 7106 46be 6d60 733e aaf2 813d
000002f0: 9200 d9b9 88a9 b8bd 7552 ac3d 78a8 9b3a
00000300: 6911 07be 25cd 373e 59b9 99bc 81e0 f93c
00000310: 4fca 63be 75ae 2ebe a0cc 803e 4bf9 4dbe
00000320: f262 71bd 2754 18be 102a ed3d 34f0 e4bd
00000330: d6fc 7f3e a881 3bbd 1f9b 833e cd74 843e
00000340: 6d71 413e 624a 0a3e 7a09 cfbe c97f 87be
00000350: ccc3 a83c d2a6 31be 3e07 073e f4cf 43be
00000360: 6b25 4d3e fa73 4bbe 5ece 55be afce 413e
00000370: 44b6 7bbe 1c4b 193d 84f4 4d3e 6b0d ae3e
00000380: 768a f03d 28fa 78be 55aa 843e bd40 b63d
00000390: dd49 743c de79 b53d 8abb 92bb 3364 4f3c
000003a0: 44a3 a8bd 0654 9cbe 51a6 ff3d cf09 df3d
000003b0: 1335 ae3b 930d 963e cbf4 a8bc ebcc b8bd
000003c0: 4840 9b3d bd16 b13d 445e a9be 1a1d 2d3e
000003d0: 10c1 213e 8314 9d3d 53a2 0d3e 976c 49be
000003e0: 8677 1bbe f6ff 3cbe 97b2 7bbe d4fc 23bd
000003f0: 85c7 71be 683a 3e3e 5ca4 43be 6674 f4bd
-0.03755805 0.09581121 -0.062083114 -0.08100117 0.059571117 0.22322458 -0.18812455 -0.15932335
0.091079354 0.3514319 0.062495142 -0.07625791 0.08214094 -0.016936982 0.16989475 -0.043686904
0.18677734 -0.20273437 -0.33286765 -0.16178605 0.28310737 0.1312383 0.15663838 -0.12116378
-0.043525666 0.21612637 0.21407276 -0.16537063 0.3164497 -0.20896459 0.049590208 -0.17053594
0.2577356 -0.06211909 -0.26494506 0.10330892 0.32123688 -0.25826272 0.07704417 0.025368609
-0.25413716 -0.24513976 0.23590606 0.10355455 -0.27430254 0.1297013 0.30652615 -0.18967362
0.20012718 0.24063267 0.21863519 0.018299846 0.10981789 0.08347834 0.22215448 0.024305537
0.2653435 0.014745093 -0.13481118 0.2897954 -0.047730118 0.2152378 -0.25911832 -0.18430495
0.068459064 0.14995366 -0.11527882 -0.34683886 0.18859656 0.15336885 -0.08507604 -0.02079
-0.21120936 -0.12376508 -0.030947901 0.24396272 -0.3720909 -0.27665156 -0.10498102 -0.08586964
0.06490433 0.07475847 -0.046284173 0.07601022 -0.2224218 -0.19675002 0.073925935 -0.34434155
0.24933214 -0.08543687 -0.32314503 -0.25276682 0.1597236 0.116261505 0.16520049 0.015592335
-0.15768197 0.12928994 0.2904922 0.15548792 -0.3111194 0.18339086 0.270665 0.08328673
-0.07634934 -0.2709118 0.2901579 -0.18444516 0.20980117 0.25487775 -0.040932823 -0.28710693
-0.037233602 -0.1128393 0.3130138 0.16130193 -0.30043972 0.19047098 -0.11276336 -0.2793899
0.14190178 0.030937752 -0.21852994 -0.003536246 -0.19822876 0.17986894 0.26127923 0.1757052
0.0006812743 -0.29610646 0.19438596 -0.033892363 0.1891217 0.051970385 -0.20363745 0.10030251
0.015963204 -0.20909728 -0.09002888 -0.16215539 0.24939367 -0.041708145 -0.30068013 -0.030563531
0.31405282 -0.06272108 -0.2913685 0.20955828 0.15896074 0.26769802 -0.16216184 0.013488151
-0.27263105 -0.17025092 0.16439554 0.02015255 0.0636901 -0.08267164 -0.1748399 0.060055614
0.0024676162 0.043452106 0.29980958 0.10171011 0.17255977 -0.23054597 -0.22323088 -0.17811324
0.20466508 -0.14555801 0.20672381 0.08039134 0.08853087 0.178189 0.009219839 -0.20636733
-0.04435798 0.07312377 -0.12685661 -0.26755488 0.24419042 0.27011803 -0.27438763 -0.28807473
-0.08550901 -0.19338395 0.23767252 0.063451126 -0.0004138989 -0.090167105 0.08414165 0.0011875769
-0.13190235 0.1794935 -0.018765138 0.03050256 -0.22245143 -0.17058738 0.25156116 -0.20114629
-0.058932252 -0.14875852 0.115802884 -0.111786276 0.24998793 -0.045777947 0.25704286 0.25870362
0.18890925 0.13504937 -0.40436918 -0.2646468 0.020601176 -0.17348793 0.13186356 -0.19122297
0.20033805 -0.1986846 -0.20879504 0.189265 -0.24581248 0.037425146 0.20112807 0.33994612
0.11745159 -0.24314177 0.25911203 0.088990666 0.0149101885 0.08861135 -0.004477923 0.012658167
-0.082342654 -0.30532855 0.12482894 0.10890543 0.0053163855 0.2930723 -0.020624539 -0.0902346
0.0758062 0.08646915 -0.3307973 0.16905633 0.15796304 0.07669928 0.13831453 -0.1967033
-0.15182313 -0.18457016 -0.24579845 -0.040036038 -0.23611267 0.18576968 -0.19105667 -0.11936264

convs.1.lin_dst.weight f4 [32, 32]
00000000: 78d6 19bd ab38 c43d dd4a 7ebd f1e3 a5bd
00000010: d800 743d fc94 643e b9a3 40be a925 23be
00000020: d087 ba3d e2ee b33e e8fa 7f3d 1b2d 9cbd
00000030: 8239 a83d 6dbf 8abc e4f8 2d3e 0af1 32bd
00000040: 8f42 3f3e 9999 4fbe a16d aabe 3eab 25be
00000050: 73f3 903e 5563 063e d065 203e b724 f8bd
00000060: f847 32bd 3b50 5d3e e435 5b3e eb56 29be
00000070: b205 a23e d0fa 55be 1a1f 4b3d f9a0 2ebe
00000080: ecf5 833e 9670 7ebd e1a6 87be a193 d33d
00000090: 2979 a43e 033b 84be 55c9 9d3d d4d1 cf3c
000000a0: 441e 82be eb05 7bbe 5c91 713e 6814 d43d
000000b0: 6271 8cbe 6bd0 043e fff0 9c3e cd39 42be
000000c0: 24ee 4c3e 6968 763e e7e1 5f3e 8fe9 953c
000000d0: 34e8 e03d b1f6 aa3d 777c 633e 681c c73c
000000e0: 1adb 873e 6795 713c f10b 0abe 1060 943e
000000f0: a880 43bd 4c67 5c3e 28ab 84be 70ba 3cbe
00000100: 4434 8c3d 748d 193e 4d17 ecbd dd94 b1be
00000110: 751f 413e b90c 1d3e 593c aebd ca4f aabc
00000120: 4447 58be 8c78 fdbd 7486 fdbc 5dd1 793e
00000130: b382 bebe 46a5 8dbe 4a00 d7bd 6cdc afbd
00000140: 90ec 843d f81a 993d 7994 3dbd 3fab 9b3d
00000150: 8ac2 63be d678 49be 7b66 973d 894d b0be
00000160: ed50 7f3e 87f9 aebd 4473 a5be a76a 81be
00000170: 958e 233e 831a ee3d 512a 293e fe76 7f3c
00000180: 6277 21be 9564 043e 65bb 943e 3a38 1f3e
00000190: 0b4b 9fbe d0ca 3b3e 9a94 8a3e 3c92 aa3d
000001a0: 0b5d 9cbd f4b4 8abe 948f 943e 31df 3cbe
000001b0: 1ed6 563e 567f 823e 2da9 27bd aeff 92be
000001c0: 4382 18bd 4a18 e7bd 5843 a03e 552c 253e
000001d0: 3cd3 99be d30a 433e 7af0 e6bd 310c 8fbe
000001e0: b34e 113e 2b71 fd3c 50c6 5fbe 5dc0 67bb
000001f0: 7bfc 4abe 902f 383e 64c6 853e 10ec 333e
00000200: 8b97 323a 449b 97be 1d0d 473e b8d2 0abd
00000210: 1ea9 413e e6de 543d 5686 50be 676b cd3d
00000220: 44c5 823c 991d 56be 1061 b8bd 100c 26be
00000230: 0e61 7f3e 29d6 2abd bff2 99be 5f60 fabc
00000240: 88cb a03e e973 80bd 412e 95be 7296 563e
00000250: 9bc6 223e b70f 893e c10d 26be 68fd 5c3c
00000260: 4c96 8bbe 4256 2ebe 4e57 283e f616 a53c
00000270: f56f 823d c04f a9bd 3b09 33be e0fc 753d
00000280: bbb7 213b d6fa 313d a480 993e 644d d03d
00000290: 82b3 303e 3e14 6cbe a396 64be 5163 36be
000002a0: b993 513e 290d 15be 68af 533e 37a4 a43d
000002b0: ac4f b53d 2d77 363e cf0e 173c f551 53be
000002c0: b7b0 35bd eac1 953d b3e6 01be f4fc 88be
000002d0: 0e0d 7a3e e94c 8a3e 897c 8cbe 887e 93be
000002e0: 591f afbd 7106 46be 6d60 733e aaf2 813d
000002f0: 9200 d9b9 88a9 b8bd 7552 ac3d 78a8 9b3a
00000300: 6911 07be 25cd 373e 59b9 99bc 81e0 f93c
00000310: 4fca 63be 75ae 2ebe a0cc 803e 4bf9 4dbe
00000320: f262 71bd 2754 18be 102a ed3d 34f0 e4bd
00000330: d6fc 7f3e a881 3bbd 1f9b 833e cd74 843e
00000340: 6d71 413e 624a 0a3e 7a09 cfbe c97f 87be
00000350: ccc3 a83c d2a6 31be 3e07 073e f4cf 43be
00000360: 6b25 4d3e fa73 4bbe 5ece 55be afce 413e
00000370: 44b6 7bbe 1c4b 193d 84f4 4d3e 6b0d ae3e
00000380: 768a f03d 28fa 78be 55aa 843e bd40 b63d
00000390: dd49 743c de79 b53d 8abb 92bb 3364 4f3c
000003a0: 44a3 a8bd 0654 9cbe 51a6 ff3d cf09 df3d
000003b0: 1335 ae3b 930d 963e cbf4 a8bc ebcc b8bd
000003c0: 4840 9b3d bd16 b13d 445e a9be 1a1d 2d3e
000003d0: 10c1 213e 8314 9d3d 53a2 0d3e 976c 49be
000003e0: 8677 1bbe f6ff 3cbe 97b2 7bbe d4fc 23bd
000003f0: 85c7 71be 683a 3e3e 5ca4 43be 6674 f4bd
-0.03755805 0.09581121 -0.062083114 -0.08100117 0.059571117 0.22322458 -0.18812455 -0.15932335
0.091079354 0.3514319 0.062495142 -0.07625791 0.08214094 -0.016936982 0.16989475 -0.043686904
0.18677734 -0.20273437 -0.33286765 -0.16178605 0.28310737 0.1312383 0.15663838 -0.12116378
-0.043525666 0.21612637 0.21407276 -0.16537063 0.3164497 -0.20896459 0.049590208 -0.17053594
0.2577356 -0.06211909 -0.26494506 0.10330892 0.32123688 -0.25826272 0.07704417 0.025368609
-0.25413716 -0.24513976 0.23590606 0.10355455 -0.27430254 0.1297013 0.30652615 -0.18967362
0.20012718 0.24063267 0.21863519 0.018299846 0.10981789 0.08347834 0.22215448 0.024305537
0.2653435 0.014745093 -0.13481118 0.2897954 -0.047730118 0.2152378 -0.25911832 -0.18430495
0.068459064 0.14995366 -0.11527882 -0.34683886 0.18859656 0.15336885 -0.08507604 -0.02079
-0.21120936 -0.12376508 -0.030947901 0.24396272 -0.3720909 -0.27665156 -0.10498102 -0.08586964
0.06490433 0.07475847 -0.046284173 0.07601022 -0.2224218 -0.19675002 0.073925935 -0.34434155
0.24933214 -0.08543687 -0.32314503 -0.25276682 0.1597236 0.116261505 0.16520049 0.015592335
-0.15768197 0.12928994 0.2904922 0.15548792 -0.3111194 0.18339086 0.270665 0.08328673
-0.07634934 -0.2709118 0.2901579 -0.18444516 0.20980117 0.25487775 -0.040932823 -0.28710693
-0.037233602 -0.1128393 0.3130138 0.16130193 -0.30043972 0.19047098 -0.11276336 -0.2793899
0.14190178 0.030937752 -0.21852994 -0.003536246 -0.19822876 0.17986894 0.26127923 0.1757052
0.0006812743 -0.29610646 0.19438596 -0.033892363 0.1891217 0.051970385 -0.20363745 0.10030251
0.015963204 -0.20909728 -0.09002888 -0.16215539 0.24939367 -0.041708145 -0.30068013 -0.030563531
0.31405282 -0.06272108 -0.2913685 0.20955828 0.15896074 0.26769802 -0.16216184 0.013488151
-0.27263105 -0.17025092 0.16439554 0.02015255 0.0636901 -0.08267164 -0.1748399 0.060055614
0.0024676162 0.043452106 0.29980958 0.10171011 0.17255977 -0.23054597 -0.22323088 -0.17811324
0.20466508 -0.14555801 0.20672381 0.08039134 0.08853087 0.178189 0.009219839 -0.20636733
-0.04435798 0.07312377 -0.12685661 -0.26755488 0.24419042 0.27011803 -0.27438763 -0.28807473
-0.08550901 -0.19338395 0.23767252 0.063451126 -0.0004138989 -0.090167105 0.08414165 0.0011875769
-0.13190235 0.1794935 -0.018765138 0.03050256 -0.22245143 -0.17058738 0.25156116 -0.20114629
-0.058932252 -0.14875852 0.115802884 -0.111786276 0.24998793 -0.045777947 0.25704286 0.25870362
0.18890925 0.13504937 -0.40436918 -0.2646468 0.020601176 -0.17348793 0.13186356 -0.19122297
0.20033805 -0.1986846 -0.20879504 0.189265 -0.24581248 0.037425146 0.20112807 0.33994612
0.11745159 -0.24314177 0.25911203 0.088990666 0.0149101885 0.08861135 -0.004477923 0.012658167
-0.082342654 -0.30532855 0.12482894 0.10890543 0.0053163855 0.2930723 -0.020624539 -0.0902346
0.0758062 0.08646915 -0.3307973 0.16905633 0.15796304 0.07669928 0.13831453 -0.1967033
-0.15182313 -0.18457016 -0.24579845 -0.040036038 -0.23611267 0.18576968 -0.19105667 -0.11936264

convs.2.att_src f4 [1, 1, 32]
00000000: c01e f13d d3c7 94be 1da9 52be 6c4c 413e
00000010: 8217 9a3d 89b7 763e af23 97be 90c8 cdbe
00000020: 04f9 983e fc97 14be ada3 513e 8ecc 663e
00000030: 219a 923d 0ff3 8b3e 3e13 123e a5b8 643e
00000040: 8fc3 863e 867f 6f3e 5d9c 873d f179 b7bb
00000050: 5851 8b3e 81c8 8c3c d213 35be 2413 08bc
00000060: ca4a d5bd 7b0d 81be fa6c 7fbe d364 323e
00000070: 5e8e 263e af51 a8be 8a03 81be 73d7 013d
0.11773443 -0.29058704 -0.20572324 0.18876809 0.07524015 0.2409345 -0.29519412 -0.4019208
0.29877484 -0.14511102 0.20472594 0.22538969 0.07158304 0.27333876 0.14265153 0.22336061
0.26321074 0.2338849 0.06621621 -0.0055992533 0.27210498 0.017185451 -0.17683342 -0.008305345
-0.104146555 -0.25205597 -0.24943915 0.17421274 0.16265246 -0.3287482 -0.25198013 0.03169961

convs.2.att_dst f4 [1, 1, 32]
00000000: 99cc a4bd 45c1 fdbe 555d 903e 92b8 b1be
00000010: c236 9e3e 1e1c 813d de47 05be d4d8 7a3b
00000020: cd7f 2abe ea17 b2be 9555 133e 49ab 6cbe
00000030: 3c07 a4be addf ddbe 209c 3c3e 9ed9 c93e
00000040: c7f5 b0be b66c 7fbd 9c2c c43e ee8f aa3e
00000050: 23e1 043e 632b 8e3d 6ae2 51be 6a70 b23e
00000060: f314 3b3e 0080 a43e b510 a53e 5c68 62bd
00000070: 64e9 2cbe 48b1 253b 3414 fa3c 8372 b33e
-0.080468364 -0.49561515 0.28196207 -0.34711128 0.30901152 0.06304191 -0.13015696 0.0038276212
-0.16650315 -0.3478387 0.14388116 -0.23112215 -0.3203677 -0.43334714 0.18418932 0.3942384
-0.34562513 -0.062359534 0.38315284 0.33312935 0.12976508 0.06941869 -0.20496526 0.3485139
0.1826971 0.32128906 0.3223931 -0.055275306 -0.16885906 0.002528267 0.030527212 0.35048303

convs.2.bias f4 [32]
00000000: 697e 6fbc 5965 2c3d 34fe e2ba 9e3d 8b3d
00000010: e28f 62bd a9f9 e3bc 5754 8abb 1cb9 25bd
00000020: c8ed cb3b 39a5 98bb bc9e 153c 631b fe3c
00000030: 68d3 0238 168f c23c a01c 9fbc b860 a8bb
00000040: 386c 823d 4f6c 243a 5300 7ebc ee01 363d
00000050: 10eb 0f3d 1281 1cbd 97f8 d63d b7fe 17bd
00000060: 33e2 3e3d 7d88 0b3d 0024 b43c 4249 733b
00000070: 9566 7c3d e871 87bb a086 983d 65bc bebc
-0.014617541 0.04208884 -0.001731819 0.06798862 -0.055313 -0.027829008 -0.00422148 -0.040459737
0.006223414 -0.004658368 0.0091320835 0.031018918 3.1191303e-05 0.02374987 -0.01942283 -0.005138483
0.06368297 0.0006272243 -0.015503007 0.044435434 0.035136282 -0.03820903 0.104966335 -0.03710815
0.04660244 0.034065712 0.021989822 0.0037122522 0.061621267 -0.0041334517 0.07447553 -0.023283193

convs.2.lin_src.weight f4 [32, 32]
00000000: a566 993d 572c bdbd b8a6 ef3d ee9b 52be
00000010: 143b ba3d c248 e23d e1de 5bbe f7f4 4cbb
00000020: ac5b 2a3e 9e9f 8a3e 756f 563d 52f9 e7bd
00000030: ec16 033c ee28 073e 509f 4ebe 4e60 f33d
00000040: 9fdd d43c cc51 943e 7367 043e 2e97 1bbd
00000050: ccd8 253e 2d85 b13d eed0 3e3d aeeb 913e
00000060: 6058 8f3e 0ed9 543e fab0 6f3e 787c 1d3e
00000070: 408c e8bd 7455 ea3d b7e1 1b3e 8d65 8abe
00000080: c37b 1abe 1226 30be 11ba 8bbe 9c4f 283e
00000090: 6fc8 863d 3f98 373e 4eaf 443c e2ea 7bbe
000000a0: cec7 8dbe 345b 7f3e 45f5 a33e b1ec 2e3b
000000b0: 5ecf 143d 0ffa 4dbc 0c48 83be d7cb 9ebe
000000c0: 7c71 4e3e 75e2 a53e e403 4a3e 5873 8d3d
000000d0: df90 413e 169f 8f3e 5e8a 50be 9891 033c
000000e0: 990f 60be c96d ad3c b0a0 963e f682 813c
000000f0: b810 a0be daa1 39be bec9 8dbe 3024 b6bc
00000100: 2dbe 3dbd 25e9 f33d fa8b 6dbe 1ad3 10be
00000110: 9995 623e c517 cdbd 621a 3f3d ef7f 9b3e
00000120: 825d 0f3e ab27 eebd 7efd a7be bc88 b5bd
00000130: d237 cdbd 928a bcbd 546d 783e 6300 73bd
00000140: 4cc6 a1bd 2ef7 1d3e 466f 82be 16cf 81be
00000150: 48f9 d03d e60d 963e 4120 5f3e cb78 9e3e
00000160: 39db 5c3d d7f0 70bd e8d8 52be ab37 293e
00000170: f92f 4d3e e58f 10bc c1f0 84be a0ce 0b3e
00000180: 7ee2 e23b 5402 963e af10 323e 5ec2 d7bc
00000190: b30a d0bd 1809 263e 8d41 d0bd 642b 4bbe
000001a0: 842d 1f3e 4f71 093e cbe3 63bd bdab b13e
000001b0: cffb 2a3e 34d5 9a3e 0122 473e 2fab 1c3e
000001c0: ce90 083e 676d 013e 3e63 74be c7ed 053e
000001d0: e11d 0bbe 19ca 153e 749c 143d df43 66be
000001e0: f1c9 e13c 7ae1 27be 6f74 6bbe 74ac a0be
000001f0: 5648 8d3e a975 93be 059c 1ebe 84ee 9f3e
00000200: c89d 64be 24a1 ff3d 91ca abbd 51b1 6ebe
00000210: e986 11be ef97 3abd 34fb 233e 941b 603c
00000220: c762 1bbe 5425 11bd f66c 953d bac5 293d
00000230: d474 8dbd 47c2 883e 7dcd 2c3e fda5 97bd
00000240: 919c 55be 12db 173e a32c 0e3e d0cf f93a
00000250: 94a4 533e 57fb aa3d 7738 9f3e 84c5 013e
00000260: 8542 0d3d d1db c3bc 3ed2 58be d14b 983e
00000270: e5fe 3b3e 7723 df3d 569b a4bd 4473 94be
00000280: d735 99be e184 bb3c 6cc1 7bbe 7e58 8cbd
00000290: bf98 9ebe 97d5 babd 09b1 6c3e 8ede 8fbd
000002a0: 4bc4 85bd 5ea0 87be 4832 8abe 2964 e1bd
000002b0: a974 f13d 0dbc 873d c0ae 2f39 5995 b6bd
000002c0: 5317 00bd ed16 90be e318 6cbd 4044 e63d
000002d0: 77fa 14be 75cf 3f3e 4d63 823e 4446 68bd
000002e0: 8f90 983c 9bf3 c33d 345f 8a3d 47e3 acbd
000002f0: b251 15bd b94d 913e 3b82 2ebd 7db2 073e
00000300: 4507 853e 05e7 a93e aaff 6f3e d4a8 073e
00000310: 5646 8abe 19e0 f13d b3dd 1f3e b928 3fbe
00000320: fc9b 993d 04e8 febd c974 803e 68e8 81be
00000330: a821 12be 3aed 4abe fc00 cdbd 5de3 1fbe
00000340: 21a6 613d ef49 35be a943 973e e8cc 373e
00000350: 24b1 43be 94b5 8ebd 9700 90be c665 383e
00000360: 90dd 13be 5be4 6f3e b0b2 02be ff34 4c3d
00000370: 9464 813e 67e0 183e 7226 b03e 9b35 563e
00000380: 5a19 7ebc 2893 a6be f4a5 f4bd 0255 88bd
00000390: 6dda 7cbd 4fec 533e c10e 61be 4122 f0bc
000003a0: d6ab 13be 2ba5 863e a8f6 0bbe bf50 8dbe
000003b0: 3495 b03d 9338 21bc b6be a03d c9f7 3cbe
000003c0: a25b 5fbe 8200 8cbe 7a20 a3bd ad07 913e
000003d0: 8e7a 37be f8ba d43d 6aed f1bd 0c21 79be
000003e0: f2a8 f4bd 04c4 33bc 5593 c53d ad4d afbd
000003f0: 4829 78be 18b6 0dbe 3f07 213e 8f4f 93be
0.07490281 -0.09236973 0.11701721 -0.20567295 0.090932995 0.11049034 -0.2147174 -0.003127394
0.16636533 0.27074903 0.052352387 -0.11326851 0.0080010705 0.13199207 -0.2017796 0.11883603
0.025984583 0.28968656 0.12930088 -0.037985973 0.16195983 0.086679794 0.04658597 0.28500122
0.27997112 0.20785925 0.23407355 0.15379512 -0.113548756 0.1144208 0.15222822 -0.27030602
-0.15086274 -0.17202023 -0.27290395 0.16436619 0.065811984 0.17929171 0.0120046865 -0.2460132
-0.276915 0.24937135 0.32023063 0.0026691372 0.036330573 -0.012571826 -0.25640905 -0.31014892
0.20160478 0.32399336 0.19728047 0.06906766 0.1890292 0.2805106 -0.20365283 0.008030318
-0.2188095 0.021170514 0.2941947 0.015809517 -0.31262755 -0.18128148 -0.2769298 -0.022234052
-0.046323944 0.11909703 -0.23197928 -0.14143029 0.2212738 -0.10014299 0.04665602 0.30371043
0.14000514 -0.1162866 -0.32810587 -0.08863971 -0.100204125 -0.09206118 0.24260455 -0.05932654
-0.0789915 0.15426323 -0.2547552 -0.25353307 0.102037966 0.2930748 0.21789648 0.30951533
0.053920005 -0.058823433 -0.20590556 0.16525142 0.20037831 -0.00882337 -0.2596493 0.1365304
0.0069239726 0.2929865 0.17389177 -0.026337799 -0.10158291 0.16214406 -0.10168753 -0.19840771
0.15544707 0.1342213 -0.055637162 0.34701338 0.1669762 0.30240786 0.19446565 0.15299676
0.13336489 0.1263939 -0.23865983 0.13078986 -0.13585617 0.14627875 0.036282018 -0.22486828
0.027562113 -0.16394606 -0.22993635 -0.3138157 0.2759425 -0.28800705 -0.15489204 0.3123666
-0.22325814 0.12481907 -0.08388246 -0.23309828 -0.1421162 -0.04555505 0.16013795 0.01367845
-0.151744 -0.03543599 0.07296173 0.041448332 -0.06907049 0.26710722 0.16875263 -0.074047066
-0.20860507 0.14829662 0.13884215 0.0019059125 0.2066825 0.083487205 0.31097767 0.12673002
0.034487266 -0.023908528 -0.21173951 0.29745343 0.18358953 0.10895436 -0.080374405 -0.2899419
-0.2992389 0.02289051 -0.24585503 -0.06852816 -0.3097591 -0.0912277 0.23114409 -0.07024871
-0.065315805 -0.26489538 -0.26991487 -0.11005432 0.11789829 0.06627665 0.000167544 -0.089152046
-0.031272244 -0.2814249 -0.05764092 0.112434864 -0.1454867 0.18731482 0.25466385 -0.056707636
0.018623618 0.095679484 0.0675644 -0.08441787 -0.036454864 0.2837961 -0.042604666 0.13251682
0.2598211 0.33184066 0.23437372 0.13247997 -0.27006787 0.11810321 0.15611915 -0.18667878
0.07500455 -0.12446597 0.250891 -0.25372624 -0.14270651 -0.19817057 -0.100099534 -0.15614076
0.055090073 -0.17703985 0.29543808 0.1794926 -0.19110543 -0.06968227 -0.2812545 0.18007573
-0.14439988 0.23426954 -0.12763476 0.04985523 0.25272048 0.14929353 0.3440433 0.20918886
-0.015508974 -0.32534146 -0.119457155 -0.06656839 -0.061731745 0.20695613 -0.21978284 -0.029313209
-0.14421019 0.26297888 -0.1366831 -0.27600667 0.08622208 -0.0098401485 0.07848875 -0.18453898
-0.21812299 -0.27344137 -0.07965179 0.2832617 -0.17917845 0.10387224 -0.11812861 -0.24329013
-0.11946286 -0.010972027 0.09647242 -0.08559737 -0.24234498 -0.13838995 0.1572542 -0.28771636

convs.2.lin_dst.weight f4 [32, 32]
00000000: a566 993d 572c bdbd b8a6 ef3d ee9b 52be
00000010: 143b ba3d c248 e23d e1de 5bbe f7f4 4cbb
00000020: ac5b 2a3e 9e9f 8a3e 756f 563d 52f9 e7bd
00000030: ec16 033c ee28 073e 509f 4ebe 4e60 f33d
00000040: 9fdd d43c cc51 943e 7367 043e 2e97 1bbd
00000050: ccd8 253e 2d85 b13d eed0 3e3d aeeb 913e
00000060: 6058 8f3e 0ed9 543e fab0 6f3e 787c 1d3e
00000070: 408c e8bd 7455 ea3d b7e1 1b3e 8d65 8abe
00000080: c37b 1abe 1226 30be 11ba 8bbe 9c4f 283e
00000090: 6fc8 863d 3f98 373e 4eaf 443c e2ea 7bbe
000000a0: cec7 8dbe 345b 7f3e 45f5 a33e b1ec 2e3b
000000b0: 5ecf 143d 0ffa 4dbc 0c48 83be d7cb 9ebe
000000c0: 7c71 4e3e 75e2 a53e e403 4a3e 5873 8d3d
000000d0: df90 413e 169f 8f3e 5e8a 50be 9891 033c
000000e0: 990f 60be c96d ad3c b0a0 963e f682 813c
000000f0: b810 a0be daa1 39be bec9 8dbe 3024 b6bc
00000100: 2dbe 3dbd 25e9 f33d fa8b 6dbe 1ad3 10be
00000110: 9995 623e c517 cdbd 621a 3f3d ef7f 9b3e
00000120: 825d 0f3e ab27 eebd 7efd a7be bc88 b5bd
00000130: d237 cdbd 928a bcbd 546d 783e 6300 73bd
00000140: 4cc6 a1bd 2ef7 1d3e 466f 82be 16cf 81be
00000150: 48f9 d03d e60d 963e 4120 5f3e cb78 9e3e
00000160: 39db 5c3d d7f0 70bd e8d8 52be ab37 293e
00000170: f92f 4d3e e58f 10bc c1f0 84be a0ce 0b3e
00000180: 7ee2 e23b 5402 963e af10 323e 5ec2 d7bc
00000190: b30a d0bd 1809 263e 8d41 d0bd 642b 4bbe
000001a0: 842d 1f3e 4f71 093e cbe3 63bd bdab b13e
000001b0: cffb 2a3e 34d5 9a3e 0122 473e 2fab 1c3e
000001c0: ce90 083e 676d 013e 3e63 74be c7ed 053e
000001d0: e11d 0bbe 19ca 153e 749c 143d df43 66be
000001e0: f1c9 e13c 7ae1 27be 6f74 6bbe 74ac a0be
000001f0: 5648 8d3e a975 93be 059c 1ebe 84ee 9f3e
00000200: c89d 64be 24a1 ff3d 91ca abbd 51b1 6ebe
00000210: e986 11be ef97 3abd 34fb 233e 941b 603c
00000220: c762 1bbe 5425 11bd f66c 953d bac5 293d
00000230: d474 8dbd 47c2 883e 7dcd 2c3e fda5 97bd
00000240: 919c 55be 12db 173e a32c 0e3e d0cf f93a
00000250: 94a4 533e 57fb aa3d 7738 9f3e 84c5 013e
00000260: 8542 0d3d d1db c3bc 3ed2 58be d14b 983e
00000270: e5fe 3b3e 7723 df3d 569b a4bd 4473 94be
00000280: d735 99be e184 bb3c 6cc1 7bbe 7e58 8cbd
00000290: bf98 9ebe 97d5 babd 09b1 6c3e 8ede 8fbd
000002a0: 4bc4 85bd 5ea0 87be 4832 8abe 2964 e1bd
000002b0: a974 f13d 0dbc 873d c0ae 2f39 5995 b6bd
000002c0: 5317 00bd ed16 90be e318 6cbd 4044 e63d
000002d0: 77fa 14be 75cf 3f3e 4d63 823e 4446 68bd
000002e0: 8f90 983c 9bf3 c33d 345f 8a3d 47e3 acbd
000002f0: b251 15bd b94d 913e 3b82 2ebd 7db2 073e
00000300: 4507 853e 05e7 a93e aaff 6f3e d4a8 073e
00000310: 5646 8abe 19e0 f13d b3dd 1f3e b928 3fbe
00000320: fc9b 993d 04e8 febd c974 803e 68e8 81be
00000330: a821 12be 3aed 4abe fc00 cdbd 5de3 1fbe
00000340: 21a6 613d ef49 35be a943 973e e8cc 373e
00000350: 24b1 43be 94b5 8ebd 9700 90be c665 383e
00000360: 90dd 13be 5be4 6f3e b0b2 02be ff34 4c3d
00000370: 9464 813e 67e0 183e 7226 b03e 9b35 563e
00000380: 5a19 7ebc 2893 a6be f4a5 f4bd 0255 88bd
00000390: 6dda 7cbd 4fec 533e c10e 61be 4122 f0bc
000003a0: d6ab 13be 2ba5 863e a8f6 0bbe bf50 8dbe
000003b0: 3495 b03d 9338 21bc b6be a03d c9f7 3cbe
000003c0: a25b 5fbe 8200 8cbe 7a20 a3bd ad07 913e
000003d0: 8e7a 37be f8ba d43d 6aed f1bd 0c21 79be
000003e0: f2a8 f4bd 04c4 33bc 5593 c53d ad4d afbd
000003f0: 4829 78be 18b6 0dbe 3f07 213e 8f4f 93be
0.07490281 -0.09236973 0.11701721 -0.20567295 0.090932995 0.11049034 -0.2147174 -0.003127394
0.16636533 0.27074903 0.052352387 -0.11326851 0.0080010705 0.13199207 -0.2017796 0.11883603
0.025984583 0.28968656 0.12930088 -0.037985973 0.16195983 0.086679794 0.04658597 0.28500122
0.27997112 0.20785925 0.23407355 0.15379512 -0.113548756 0.1144208 0.15222822 -0.27030602
-0.15086274 -0.17202023 -0.27290395 0.16436619 0.065811984 0.17929171 0.0120046865 -0.2460132
-0.276915 0.24937135 0.32023063 0.0026691372 0.036330573 -0.012571826 -0.25640905 -0.31014892
0.20160478 0.32399336 0.19728047 0.06906766 0.1890292 0.2805106 -0.20365283 0.008030318
-0.2188095 0.021170514 0.2941947 0.015809517 -0.31262755 -0.18128148 -0.2769298 -0.022234052
-0.046323944 0.11909703 -0.23197928 -0.14143029 0.2212738 -0.10014299 0.04665602 0.30371043
0.14000514 -0.1162866 -0.32810587 -0.08863971 -0.100204125 -0.09206118 0.24260455 -0.05932654
-0.0789915 0.15426323 -0.2547552 -0.25353307 0.102037966 0.2930748 0.21789648 0.30951533
0.053920005 -0.058823433 -0.20590556 0.16525142 0.20037831 -0.00882337 -0.2596493 0.1365304
0.0069239726 0.2929865 0.17389177 -0.026337799 -0.10158291 0.16214406 -0.10168753 -0.19840771
0.15544707 0.1342213 -0.055637162 0.34701338 0.1669762 0.30240786 0.19446565 0.15299676
0.13336489 0.1263939 -0.23865983 0.13078986 -0.13585617 0.14627875 0.036282018 -0.22486828
0.027562113 -0.16394606 -0.22993635 -0.3138157 0.2759425 -0.28800705 -0.15489204 0.3123666
-0.22325814 0.12481907 -0.08388246 -0.23309828 -0.1421162 -0.04555505 0.16013795 0.01367845
-0.151744 -0.03543599 0.07296173 0.041448332 -0.06907049 0.26710722 0.16875263 -0.074047066
-0.20860507 0.14829662 0.13884215 0.0019059125 0.2066825 0.083487205 0.31097767 0.12673002
0.034487266 -0.023908528 -0.21173951 0.29745343 0.18358953 0.10895436 -0.080374405 -0.2899419
-0.2992389 0.02289051 -0.24585503 -0.06852816 -0.3097591 -0.0912277 0.23114409 -0.07024871
-0.065315805 -0.26489538 -0.26991487 -0.11005432 0.11789829 0.06627665 0.000167544 -0.089152046
-0.031272244 -0.2814249 -0.05764092 0.112434864 -0.1454867 0.18731482 0.25466385 -0.056707636
0.018623618 0.095679484 0.0675644 -0.08441787 -0.036454864 0.2837961 -0.042604666 0.13251682
0.2598211 0.33184066 0.23437372 0.13247997 -0.27006787 0.11810321 0.15611915 -0.18667878
0.07500455 -0.12446597 0.250891 -0.25372624 -0.14270651 -0.19817057 -0.100099534 -0.15614076
0.055090073 -0.17703985 0.29543808 0.1794926 -0.19110543 -0.06968227 -0.2812545 0.18007573
-0.14439988 0.23426954 -0.12763476 0.04985523 0.25272048 0.14929353 0.3440433 0.20918886
-0.015508974 -0.32534146 -0.119457155 -0.06656839 -0.061731745 0.20695613 -0.21978284 -0.029313209
-0.14421019 0.26297888 -0.1366831 -0.27600667 0.08622208 -0.0098401485 0.07848875 -0.18453898
-0.21812299 -0.27344137 -0.07965179 0.2832617 -0.17917845 0.10387224 -0.11812861 -0.24329013
-0.11946286 -0.010972027 0.09647242 -0.08559737 -0.24234498 -0.13838995 0.1572542 -0.28771636

convs.3.att_src f4 [1, 1, 32]
00000000: 673b 023c 3695 cdbe 0546 e03e ae95 a73e
00000010: 4d2b 353c aa26 8ebe 644a 743d 3b5c a1be
00000020: e06f 5e3e 3777 9a3e 13a6 0dbe 7bf3 7c3c
00000030: 7884 d03e c551 a0bd 4c5a d6be 3f23 633c
00000040: e18e e2bd da88 17be 6cc5 8ebe 3f55 59bc
00000050: 5e9d c23d 9f28 37be 83e6 28be 6102 8abe
00000060: c4b2 e53d 4143 973e c22c d4bd 914a 823e
00000070: 5979 0a3e 56ba 993d 1e0f bb3e ddb0 8d3e
0.007948733 -0.401529 0.4380342 0.32731384 0.011057687 -0.27763873 0.059641257 -0.3151568
0.21722364 0.3016908 -0.13832884 0.01543891 0.40726066 -0.07828096 -0.41865766 0.013863384
-0.11062408 -0.14798298 -0.27884996 -0.013264953 0.09502672 -0.1788659 -0.16494183 -0.2695494
0.112157375 0.29543498 -0.103600994 0.25447515 0.13522853 0.07506244 0.3653497 0.27673998

convs.3.att_dst f4 [1, 1, 32]
00000000: bd46 73bd ac52 aa3e 8956 38bd 3ab8 d43e
00000010: 47b9 74bd 6705 91ba 7fc0 77be b5e1 96bd
00000020: d497 a6bc a3b0 243d d580 8d3e 3b46 8f3e
00000030: c5dd 8bbe 1f80 f63d a5b1 c1be d095 ae3e
00000040: 34f1 c53c 5ef8 ffbd 49ca 4bbe 4799 7cbe
00000050: 3c48 07be 0bd0 40be 3728 8a3e 6a30 5e3e
00000060: 4c50 d3ba 621d febc 5445 893d 0c77 acbe
00000070: 5a8a df3c 9473 71be 66b9 d33e 502f 02bd
-0.059393633 0.332662 -0.0450044 0.41546804 -0.059747007 -0.0011064232 -0.24194525 -0.07367269
-0.02033607 0.040207516 0.27637354 0.2798327 -0.27317634 0.12036156 -0.37830845 0.34098673
0.024162866 -0.12498544 -0.19901384 -0.24667846 -0.13211149 -0.18829362 0.26983806 0.21698156
-0.0016121953 -0.03101987 0.067026764 -0.33684576 0.02728765 -0.23579246 0.41352385 -0.031783402

convs.3.bias f4 [32]
00000000: 363a 8fbc 37f1 813d 6db4 233c f4ff acba
00000010: 2574 c0bb f5b8 56bc 7bbb bf3c 8f73 e53b
00000020: 16a8 79bc 813e afbb 13d8 453d 5805 d5bc
00000030: f771 e9bb 42d7 69bc 1ba2 edbb 0d1c 0a3c
00000040: 646d e93c f10d a5bc d7c5 6b3a e8c9 cd3c
00000050: 0966 abbc b008 863b de41 a1bc 47b5 cf3b
00000060: 6b4e be3c f49e 3fbc ffb7 abbc 4c4e 4a3d
00000070: d9ef 283d 7800 36bc 2391 983b 7aa8 0c3b
-0.017483812 0.06344836 0.009991747 -0.0013198839 -0.0058732205 -0.013105621 0.023404827 0.007002301
-0.015237829 -0.005348027 0.048301768 -0.026003525 -0.0071241814 -0.014272513 -0.0072519905 0.008429539
0.028494544 -0.02014825 0.0008994019 0.02512069 -0.020922678 0.004090391 -0.019684728 0.0063387486
0.023230752 -0.011695612 -0.02096176 0.049391076 0.04124436 -0.01110851 0.0046559735 0.0021462725
