trained_models/GAT_15_12_seed48_best_val_acc.pt (torch, 33206 bytes, 29 tensors)

convs.0.att_src f4 [1, 1, 32]
000000 d0 cb 95 be 43 ef 9a 3e 3b e5 95 be 2b 99 82 be
       -0.2925706 0.30260667 -0.2927645 -0.25507483
000010 8f 30 8c 3e fa 00 2a 3e 6f 5a a7 be df 30 66 3e
       0.27380797 0.16601935 -0.32686183 0.2247958
000020 1a 09 5e 3e 7f 89 01 bc 0b f1 18 bd fb 54 ec bd
       0.2168316 -0.007906317 -0.03733925 -0.11539646
000030 e8 f8 ac be 11 89 9c bd 21 09 16 3e 0f 52 15 3e
       -0.3378365 -0.07643331 0.1465192 0.14582084
000040 a0 f8 12 3c 8c 9d f8 bd 64 75 e7 3d 7b 85 28 be
       0.00897041 -0.12139425 0.11301687 -0.16457169
000050 fa 53 b3 3e a4 5b e4 be 61 b8 dc be 7c 79 15 3f
       0.35025007 -0.44601166 -0.4310942 0.58388495
000060 20 f2 81 3e e9 f4 67 bd 64 2b 77 be f3 05 b0 be
       0.2538004 -0.05663005 -0.24137646 -0.3437954
000070 73 70 b0 3e 90 b0 a7 3d 4a 03 b7 3e 54 cb e0 3e
       0.34460792 0.081879735 0.35744697 0.43905127

convs.0.att_dst f4 [1, 1, 32]
000000 c6 43 67 3e ab b0 a7 3e 83 2d e0 3d 5c 97 6b bc
       0.22584447 0.32751974 0.10946181 -0.014379349
000010 25 b5 be be ff 14 79 3e 89 83 73 3e 70 1a 64 bc
       -0.37247577 0.24324416 0.23780645 -0.013922319
000020 45 6a c6 3e 0f 4f 81 3e 8a 91 76 be e9 60 cd be
       0.38752952 0.2525563 -0.24078956 -0.40113
000030 1c ab 1b bd 97 6a 88 be 5e a2 1a 3d 31 34 fd 3e
       -0.03800498 -0.26643822 0.0377525 0.4945388
000040 04 35 41 3e 77 75 83 be d6 c0 9b 3e 7e 2a 89 be
       0.1886788 -0.25675556 0.3042056 -0.2679023
000050 d1 43 ae be 81 a3 96 be 53 b0 c0 3e 72 c8 66 3d
       -0.34036115 -0.2942162 0.37634525 0.056343503
000060 cd e2 e8 3e 12 0c 93 be 4c 01 1b 3e d8 24 80 be
       0.45485535 -0.28720146 0.15137213 -0.2502811
000070 88 30 d1 3e 25 50 08 be 30 b5 92 be b8 4d a0 be
       0.4085734 -0.13311823 -0.2865386 -0.31309295

convs.0.bias f4 [32]
000000 91 81 36 bd cf 89 f2 3c 00 0e 49 bc c7 31 68 bd
       -0.044557158 0.029606728 -0.012271404 -0.056688096
000010 4e 00 af 3c 5c a6 c9 bc 00 00 00 00 b5 d9 c0 3c
       0.02136245 -0.02461546 0.0 0.02354131
000020 55 eb da ba bc 1f fc bc 06 2e a6 3c 67 54 b2 bc
       -0.0016702214 -0.03077685 0.020285618 -0.021768762
000030 f6 c5 e8 bc 73 23 d9 3c 2f 4a 11 bc fd 87 74 3d
       -0.028414708 0.026506161 -0.008867784 0.0597
000040 d3 51 1c 3c 0a 79 35 3d 31 ef dd 3d a3 21 07 bd
       0.009540993 0.044304885 0.10836638 -0.032991063
000050 ca 1e 13 3d 40 05 14 3d 37 55 c5 bc ed 96 c5 bc
       0.035918035 0.03613782 -0.024088485 -0.024119819
000060 68 e2 42 bb 4f d7 e7 bc 0a 2c 8e 3d e3 f7 28 3d
       -0.0029737 -0.02830091 0.069419935 0.04125203
000070 41 7f 8e 3d af cd a3 bb 08 4c 44 3d e1 a6 d0 3c
       0.069578655 -0.0049988846 0.04792407 0.025470199

convs.0.lin_src.weight f4 [32, 7]
000000 7b f5 45 3d 66 83 a5 bd 48 b4 4e be ad 12 da 3b
       0.04832981 -0.08081703 -0.2018596 0.0066550584
000010 ac fa 85 be 70 98 48 be 79 dc 24 3b c3 11 8f be
       -0.2616781 -0.195894 0.0025155826 -0.2794324
000020 a7 fd 67 bd 80 c8 9e be 0c 5b 8d 3e 03 ca bb bc
       -0.056638386 -0.31012344 0.27608526 -0.022923475
000030 d1 70 a0 3e 89 2c 95 3e 75 2c 64 bc 6f e1 ae 3e
       0.31336072 0.2913554 -0.013926615 0.34156367
000040 d1 f0 86 3e 2b 9a 34 be ff 18 55 3e 7e 26 0f bd
       0.26355603 -0.17636935 0.20810317 -0.03494882
000050 b8 44 ea 3e 60 a9 0f 3e 74 7c 8c 3e 25 be 9c be
       0.45755553 0.14029455 0.274387 -0.3061382
000060 1a 8c c8 bd 51 03 3b 3d 3f 9a 9d 3e bc ed 49 be
       -0.09792347 0.04565746 0.30781743 -0.19719595
000070 09 ca 27 be 76 15 8c 3d b9 50 26 be a8 64 77 3e
       -0.16385664 0.06840031 -0.16241731 0.24159491
000080 71 17 2c be a4 83 ac 3e fa ed 65 be 7a 1b 3a 3e
       -0.16805817 0.33694184 -0.22454062 0.18174544
000090 26 ec 57 bd 35 fa 00 bd f7 ea 8f be 00 4a 51 3e
       -0.052715443 -0.031488616 -0.2810895 0.20438385
0000a0 e7 2a de 3d b5 44 00 3e 0c 57 5e bd 2a 5f 8f bd
       0.10848027 0.1252621 -0.054282233 -0.07000573
0000b0 14 40 14 be 42 39 60 be f0 07 4e be 64 c0 dc bd
       -0.14477569 -0.21896842 -0.20120215 -0.10778883
0000c0 e7 08 f3 bd 24 42 de bd 25 a2 7f be 34 d9 78 3e
       -0.11866932 -0.10852459 -0.24964197 0.24301606
0000d0 82 92 56 3e 3a 40 60 3c a8 78 fd bd 0c 31 f0 3e
       0.20954326 0.013687188 -0.12376529 0.4691242
0000e0 6a e9 c9 3e 78 bc 47 3e 03 3e 40 3e d7 35 cd bd
       0.39435893 0.19505489 0.18773656 -0.10020035
0000f0 d6 a7 2a be a3 7a be 3e f5 f7 f9 3e 30 d1 47 3e
       -0.16665587 0.3720294 0.4882199 0.19513392
000100 bf da 82 3e 1d 59 68 3e 04 4a c1 be 56 ec 3d 3e
       0.25557515 0.22690244 -0.37751782 0.18547186
000110 7b 9e ff 3e 02 1f 4d 3d d6 89 8e 3e 72 31 f7 bc
       0.49925599 0.0500784 0.27839535 -0.030174945
000120 f0 19 ee b7 6f 45 a6 be fc 76 a1 3e 2b 4c 4f bd
       -2.8383889e-05 -0.3247485 0.3153609 -0.05060975
000130 9f 7c 72 3e a0 9b 11 be 07 f7 0d 3e b8 9b 96 bc
       0.23680352 -0.14219522 0.13863765 -0.0183848
000140 0a e4 9a 3d 58 51 a9 bd 99 0a ae be 00 05 20 be
       0.07563026 -0.08267468 -0.3399246 -0.15626907
000150 80 b0 83 3d 33 68 ab 3e 1b 4d db 3e 32 34 f4 be
       0.06430149 0.33477935 0.42832264 -0.47696072
000160 72 38 a9 bb a9 40 3b 3e 0c 33 e8 3e 38 14 4b be
       -0.0051641995 0.18286385 0.45351446 -0.19831932
000170 7b d3 8e be a1 ed 53 3e 5f 3b 35 3d 7f 3a 2b 3e
       -0.27895722 0.20696117 0.044246074 0.16721533
000180 61 39 af bd e4 1b cf be a1 11 6e be ca 07 ca be
       -0.08555866 -0.40450966 -0.23248912 -0.39459068
000190 18 98 34 be 43 2e 36 be 1d fc c0 be 26 89 08 be
       -0.17636144 -0.17791085 -0.37692347 -0.13333568
0001a0 fc a6 11 bc 4f 34 86 be 02 50 58 3e 0b e3 ae be
       -0.00888991 -0.26211783 0.2112427 -0.34157595
0001b0 e4 45 00 3f f3 96 e3 3e af da 84 be 5e b7 5d be
       0.50106645 0.44451103 -0.25948092 -0.2165198
0001c0 50 6e 97 be 77 1c 64 3e 99 3e 38 bd bf e1 f8 3d
       -0.2957635 0.22276483 -0.044981573 0.12152433
0001d0 cb 70 2b be 54 84 75 3e 83 1b 96 3d e4 9e 3a be
       -0.16742246 0.2397626 0.07329466 -0.18224674
0001e0 22 b6 8f 3e 23 ef 45 be 62 23 f2 3d a9 9d 6f bd
       0.28068644 -0.19329505 0.11823155 -0.058499966
0001f0 a0 0b e3 be 18 5d ac be be d2 5a 3e d3 67 60 be
       -0.44344807 -0.33664775 0.21369454 -0.21914606
000200 49 2f 90 be 14 e1 8b bc 77 f5 86 3e 1d ab 54 be
       -0.28161076 -0.017075099 0.2635915 -0.207684
000210 3a 61 86 be 1a 50 df be dd 8f b9 3e f9 3f 26 be
       -0.26246053 -0.436158 0.3624257 -0.16235341
000220 14 d3 90 be 9d bd 29 3e 2d 47 5e be 0a e4 85 3d
       -0.2828604 0.16576238 -0.21706839 0.065376356
000230 5c d9 d6 be b4 be 8b be f2 c5 95 be e4 31 06 bd
       -0.41962707 -0.27293932 -0.29252583 -0.032762423
000240 3b af db bc b0 87 fb bd ce 7d c2 3d 72 3d 43 3e
       -0.026816955 -0.1228174 0.094966516 0.19066408
000250 f1 90 9b 3e cb 57 73 be 25 dd c4 be 2f 24 b2 bc
       0.3038402 -0.23763959 -0.3844997 -0.02174577
000260 b0 07 56 3d 40 a7 a7 be f6 0c b5 be 1d 27 89 3e
       0.052253425 -0.3274479 -0.3536145 0.26787654
000270 73 58 aa be b8 cc 38 be e1 57 ca bb e0 4f 8e 3d
       -0.33270606 -0.18046844 -0.0061750268 0.06948829
000280 7d 80 50 3e 9d e2 4e be 13 e7 db 3d 51 91 dd 3d
       0.20361514 -0.20203634 0.10737433 0.108187325
000290 47 c7 e8 3e 95 d3 bf bd 5f 86 9a be e4 87 6e 3e
       0.45464537 -0.09366528 -0.30180642 0.23294026
0002a0 08 5f 4d 3e 99 76 25 3e f6 7d c1 be d7 ca a8 bd
       0.20055783 0.16158523 -0.37791413 -0.08241814
0002b0 b5 a6 d9 3d 64 c5 92 be ac 65 2c be 72 ef 2e be
       0.106275 -0.28666222 -0.1683566 -0.17083529
0002c0 91 b7 4f bd 3a b5 b2 3e 0d 2b 77 be ac 54 57 3e
       -0.050712172 0.3490389 -0.24137516 0.21028394
0002d0 05 7e ab 3c 73 f7 a8 3d 65 76 a0 3e 70 77 8f be
       0.020934114 0.08250322 0.31340328 -0.2802081
0002e0 e5 c0 39 be 28 a3 05 3d 39 2e 15 be 17 66 6e be
       -0.1813999 0.0326263 -0.14568414 -0.23281132
0002f0 e4 e2 88 3e 3b 78 a3 3d 8c c1 67 3e 93 a2 b2 be
       0.26735604 0.079819165 0.22632426 -0.3488966
000300 48 5b 77 be ca 1f 5b bd ef 50 c2 be 46 00 12 3e
       -0.24155915 -0.053497113 -0.37952372 0.14257917
000310 e1 6d 71 3e 35 e2 13 3e 2c 5e 2e 3e 00 f0 5f 3e
       0.23577072 0.1444176 0.17028111 0.21868896
000320 a4 09 70 be ff 98 9e be d0 93 02 bd 1a 7e a7 be
       -0.23441178 -0.30976102 -0.031879246 -0.32713395
000330 19 1a 38 be be 10 eb 3d 05 c6 90 be 80 7e 86 3e
       -0.17978705 0.11477803 -0.28276077 0.26268387
000340 91 ac 47 bc 13 f0 3b 3e a3 e1 ae 3e b9 bd 4a 3e
       -0.012187139 0.183533 0.34156522 0.19798936
000350 d2 63 51 be a1 6b 3a 3c 87 2f 90 3e e5 7d c8 be
       -0.20448235 0.0113782 0.2816126 -0.3915855
000360 0e f8 8a be ef 5f f4 3d 33 aa cf be 45 59 ab 3d
       -0.27142376 0.119323604 -0.4055954 0.08366636
000370 a5 3b 10 3f ba 44 60 be 33 6a a4 3d e7 c3 2e 3d
       0.5634101 -0.21901217 0.080280684 0.042667296

convs.0.lin_dst.weight f4 [32, 7]
000000 7b f5 45 3d 66 83 a5 bd 48 b4 4e be ad 12 da 3b
       0.04832981 -0.08081703 -0.2018596 0.0066550584
000010 ac fa 85 be 70 98 48 be 79 dc 24 3b c3 11 8f be
       -0.2616781 -0.195894 0.0025155826 -0.2794324
000020 a7 fd 67 bd 80 c8 9e be 0c 5b 8d 3e 03 ca bb bc
       -0.056638386 -0.31012344 0.27608526 -0.022923475
000030 d1 70 a0 3e 89 2c 95 3e 75 2c 64 bc 6f e1 ae 3e
       0.31336072 0.2913554 -0.013926615 0.34156367
000040 d1 f0 86 3e 2b 9a 34 be ff 18 55 3e 7e 26 0f bd
       0.26355603 -0.17636935 0.20810317 -0.03494882
000050 b8 44 ea 3e 60 a9 0f 3e 74 7c 8c 3e 25 be 9c be
       0.45755553 0.14029455 0.274387 -0.3061382
000060 1a 8c c8 bd 51 03 3b 3d 3f 9a 9d 3e bc ed 49 be
       -0.09792347 0.04565746 0.30781743 -0.19719595
000070 09 ca 27 be 76 15 8c 3d b9 50 26 be a8 64 77 3e
       -0.16385664 0.06840031 -0.16241731 0.24159491
000080 71 17 2c be a4 83 ac 3e fa ed 65 be 7a 1b 3a 3e
       -0.16805817 0.33694184 -0.22454062 0.18174544
000090 26 ec 57 bd 35 fa 00 bd f7 ea 8f be 00 4a 51 3e
       -0.052715443 -0.031488616 -0.2810895 0.20438385
0000a0 e7 2a de 3d b5 44 00 3e 0c 57 5e bd 2a 5f 8f bd
       0.10848027 0.1252621 -0.054282233 -0.07000573
0000b0 14 40 14 be 42 39 60 be f0 07 4e be 64 c0 dc bd
       -0.14477569 -0.21896842 -0.20120215 -0.10778883
0000c0 e7 08 f3 bd 24 42 de bd 25 a2 7f be 34 d9 78 3e
       -0.11866932 -0.10852459 -0.24964197 0.24301606
0000d0 82 92 56 3e 3a 40 60 3c a8 78 fd bd 0c 31 f0 3e
       0.20954326 0.013687188 -0.12376529 0.4691242
0000e0 6a e9 c9 3e 78 bc 47 3e 03 3e 40 3e d7 35 cd bd
       0.39435893 0.19505489 0.18773656 -0.10020035
0000f0 d6 a7 2a be a3 7a be 3e f5 f7 f9 3e 30 d1 47 3e
       -0.16665587 0.3720294 0.4882199 0.19513392
000100 bf da 82 3e 1d 59 68 3e 04 4a c1 be 56 ec 3d 3e
       0.25557515 0.22690244 -0.37751782 0.18547186
000110 7b 9e ff 3e 02 1f 4d 3d d6 89 8e 3e 72 31 f7 bc
       0.49925599 0.0500784 0.27839535 -0.030174945
000120 f0 19 ee b7 6f 45 a6 be fc 76 a1 3e 2b 4c 4f bd
       -2.8383889e-05 -0.3247485 0.3153609 -0.05060975
000130 9f 7c 72 3e a0 9b 11 be 07 f7 0d 3e b8 9b 96 bc
       0.23680352 -0.14219522 0.13863765 -0.0183848
000140 0a e4 9a 3d 58 51 a9 bd 99 0a ae be 00 05 20 be
       0.07563026 -0.08267468 -0.3399246 -0.15626907
000150 80 b0 83 3d 33 68 ab 3e 1b 4d db 3e 32 34 f4 be
       0.06430149 0.33477935 0.42832264 -0.47696072
000160 72 38 a9 bb a9 40 3b 3e 0c 33 e8 3e 38 14 4b be
       -0.0051641995 0.18286385 0.45351446 -0.19831932
000170 7b d3 8e be a1 ed 53 3e 5f 3b 35 3d 7f 3a 2b 3e
       -0.27895722 0.20696117 0.044246074 0.16721533
000180 61 39 af bd e4 1b cf be a1 11 6e be ca 07 ca be
       -0.08555866 -0.40450966 -0.23248912 -0.39459068
000190 18 98 34 be 43 2e 36 be 1d fc c0 be 26 89 08 be
       -0.17636144 -0.17791085 -0.37692347 -0.13333568
0001a0 fc a6 11 bc 4f 34 86 be 02 50 58 3e 0b e3 ae be
       -0.00888991 -0.26211783 0.2112427 -0.34157595
0001b0 e4 45 00 3f f3 96 e3 3e af da 84 be 5e b7 5d be
       0.50106645 0.44451103 -0.25948092 -0.2165198
0001c0 50 6e 97 be 77 1c 64 3e 99 3e 38 bd bf e1 f8 3d
       -0.2957635 0.22276483 -0.044981573 0.12152433
0001d0 cb 70 2b be 54 84 75 3e 83 1b 96 3d e4 9e 3a be
       -0.16742246 0.2397626 0.07329466 -0.18224674
0001e0 22 b6 8f 3e 23 ef 45 be 62 23 f2 3d a9 9d 6f bd
       0.28068644 -0.19329505 0.11823155 -0.058499966
0001f0 a0 0b e3 be 18 5d ac be be d2 5a 3e d3 67 60 be
       -0.44344807 -0.33664775 0.21369454 -0.21914606
000200 49 2f 90 be 14 e1 8b bc 77 f5 86 3e 1d ab 54 be
       -0.28161076 -0.017075099 0.2635915 -0.207684
000210 3a 61 86 be 1a 50 df be dd 8f b9 3e f9 3f 26 be
       -0.26246053 -0.436158 0.3624257 -0.16235341
000220 14 d3 90 be 9d bd 29 3e 2d 47 5e be 0a e4 85 3d
       -0.2828604 0.16576238 -0.21706839 0.065376356
000230 5c d9 d6 be b4 be 8b be f2 c5 95 be e4 31 06 bd
       -0.41962707 -0.27293932 -0.29252583 -0.032762423
000240 3b af db bc b0 87 fb bd ce 7d c2 3d 72 3d 43 3e
       -0.026816955 -0.1228174 0.094966516 0.19066408
000250 f1 90 9b 3e cb 57 73 be 25 dd c4 be 2f 24 b2 bc
       0.3038402 -0.23763959 -0.3844997 -0.02174577
000260 b0 07 56 3d 40 a7 a7 be f6 0c b5 be 1d 27 89 3e
       0.052253425 -0.3274479 -0.3536145 0.26787654
000270 73 58 aa be b8 cc 38 be e1 57 ca bb e0 4f 8e 3d
       -0.33270606 -0.18046844 -0.0061750268 0.06948829
000280 7d 80 50 3e 9d e2 4e be 13 e7 db 3d 51 91 dd 3d
       0.20361514 -0.20203634 0.10737433 0.108187325
000290 47 c7 e8 3e 95 d3 bf bd 5f 86 9a be e4 87 6e 3e
       0.45464537 -0.09366528 -0.30180642 0.23294026
0002a0 08 5f 4d 3e 99 76 25 3e f6 7d c1 be d7 ca a8 bd
       0.20055783 0.16158523 -0.37791413 -0.08241814
0002b0 b5 a6 d9 3d 64 c5 92 be ac 65 2c be 72 ef 2e be
       0.106275 -0.28666222 -0.1683566 -0.17083529
0002c0 91 b7 4f bd 3a b5 b2 3e 0d 2b 77 be ac 54 57 3e
       -0.050712172 0.3490389 -0.24137516 0.21028394
0002d0 05 7e ab 3c 73 f7 a8 3d 65 76 a0 3e 70 77 8f be
       0.020934114 0.08250322 0.31340328 -0.2802081
0002e0 e5 c0 39 be 28 a3 05 3d 39 2e 15 be 17 66 6e be
       -0.1813999 0.0326263 -0.14568414 -0.23281132
0002f0 e4 e2 88 3e 3b 78 a3 3d 8c c1 67 3e 93 a2 b2 be
       0.26735604 0.079819165 0.22632426 -0.3488966
000300 48 5b 77 be ca 1f 5b bd ef 50 c2 be 46 00 12 3e
       -0.24155915 -0.053497113 -0.37952372 0.14257917
000310 e1 6d 71 3e 35 e2 13 3e 2c 5e 2e 3e 00 f0 5f 3e
       0.23577072 0.1444176 0.17028111 0.21868896
000320 a4 09 70 be ff 98 9e be d0 93 02 bd 1a 7e a7 be
       -0.23441178 -0.30976102 -0.031879246 -0.32713395
000330 19 1a 38 be be 10 eb 3d 05 c6 90 be 80 7e 86 3e
       -0.17978705 0.11477803 -0.28276077 0.26268387
000340 91 ac 47 bc 13 f0 3b 3e a3 e1 ae 3e b9 bd 4a 3e
       -0.012187139 0.183533 0.34156522 0.19798936
000350 d2 63 51 be a1 6b 3a 3c 87 2f 90 3e e5 7d c8 be
       -0.20448235 0.0113782 0.2816126 -0.3915855
000360 0e f8 8a be ef 5f f4 3d 33 aa cf be 45 59 ab 3d
       -0.27142376 0.119323604 -0.4055954 0.08366636
000370 a5 3b 10 3f ba 44 60 be 33 6a a4 3d e7 c3 2e 3d
       0.5634101 -0.21901217 0.080280684 0.042667296

convs.1.att_src f4 [1, 1, 32]
000000 a6 b2 26 3e 47 93 f5 be 76 54 5c bd 5d 91 a6 3e
       0.16279086 -0.47963926 -0.053791486 0.32532778
000010 1b ce 57 3d 6c bd 48 be a3 4f dc 3d 60 a2 04 bf
       0.052686792 -0.19603509 0.10757377 -0.51810265
000020 4f c0 cf be 4a 1a 13 3e f2 cd 91 3e 11 ba 59 be
       -0.40576407 0.14365497 0.28477436 -0.21262385
000030 e2 74 b1 3e 5f 18 cf 3e f4 8f f5 be e6 e8 b0 3e
       0.34659487 0.4044828 -0.4796139 0.34552687
000040 32 b9 08 be 22 f1 bf 3e e7 da 5f 3c e0 80 00 be
       -0.13351896 0.37488657 0.01366303 -0.12549162
000050 30 a0 9a 3e 65 25 55 3e 94 81 2f be c5 fe 49 3e
       0.30200338 0.20815046 -0.17139274 0.19726093
000060 6e 82 c7 bc e0 2c b5 3e 7a c9 b5 be 2d 76 d0 3d
       -0.024354186 0.353858 -0.35505277 0.1017879
000070 c7 d3 c5 3d 46 39 88 3e a4 60 44 3e d9 e0 b2 3e
       0.09659534 0.26606196 0.1917749 0.3493717

convs.1.att_dst f4 [1, 1, 32]
000000 9d 11 56 bd 43 a1 c6 be 48 2e 9c 3e e1 9c b5 bd
       -0.05226289 -0.38794908 0.3050406 -0.08867813
000010 3c e4 9c bd 16 22 e0 3e a2 15 de be 5b 59 46 be
       -0.0766072 0.43776006 -0.4337588 -0.19370024
000020 fa 62 ec 3e fc 86 1a be 03 43 a8 3e ca e8 a8 be
       0.46169263 -0.15090555 0.32863626 -0.32990104
000030 b9 75 be bd 1e 29 a9 be 32 31 b4 3d 48 f3 33 be
       -0.092997976 -0.33039182 0.08798446 -0.17573273
000040 34 5c 45 3e 30 b3 c9 3e 8e 85 42 3e 28 5f 7f bc
       0.19273454 0.39394522 0.1899626 -0.015586652
000050 df 3d 19 3e d1 b9 dd 3e 56 27 ee bd 6a 1b 30 3b
       0.14965008 0.4330583 -0.116285965 0.0026871809
000060 c7 8e 9e 3e fd 88 e8 3e 65 9f 7a 3e 99 3b de 3d
       0.30968305 0.45417014 0.24474867 0.10851211
000070 7b e1 6a 3e d2 98 dc be ee 0c 20 be 68 36 69 3e
       0.22937576 -0.43085343 -0.15629932 0.2277466

convs.1.bias f4 [32]
000000 51 4e b2 bc ce 47 25 3d ea a6 49 bd 04 d0 8d 3a
       -0.02176586 0.04035168 -0.049231447 0.001081944
000010 7d 8e 4c bb d1 a4 d6 3c ff 2d ac bc 33 05 82 bb
       -0.003121286 0.026201637 -0.021018026 -0.003967905
000020 ed 58 b0 bc a1 47 40 3d ef ad 94 bc 8f 40 af 3c
       -0.021526778 0.04694331 -0.018149344 0.021393089
000030 5d 78 c3 3d ce 52 3e bd 19 e9 8f 3d b0 08 21 3d
       0.09544442 -0.046465687 0.07026882 0.039314926
000040 ec 67 57 3d 9b 78 81 3d e0 fc 56 bc 02 d6 b7 bc
       0.052589342 0.06321832 -0.013121814 -0.022440914
000050 73 85 b0 3b 1f a6 b3 3d 1d c2 70 3c 5f ed 6c bc
       0.005387002 0.087719195 0.014694718 -0.014460891
000060 26 7c 06 3c 74 58 a5 3d 26 fa 4b 3d 79 2c 85 3b
       0.00820831 0.08073512 0.049799107 0.0040641394
000070 b9 a9 00 bc 79 6c 79 bc 80 87 27 3c c6 9e a9 3c
       -0.007852965 -0.015223616 0.010225177 0.020705592

convs.1.lin_src.weight f4 [32, 32]
000000 99 cd 19 bd bd 45 bf 3d f3 12 82 bd 24 c6 a3 bd
       -0.03754959 0.093394734 -0.063512705 -0.07996777
000010 65 ae 6c 3d 58 9d 65 3e b9 a3 40 be 6f c7 1d be
       0.057783503 0.22423303 -0.18812455 -0.15408109
000020 c1 52 b0 3d 24 61 b3 3e d8 8f 84 3d 21 08 a3 bd
       0.08609534 0.3503505 0.064727485 -0.07960535
000030 94 8c a3 3d f8 4d 35 bc 44 b6 2a 3e ff 81 31 bd
       0.079857975 -0.0110659525 0.16671091 -0.043336865
000040 06 93 3c 3e bb 5e 55 be 9f c9 a5 be e1 16 28 be
       0.1841546 -0.20836918 -0.32380387 -0.16414978
000050 3b 42 8f 3e b7 61 05 3e 88 ae 1a 3e 44 23 ec bd
       0.27980217 0.13025557 0.15105641 -0.11530164
000060 38 0c 26 bd 31 d5 5f 3e f7 3f 5c 3e 3e 25 28 be
       -0.040538996 0.2185867 0.21508776 -0.16420457
000070 7d b5 9e 3e a7 b2 4e be 72 cf 45 3d d6 22 33 be
       0.3099784 -0.20185338 0.04829354 -0.17493758
000080 51 f6 83 3e 7b a3 82 bd 1b de 84 be 23 a0 db 3d
       0.25773862 -0.06378838 -0.25950703 0.10723903
000090 bf c4 a5 3e ed cc 83 be 55 c9 9d 3d c8 b4 e6 3c
       0.32376668 -0.25742283 0.07704417 0.028162375
0000a0 61 5a 80 be 63 a4 74 be 53 a0 72 3e db 84 e0 3d
       -0.25068954 -0.23890834 0.23693971 0.1096284
0000b0 a0 88 88 be a1 75 07 3e 80 97 9d 3e 3f 4e 3d be
       -0.26666737 0.13228466 0.30779648 -0.1848688
0000c0 93 bf 52 3e d4 fc 7d 3e 17 46 68 3e 8b ab bb 3c
       0.20580892 0.24803478 0.22682987 0.022908946
0000d0 2f e2 d3 3d fd 04 b4 3d 99 6b 68 3e 23 fa fc 3c
       0.103458755 0.08790014 0.22697295 0.030880993
0000e0 db 47 88 3e a5 50 a4 3c 10 8f 0a be f7 f9 96 3e
       0.2661732 0.020057986 -0.13531137 0.29487583
0000f0 5e 5b 2a bd f5 f9 60 3e 54 21 81 be 94 1d 3a be
       -0.04159104 0.21970351 -0.2522074 -0.18175346
000100 76 34 8c 3d ae 8a 1b 3e 81 26 ec bd 2c 2e b1 be
       0.06845944 0.15189621 -0.115307815 -0.3460554
000110 95 75 42 3e 87 66 1e 3e 59 3c ae bd 99 39 f1 bc
       0.18990166 0.15468799 -0.08507604 -0.02944641
000120 69 73 53 be fd 30 fb bd 7c 3c eb bc 54 bd 7b 3e
       -0.20649494 -0.12265203 -0.028715365 0.24583942
000130 c7 03 bd be 79 7c 8f be aa ed df bd 8a 56 ae bd
       -0.36916944 -0.28024653 -0.10934003 -0.085126
000140 d4 6a 87 3d 9d 9b 9a 3d f0 13 22 bd f9 46 9a 3d
       0.06612173 0.07549212 -0.039569795 0.07533068
000150 f4 b1 66 be be 78 4c be f7 6e 98 3d 92 c4 b1 be
       -0.22528821 -0.19967934 0.0744304 -0.34720284
000160 b5 eb 7e 3e d8 16 b2 bd e7 24 a5 be e8 75 83 be
       0.24894603 -0.08695763 -0.32254717 -0.25675893
000170 11 4a 28 3e fe f0 f0 3d 2f 4b 2b 3e b0 99 72 3c
       0.16434504 0.117647156 0.16727899 0.01480715
000180 ab 78 21 be 6b a3 06 3e 36 63 95 3e e8 82 24 3e
       -0.15768687 0.13148277 0.29177254 0.16065562
000190 2b 87 9e be 7d d2 33 3e 9a 94 8a 3e dc 45 ae 3d
       -0.309625 0.17560764 0.270665 0.08509418
0001a0 56 77 a9 bd 1c 74 8b be 89 4a 93 3e 7d cc 3b be
       -0.08274715 -0.27237022 0.28767803 -0.18339725
0001b0 8d 64 56 3e 7b 59 83 3e f8 7a 1e bd b8 99 91 be
       0.20936795 0.25654206 -0.03869149 -0.2843759
0001c0 2d 13 14 bd ee 28 de bd 59 a6 9a 3e 9d ad 28 3e
       -0.0361511 -0.108476505 0.30205038 0.16472478
0001d0 d7 5d 99 be a2 64 49 3e 18 7d e3 bd d8 f8 8c be
       -0.29954407 0.19667295 -0.11107844 -0.27533603
0001e0 d8 d2 18 3e 99 13 03 3d 7c 7e 60 be e4 17 14 3b
       0.1492418 0.03200111 -0.2192325 0.0022597248
0001f0 04 be 4c be 7e 26 38 3e 40 08 86 3e dc 40 34 3e
       -0.1999436 0.17983434 0.2617817 0.17602867
000200 54 6d 32 3a c3 49 98 be 22 f4 46 3e 80 50 10 bd
       0.00068064523 -0.29743776 0.19429067 -0.03523302
000210 cf b0 3a 3e 43 3e 9c 3d 56 86 50 be 1c 75 b9 3d
       0.1823151 0.07629063 -0.20363745 0.0905554
000220 af 2e 05 3d 4a c3 52 be bd 8a 98 bd 0a 8d 2d be
       0.032515224 -0.2058231 -0.07448337 -0.16948333
000230 0f 9b 7d 3e 14 6e 47 bd 4b 56 99 be 15 8b f8 bc
       0.24766181 -0.048688963 -0.2994865 -0.030339757
000240 6e 7b 9d 3e f4 6c 8b bd 55 0f 8d be 33 0c 52 3e
       0.30758232 -0.068078905 -0.2755076 0.20512466
000250 d3 53 2f 3e 41 55 89 3e cf ac 2b be d4 57 65 3a
       0.1712182 0.26822856 -0.1676514 0.0008748744
000260 53 fb 8b be 7a 63 35 be e9 7d 2b 3e 7c ca 59 3c
       -0.27340183 -0.17713729 0.1674725 0.013292905
000270 87 42 91 3d 72 80 b4 bd 2f 37 2a be ec e3 86 3d
       0.07092767 -0.088135615 -0.16622613 0.065864414
000280 d0 bf 21 3b 39 a3 33 3d 56 bb 98 3e 45 6d de 3d
       0.002468098 0.043856833 0.29830426 0.10860685
000290 56 fb 2f 3e cd 07 6e be a3 96 64 be 52 9d 30 be
       0.17185721 -0.23245163 -0.22323088 -0.17247513
0002a0 3d 01 4b 3e 6e 3b 18 be b6 03 55 3e d6 cb aa 3d
       0.19824691 -0.1486642 0.20802197 0.0833966
0002b0 a0 e2 af 3d f5 30 3c 3e 4e 3f bb 3b 9c 06 4f be
       0.08588147 0.1837805 0.0057143336 -0.20217365
0002c0 6c c2 31 bd cc 63 a0 3d e4 12 f4 bd 98 c2 87 be
       -0.043398306 0.07831535 -0.119176656 -0.2651565
0002d0 7b 8b 74 3e cb 68 8c 3e ab e1 8b be 55 d3 8b be
       0.23881333 0.274237 -0.27320608 -0.2730967
0002e0 f5 93 9f bd 71 16 46 be b9 a9 75 3e 10 da 91 3d
       -0.077918924 -0.19344498 0.23990525 0.0712167
0002f0 7d 86 05 bc 73 a7 a8 bd 68 db ac 3d bf 96 a2 bb
       -0.00814974 -0.082350634 0.08440286 -0.004961818
000300 62 11 07 be fe 25 3a 3e 7a fb 93 bc b9 70 04 3d
       -0.13190225 0.18178555 -0.01806425 0.032334063
000310 78 b8 60 be b0 c4 2d be a0 cc 80 3e 84 70 4a be
       -0.21945369 -0.16969562 0.25156116 -0.19769484
000320 d3 fa 73 bd cc 56 18 be 31 09 f0 3d 28 f3 e0 bd
       -0.059565376 -0.1487686 0.11720503 -0.109838784
000330 c3 1f 7f 3e 95 97 32 bd db 2e 83 3e e3 52 85 3e
       0.2491446 -0.04360159 0.25621685 0.260398
000340 fd 6c 43 3e 06 8a 0b 3e 02 34 cb be 10 e9 86 be
       0.19084544 0.1362687 -0.39688116 -0.26349688
000350 46 af 92 3c 86 b7 2e be 90 a3 08 3e fe 69 40 be
       0.017905843 -0.17062196 0.13343644 -0.18790433
000360 07 9d 50 3e 8b 08 4c be a4 bb 54 be b7 4f 44 3e
       0.20372401 -0.19925134 -0.20774704 0.19171034
000370 5a 62 7c be 21 9c 1c 3d 95 12 4f 3e d3 2d ad 3e
       -0.24646893 0.038234834 0.20221932 0.33824024
000380 be 8c f0 3d cc 88 82 be 45 5d 81 3e fa 9f a3 3d
       0.117455944 -0.25494993 0.25266472 0.079894975
000390 bc f2 f0 3b 3d 6e d3 3d 8a bb 92 bb 91 8a 53 3c
       0.007353155 0.10323761 -0.004477923 0.012911455
0003a0 fc 5e a1 bd fc 8e 9d be 8a 29 08 3e 22 25 cf 3d
       -0.07879445 -0.3077315 0.13297096 0.101145044
0003b0 b4 e9 dc 3a 3d e0 95 3e bd c9 d5 bc 16 f1 c4 bd
       0.0016854317 0.29272643 -0.026097173 -0.09616296
0003c0 90 f3 89 3d b7 f4 9b 3d f8 60 9e be 7e ad 21 3e
       0.06735909 0.07615035 -0.30933356 0.15788838
0003d0 d6 d1 1c 3e d9 67 87 3d 03 0a 04 3e c0 94 56 be
       0.15314421 0.06611604 0.12894444 -0.20955181
0003e0 a6 d1 28 be 36 c3 3f be 9e 7b 79 be 22 2c 49 bd
       -0.16486225 -0.18726811 -0.24363562 -0.049114354
0003f0 ea 7d 75 be d7 0d 3f 3e 76 0d 47 be 5e d6 ee bd
       -0.23973814 0.18657623 -0.19438729 -0.11661981

convs.1.lin_dst.weight f4 [32, 32]
000000 99 cd 19 bd bd 45 bf 3d f3 12 82 bd 24 c6 a3 bd
       -0.03754959 0.093394734 -0.063512705 -0.07996777
000010 65 ae 6c 3d 58 9d 65 3e b9 a3 40 be 6f c7 1d be
       0.057783503 0.22423303 -0.18812455 -0.15408109
000020 c1 52 b0 3d 24 61 b3 3e d8 8f 84 3d 21 08 a3 bd
       0.08609534 0.3503505 0.064727485 -0.07960535
000030 94 8c a3 3d f8 4d 35 bc 44 b6 2a 3e ff 81 31 bd
       0.079857975 -0.0110659525 0.16671091 -0.043336865
000040 06 93 3c 3e bb 5e 55 be 9f c9 a5 be e1 16 28 be
       0.1841546 -0.20836918 -0.32380387 -0.16414978
000050 3b 42 8f 3e b7 61 05 3e 88 ae 1a 3e 44 23 ec bd
       0.27980217 0.13025557 0.15105641 -0.11530164
000060 38 0c 26 bd 31 d5 5f 3e f7 3f 5c 3e 3e 25 28 be
       -0.040538996 0.2185867 0.21508776 -0.16420457
000070 7d b5 9e 3e a7 b2 4e be 72 cf 45 3d d6 22 33 be
       0.3099784 -0.20185338 0.04829354 -0.17493758
000080 51 f6 83 3e 7b a3 82 bd 1b de 84 be 23 a0 db 3d
       0.25773862 -0.06378838 -0.25950703 0.10723903
000090 bf c4 a5 3e ed cc 83 be 55 c9 9d 3d c8 b4 e6 3c
       0.32376668 -0.25742283 0.07704417 0.028162375
0000a0 61 5a 80 be 63 a4 74 be 53 a0 72 3e db 84 e0 3d
       -0.25068954 -0.23890834 0.23693971 0.1096284
0000b0 a0 88 88 be a1 75 07 3e 80 97 9d 3e 3f 4e 3d be
       -0.26666737 0.13228466 0.30779648 -0.1848688
0000c0 93 bf 52 3e d4 fc 7d 3e 17 46 68 3e 8b ab bb 3c
       0.20580892 0.24803478 0.22682987 0.022908946
0000d0 2f e2 d3 3d fd 04 b4 3d 99 6b 68 3e 23 fa fc 3c
       0.103458755 0.08790014 0.22697295 0.030880993
0000e0 db 47 88 3e a5 50 a4 3c 10 8f 0a be f7 f9 96 3e
       0.2661732 0.020057986 -0.13531137 0.29487583
0000f0 5e 5b 2a bd f5 f9 60 3e 54 21 81 be 94 1d 3a be
       -0.04159104 0.21970351 -0.2522074 -0.18175346
000100 76 34 8c 3d ae 8a 1b 3e 81 26 ec bd 2c 2e b1 be
       0.06845944 0.15189621 -0.115307815 -0.3460554
000110 95 75 42 3e 87 66 1e 3e 59 3c ae bd 99 39 f1 bc
       0.18990166 0.15468799 -0.08507604 -0.02944641
000120 69 73 53 be fd 30 fb bd 7c 3c eb bc 54 bd 7b 3e
       -0.20649494 -0.12265203 -0.028715365 0.24583942
000130 c7 03 bd be 79 7c 8f be aa ed df bd 8a 56 ae bd
       -0.36916944 -0.28024653 -0.10934003 -0.085126
000140 d4 6a 87 3d 9d 9b 9a 3d f0 13 22 bd f9 46 9a 3d
       0.06612173 0.07549212 -0.039569795 0.07533068
000150 f4 b1 66 be be 78 4c be f7 6e 98 3d 92 c4 b1 be
       -0.22528821 -0.19967934 0.0744304 -0.34720284
000160 b5 eb 7e 3e d8 16 b2 bd e7 24 a5 be e8 75 83 be
       0.24894603 -0.08695763 -0.32254717 -0.25675893
000170 11 4a 28 3e fe f0 f0 3d 2f 4b 2b 3e b0 99 72 3c
       0.16434504 0.117647156 0.16727899 0.01480715
000180 ab 78 21 be 6b a3 06 3e 36 63 95 3e e8 82 24 3e
       -0.15768687 0.13148277 0.29177254 0.16065562
000190 2b 87 9e be 7d d2 33 3e 9a 94 8a 3e dc 45 ae 3d
       -0.309625 0.17560764 0.270665 0.08509418
0001a0 56 77 a9 bd 1c 74 8b be 89 4a 93 3e 7d cc 3b be
       -0.08274715 -0.27237022 0.28767803 -0.18339725
0001b0 8d 64 56 3e 7b 59 83 3e f8 7a 1e bd b8 99 91 be
       0.20936795 0.25654206 -0.03869149 -0.2843759
0001c0 2d 13 14 bd ee 28 de bd 59 a6 9a 3e 9d ad 28 3e
       -0.0361511 -0.108476505 0.30205038 0.16472478
0001d0 d7 5d 99 be a2 64 49 3e 18 7d e3 bd d8 f8 8c be
       -0.29954407 0.19667295 -0.11107844 -0.27533603
0001e0 d8 d2 18 3e 99 13 03 3d 7c 7e 60 be e4 17 14 3b
       0.1492418 0.03200111 -0.2192325 0.0022597248
0001f0 04 be 4c be 7e 26 38 3e 40 08 86 3e dc 40 34 3e
       -0.1999436 0.17983434 0.2617817 0.17602867
000200 54 6d 32 3a c3 49 98 be 22 f4 46 3e 80 50 10 bd
       0.00068064523 -0.29743776 0.19429067 -0.03523302
000210 cf b0 3a 3e 43 3e 9c 3d 56 86 50 be 1c 75 b9 3d
       0.1823151 0.07629063 -0.20363745 0.0905554
000220 af 2e 05 3d 4a c3 52 be bd 8a 98 bd 0a 8d 2d be
       0.032515224 -0.2058231 -0.07448337 -0.16948333
000230 0f 9b 7d 3e 14 6e 47 bd 4b 56 99 be 15 8b f8 bc
       0.24766181 -0.048688963 -0.2994865 -0.030339757
000240 6e 7b 9d 3e f4 6c 8b bd 55 0f 8d be 33 0c 52 3e
       0.30758232 -0.068078905 -0.2755076 0.20512466
000250 d3 53 2f 3e 41 55 89 3e cf ac 2b be d4 57 65 3a
       0.1712182 0.26822856 -0.1676514 0.0008748744
000260 53 fb 8b be 7a 63 35 be e9 7d 2b 3e 7c ca 59 3c
       -0.27340183 -0.17713729 0.1674725 0.013292905
000270 87 42 91 3d 72 80 b4 bd 2f 37 2a be ec e3 86 3d
       0.07092767 -0.088135615 -0.16622613 0.065864414
000280 d0 bf 21 3b 39 a3 33 3d 56 bb 98 3e 45 6d de 3d
       0.002468098 0.043856833 0.29830426 0.10860685
000290 56 fb 2f 3e cd 07 6e be a3 96 64 be 52 9d 30 be
       0.17185721 -0.23245163 -0.22323088 -0.17247513
0002a0 3d 01 4b 3e 6e 3b 18 be b6 03 55 3e d6 cb aa 3d
       0.19824691 -0.1486642 0.20802197 0.0833966
0002b0 a0 e2 af 3d f5 30 3c 3e 4e 3f bb 3b 9c 06 4f be
       0.08588147 0.1837805 0.0057143336 -0.20217365
0002c0 6c c2 31 bd cc 63 a0 3d e4 12 f4 bd 98 c2 87 be
       -0.043398306 0.07831535 -0.119176656 -0.2651565
0002d0 7b 8b 74 3e cb 68 8c 3e ab e1 8b be 55 d3 8b be
       0.23881333 0.274237 -0.27320608 -0.2730967
0002e0 f5 93 9f bd 71 16 46 be b9 a9 75 3e 10 da 91 3d
       -0.077918924 -0.19344498 0.23990525 0.0712167
0002f0 7d 86 05 bc 73 a7 a8 bd 68 db ac 3d bf 96 a2 bb
       -0.00814974 -0.082350634 0.08440286 -0.004961818
000300 62 11 07 be fe 25 3a 3e 7a fb 93 bc b9 70 04 3d
       -0.13190225 0.18178555 -0.01806425 0.032334063
000310 78 b8 60 be b0 c4 2d be a0 cc 80 3e 84 70 4a be
       -0.21945369 -0.16969562 0.25156116 -0.19769484
000320 d3 fa 73 bd cc 56 18 be 31 09 f0 3d 28 f3 e0 bd
       -0.059565376 -0.1487686 0.11720503 -0.109838784
000330 c3 1f 7f 3e 95 97 32 bd db 2e 83 3e e3 52 85 3e
       0.2491446 -0.04360159 0.25621685 0.260398
000340 fd 6c 43 3e 06 8a 0b 3e 02 34 cb be 10 e9 86 be
       0.19084544 0.1362687 -0.39688116 -0.26349688
000350 46 af 92 3c 86 b7 2e be 90 a3 08 3e fe 69 40 be
       0.017905843 -0.17062196 0.13343644 -0.18790433
000360 07 9d 50 3e 8b 08 4c be a4 bb 54 be b7 4f 44 3e
       0.20372401 -0.19925134 -0.20774704 0.19171034
000370 5a 62 7c be 21 9c 1c 3d 95 12 4f 3e d3 2d ad 3e
       -0.24646893 0.038234834 0.20221932 0.33824024
000380 be 8c f0 3d cc 88 82 be 45 5d 81 3e fa 9f a3 3d
       0.117455944 -0.25494993 0.25266472 0.079894975
000390 bc f2 f0 3b 3d 6e d3 3d 8a bb 92 bb 91 8a 53 3c
       0.007353155 0.10323761 -0.004477923 0.012911455
0003a0 fc 5e a1 bd fc 8e 9d be 8a 29 08 3e 22 25 cf 3d
       -0.07879445 -0.3077315 0.13297096 0.101145044
0003b0 b4 e9 dc 3a 3d e0 95 3e bd c9 d5 bc 16 f1 c4 bd
       0.0016854317 0.29272643 -0.026097173 -0.09616296
0003c0 90 f3 89 3d b7 f4 9b 3d f8 60 9e be 7e ad 21 3e
       0.06735909 0.07615035 -0.30933356 0.15788838
0003d0 d6 d1 1c 3e d9 67 87 3d 03 0a 04 3e c0 94 56 be
       0.15314421 0.06611604 0.12894444 -0.20955181
0003e0 a6 d1 28 be 36 c3 3f be 9e 7b 79 be 22 2c 49 bd
       -0.16486225 -0.18726811 -0.24363562 -0.049114354
0003f0 ea 7d 75 be d7 0d 3f 3e 76 0d 47 be 5e d6 ee bd
       -0.23973814 0.18657623 -0.19438729 -0.11661981

convs.2.att_src f4 [1, 1, 32]
000000 7e 2f f3 3d ad 84 96 be 4c 1e 4d be 71 e5 41 3e
       0.11874293 -0.293981 -0.20031089 0.18935181
000010 05 c4 a4 3d b8 a2 7f 3e a6 75 98 be b1 1f cf be
       0.080452 0.24964416 -0.2977726 -0.40453866
000020 6f b2 9c 3e 85 e8 15 be 58 32 4c 3e 83 b8 6f 3e
       0.30604884 -0.1463948 0.1994108 0.2341023
000030 78 5c 8a 3d 01 37 8c 3e 30 36 07 3e 99 8b 63 3e
       0.06755918 0.27385715 0.13204265 0.22221221
000040 9e 79 86 3e db a9 71 3e a0 a1 8f 3d 4b 44 b7 bb
       0.26264662 0.23599951 0.070132494 -0.005592858
000050 d6 fc 88 3e 30 04 77 3c de 94 35 be ad 0a f5 bb
       0.267554 0.015076682 -0.1773257 -0.0074780793
000060 e4 d8 d0 bd eb 36 82 be dc a5 73 be d0 1c 31 3e
       -0.101976186 -0.25432524 -0.23793739 0.17296147
000070 91 f8 29 3e 34 da a8 be 0f c7 7d be b9 3e ed 3c
       0.16598727 -0.32978976 -0.24782966 0.028960573

convs.2.att_dst f4 [1, 1, 32]
000000 33 c5 a6 bd be 29 fe be b5 c2 90 3e 06 14 b2 be
       -0.081430815 -0.49641222 0.2827355 -0.34780902
000010 67 b2 9e 3e 61 8c 7c 3d 7b 9b 02 be 98 aa 4f 3b
       0.30995485 0.061657313 -0.12754624 0.0031687375
000020 11 0b 2e be ac ba b2 be e6 20 12 3e 73 28 71 be
       -0.16996409 -0.34908044 0.14270362 -0.23550586
000030 73 04 a6 be 84 fc db be 5f e3 3c 3e 4c 0f ca 3e
       -0.3242527 -0.42966092 0.1844611 0.39464796
000040 d3 fc af be 7c cf 7a bd 25 65 c4 3e e3 5d ab 3e
       -0.34372577 -0.06123303 0.38358417 0.33470067
000050 1e fc 04 3e a6 e7 89 3d 9a 2f 52 be 23 5f b3 3e
       0.129868 0.067336366 -0.20525971 0.3503352
000060 79 a7 3f 3e 50 a5 a5 3e 4d 70 a3 3e 96 a0 61 bd
       0.1871623 0.32352686 0.31921616 -0.055084787
000070 63 a2 2b be d7 7e bd 3b 1c 5c fc 3c 4d 5b b2 3e
       -0.16761164 0.0057829428 0.03080564 0.34835282

convs.2.bias f4 [32]
000000 94 e3 19 bc 5f 19 20 3d 71 61 81 bb bf 78 93 3d
       -0.009392638 0.039086696 -0.0039483835 0.07200765
000010 05 a3 3f bd 96 b2 cf bc 37 f2 84 bb 43 58 0a bd
       -0.046786327 -0.025353711 -0.0040571946 -0.03377558
000020 01 b5 9f 3a b7 c2 a4 bc 90 59 db 3b 7a d6 dd 3c
       0.0012184681 -0.020112379 0.0066940263 0.02707981
000030 18 55 d4 3b 48 3d 9f 3c 4d dd 93 bc 10 2e c3 bb
       0.0064798705 0.0194384 -0.01804986 -0.005956419
000040 79 0b 6d 3d 7a 02 85 3a fc 76 2b bc 89 42 27 3d
       0.05787227 0.0010147833 -0.01046538 0.040834937
000050 2a fa 10 3d cf a1 1a bd d4 05 cd 3d 02 b1 1c bd
       0.035394825 -0.03775197 0.10010877 -0.038254745
000060 3f 51 3b 3d 66 28 0e 3d 59 13 b4 3c 24 86 ae 3b
       0.04573178 0.034706496 0.021981882 0.0053260494
000070 1e 0b 71 3d 98 95 6d bb 61 dd 94 3d 97 0c c4 bc
       0.058848493 -0.0036252495 0.07268787 -0.023931785

convs.2.lin_src.weight f4 [32, 32]
000000 b7 ab 90 3d 73 e4 ae bd a9 37 ef 3d 2e 88 4f be
       0.07064002 -0.08539667 0.11680538 -0.20266792
000010 35 35 ac 3d 90 4a dd 3d 21 d3 5b be 9a d9 e6 3b
       0.08408586 0.10805237 -0.21467258 0.007044983
000020 96 2f 2a 3e e8 58 8c 3e 32 0c 4b 3d 4b 28 e1 bd
       0.16619715 0.2741158 0.049572177 -0.109940134
000030 04 94 8d 3c 3c ca 03 3e 9e 46 40 be 4e cd f2 3d
       0.017282493 0.12870115 -0.18776938 0.11855565
000040 06 90 df 3c 4d 35 96 3e 07 6d 04 3e 13 25 16 bd
       0.027290355 0.2933754 0.12932216 -0.03665645
000050 80 24 32 3e 7a fe ca 3d 71 47 4f 3d c3 0c 92 3e
       0.17396736 0.09911819 0.05060524 0.2852536
000060 5d 84 91 3e 2f 90 55 3e a9 a3 76 3e 22 ed 1d 3e
       0.28421298 0.20855783 0.24085869 0.1542249
000070 d4 f2 e3 bd b6 ce ed 3d 17 48 25 3e 15 9e 89 be
       -0.111303 0.116116926 0.16140781 -0.2687842
000080 80 97 21 be 3a 24 34 be 7a cf 8b be c4 85 26 3e
       -0.15780449 -0.17591944 -0.2730673 0.16261965
000090 68 fd 8f 3d bb 10 32 3e 95 71 45 3c 0f bb 79 be
       0.07030755 0.17389195 0.012051006 -0.24387763
0000a0 78 b9 8d be ad 29 7b 3e 2f 7a a0 3e 2a b2 28 bb
       -0.27680564 0.24527617 0.3134322 -0.002574096
0000b0 ee e2 da 3c a0 83 f9 bc bf cc 84 be 6d a1 9f be
       0.026719537 -0.030458272 -0.2593746 -0.31177846
0000c0 97 00 49 3e b6 c1 a1 3e d2 c8 44 3e 6d 44 8e 3d
       0.19629131 0.31593102 0.19217232 0.06946645
0000d0 fe 44 43 3e bb 2a 8e 3e a5 6b 4b be b2 d9 a6 3b
       0.19069287 0.27766976 -0.19865282 0.0050918693
0000e0 5d 42 60 be 5a 89 82 3c 5f b7 95 3e 08 41 44 3c
       -0.21900316 0.015934635 0.29241464 0.011978395
0000f0 f4 51 a0 be b4 62 32 be cb 17 8f be 4d 7c b7 bc
       -0.31312525 -0.17420465 -0.2794784 -0.022398138
000100 a5 35 40 bd 54 fc eb 3d c9 f5 6f be ea 75 15 be
       -0.04692616 0.11522737 -0.23433603 -0.14595762
000110 7b 4b 69 3e 16 5b d6 bd 3b 1b 33 3d 32 04 9c 3e
       0.227827 -0.10466592 0.04372714 0.3047195
000120 ae fd 0d 3e 2b 37 f0 bd 3c ea a7 be bc 22 c5 bd
       0.13866302 -0.117292725 -0.32795894 -0.09625766
000130 38 e7 dd bd de 99 b5 bd b4 1c 74 3e 38 73 6e bd
       -0.10835117 -0.088672385 0.23839074 -0.05821535
000140 b2 0d a7 bd 87 52 17 3e 9d a9 82 be 14 d6 80 be
       -0.08156909 0.14777575 -0.2552003 -0.2516333
000150 1c 0c c6 3d ad 8d 91 3e d6 45 5f 3e 62 e4 9e 3e
       0.096702784 0.28428403 0.21803984 0.31033617
000160 63 ee 57 3d 6f 40 6c bd 07 3e 55 be 37 73 2b 3e
       0.052717578 -0.057678636 -0.20824443 0.1674317
000170 9f 21 4d 3e 44 6e 2b bc 87 91 87 be 56 09 0b 3e
       0.20032357 -0.010463301 -0.26478216 0.1357778
000180 c3 e7 fa 3b d8 6e 9c 3e 02 79 34 3e b2 df dd bc
       0.0076570227 0.30553317 0.17624286 -0.027084205
000190 1b a8 93 bd fe 74 29 3e 3a 3a b7 bd a3 0f 41 be
       -0.07209798 0.16548535 -0.08946653 -0.18853621
0001a0 9c 49 1f 3e fe 58 04 3e 53 3a 6f bd 30 07 b1 3e
       0.15555423 0.12924573 -0.05840523 0.34575796
0001b0 37 98 24 3e 30 2e 9f 3e 07 c8 50 3e 98 99 2c 3e
       0.1607369 0.31089926 0.20388804 0.16855466
0001c0 f0 cf fb 3d 39 04 f7 3d e9 09 72 be 8d 88 0d 3e
       0.1229552 0.12061352 -0.23636593 0.13821621
0001d0 dc e6 01 be 80 41 19 3e 59 a1 52 3d c0 95 62 be
       -0.12685722 0.14966393 0.051423404 -0.22127438
0001e0 37 c9 2c 3d 8e a9 32 be a9 08 66 be 21 51 9c be
       0.04218408 -0.17447492 -0.22464241 -0.30530646
0001f0 58 c4 91 3e 91 6a 8c be 06 04 23 be 4c 2a a0 3e
       0.2847011 -0.27425054 -0.15919504 0.3128227
000200 92 72 5e be b3 25 08 3e 3b dc aa bd 51 26 68 be
       -0.21723393 0.13295631 -0.08342787 -0.22670867
000210 3b d7 0b be 9a ae 23 bd 22 49 29 3e 51 c3 af 3c
       -0.13656323 -0.039961435 0.16531804 0.021455439
000220 ea 78 1b be 7b 08 de bc ae 21 a4 3d 9a b2 44 3d
       -0.15182844 -0.027103653 0.080142364 0.04802189
000230 14 6f 72 bd 51 ba 91 3e 77 d9 37 3e e9 fc 86 bd
       -0.059187964 0.2846246 0.1795405 -0.065912075
000240 8c 4a 4e be 64 01 23 3e 05 32 16 3e d0 e9 d6 3b
       -0.20145625 0.15918499 0.14667518 0.0065586343
000250 f5 bf 57 3e 0a cc b4 3d 4d 47 a2 3e f7 fc 06 3e
       0.2106932 0.0882798 0.31695023 0.13182436
000260 7c 72 23 3d cc ff 92 bc 03 eb 51 be a3 a9 9a 3e
       0.039904103 -0.01794424 -0.20499806 0.30207548
000270 d5 b1 41 3e 57 3a e7 3d 7d 56 93 bd 16 e0 93 be
       0.18915494 0.11290424 -0.07194231 -0.28881902
000280 7f 37 99 be 13 af c5 3c 34 18 7c be ea 91 89 bd
       -0.29925153 0.024131333 -0.24618608 -0.06717284
000290 f8 7f 99 be 3f f1 b9 bd f0 fc 6e 3e 76 f5 87 bd
       -0.29980445 -0.09079217 0.23338675 -0.06638615
0002a0 88 50 86 bd 15 9f 86 be ab ad 8a be 0e 9f e4 bd
       -0.06558329 -0.26293245 -0.27085623 -0.1116315
0002b0 96 de ea 3d 0c 52 91 3d 99 c0 63 3b 31 e3 ad bd
       0.11468236 0.07095727 0.0034752248 -0.08490599
0002c0 eb 3b fb bc ab cb 91 be 50 c7 63 bd 4e 84 eb 3d
       -0.03066822 -0.284757 -0.05561 0.114998445
0002d0 da e2 11 be 10 34 42 3e 99 c2 84 3e c6 ea 60 bd
       -0.14246693 0.18965173 0.25929716 -0.054911397
0002e0 b0 90 af 3c 42 5c c4 3d 02 a2 8f 3d 10 66 a6 bd
       0.021431297 0.09587909 0.070133224 -0.081249356
0002f0 50 f4 09 bd a3 8f 92 3e 41 26 30 bd 8e 36 08 3e
       -0.03368026 0.2862521 -0.04300523 0.13302061
000300 99 62 82 3e 65 ce a9 3e 9d 01 70 3e 01 36 09 3e
       0.2546585 0.3316528 0.23438115 0.13399507
000310 fa 3c 8a be c1 5f ee 3d f1 8e 1e 3e 59 fb 3b be
       -0.26999646 0.11639357 0.15484215 -0.183576
000320 c0 87 99 3d 5e ba f2 bd 8a eb 7c 3e db 4b 81 be
       0.074965954 -0.11851953 0.24699226 -0.25253186
000330 47 87 0d be b5 8e 53 be 92 de c7 bd 7d 4a 21 be
       -0.13821135 -0.20659907 -0.09759249 -0.15751071
000340 52 13 64 3d b2 97 32 be 55 5e 96 3e 00 63 39 3e
       0.055682488 -0.1744068 0.29368845 0.18104172
000350 4d 8d 40 be c7 8d 89 bd 64 13 8e be d8 b9 37 3e
       -0.18803902 -0.06716495 -0.2774917 0.17941988
000360 17 76 10 be 3b 5d 70 3e 70 6f 00 be a0 74 46 3d
       -0.14107548 0.23473065 -0.1254251 0.048451066
000370 8d cd 81 3e d5 24 1a 3e 14 c9 b2 3e 11 34 57 3e
       0.25352135 0.15053113 0.34919035 0.21015956
000380 f4 68 41 bc 48 5e a7 be 5f 99 f4 bd 0f 97 8b bd
       -0.011804808 -0.32689118 -0.11943316 -0.068159215
000390 e4 be 6d bd 1c 61 56 3e 09 ea 6c be 87 a4 db bc
       -0.058043376 0.20935482 -0.23136152 -0.026811851
0003a0 cb 05 13 be 06 d8 87 3e 41 c0 05 be 99 7f 8e be
       -0.14357679 0.26532 -0.1306162 -0.27831724
0003b0 f6 21 a2 3d 69 1a 21 bc 76 33 89 3d 47 e3 40 be
       0.07916634 -0.009832957 0.066992685 -0.188367
0003c0 01 e3 5c be 30 c0 8b be b6 3f a2 bd 7b 14 91 3e
       -0.2157097 -0.27295065 -0.07922308 0.28335938
0003d0 48 1d 45 be b2 8d c1 3d 1a d3 f7 bd 0e e4 78 be
       -0.19249451 0.09450854 -0.12100811 -0.24305746
0003e0 50 35 01 be 37 1c 93 bb 78 53 b9 3d 8b e7 b3 bd
       -0.12617993 -0.0044894475 0.090491235 -0.08784398
0003f0 c8 ff 78 be 8e a8 14 be 53 4e 19 3e e9 ec 90 be
       -0.24316323 -0.14517424 0.14971285 -0.28305748

convs.2.lin_dst.weight f4 [32, 32]
000000 b7 ab 90 3d 73 e4 ae bd a9 37 ef 3d 2e 88 4f be
       0.07064002 -0.08539667 0.11680538 -0.20266792
000010 35 35 ac 3d 90 4a dd 3d 21 d3 5b be 9a d9 e6 3b
       0.08408586 0.10805237 -0.21467258 0.007044983
000020 96 2f 2a 3e e8 58 8c 3e 32 0c 4b 3d 4b 28 e1 bd
       0.16619715 0.2741158 0.049572177 -0.109940134
000030 04 94 8d 3c 3c ca 03 3e 9e 46 40 be 4e cd f2 3d
       0.017282493 0.12870115 -0.18776938 0.11855565
000040 06 90 df 3c 4d 35 96 3e 07 6d 04 3e 13 25 16 bd
       0.027290355 0.2933754 0.12932216 -0.03665645
000050 80 24 32 3e 7a fe ca 3d 71 47 4f 3d c3 0c 92 3e
       0.17396736 0.09911819 0.05060524 0.2852536
000060 5d 84 91 3e 2f 90 55 3e a9 a3 76 3e 22 ed 1d 3e
       0.28421298 0.20855783 0.24085869 0.1542249
000070 d4 f2 e3 bd b6 ce ed 3d 17 48 25 3e 15 9e 89 be
       -0.111303 0.116116926 0.16140781 -0.2687842
000080 80 97 21 be 3a 24 34 be 7a cf 8b be c4 85 26 3e
       -0.15780449 -0.17591944 -0.2730673 0.16261965
000090 68 fd 8f 3d bb 10 32 3e 95 71 45 3c 0f bb 79 be
       0.07030755 0.17389195 0.012051006 -0.24387763
0000a0 78 b9 8d be ad 29 7b 3e 2f 7a a0 3e 2a b2 28 bb
       -0.27680564 0.24527617 0.3134322 -0.002574096
0000b0 ee e2 da 3c a0 83 f9 bc bf cc 84 be 6d a1 9f be
       0.026719537 -0.030458272 -0.2593746 -0.31177846
0000c0 97 00 49 3e b6 c1 a1 3e d2 c8 44 3e 6d 44 8e 3d
       0.19629131 0.31593102 0.19217232 0.06946645
0000d0 fe 44 43 3e bb 2a 8e 3e a5 6b 4b be b2 d9 a6 3b
       0.19069287 0.27766976 -0.19865282 0.0050918693
0000e0 5d 42 60 be 5a 89 82 3c 5f b7 95 3e 08 41 44 3c
       -0.21900316 0.015934635 0.29241464 0.011978395
0000f0 f4 51 a0 be b4 62 32 be cb 17 8f be 4d 7c b7 bc
       -0.31312525 -0.17420465 -0.2794784 -0.022398138
000100 a5 35 40 bd 54 fc eb 3d c9 f5 6f be ea 75 15 be
       -0.04692616 0.11522737 -0.23433603 -0.14595762
000110 7b 4b 69 3e 16 5b d6 bd 3b 1b 33 3d 32 04 9c 3e
       0.227827 -0.10466592 0.04372714 0.3047195
000120 ae fd 0d 3e 2b 37 f0 bd 3c ea a7 be bc 22 c5 bd
       0.13866302 -0.117292725 -0.32795894 -0.09625766
000130 38 e7 dd bd de 99 b5 bd b4 1c 74 3e 38 73 6e bd
       -0.10835117 -0.088672385 0.23839074 -0.05821535
000140 b2 0d a7 bd 87 52 17 3e 9d a9 82 be 14 d6 80 be
       -0.08156909 0.14777575 -0.2552003 -0.2516333
000150 1c 0c c6 3d ad 8d 91 3e d6 45 5f 3e 62 e4 9e 3e
       0.096702784 0.28428403 0.21803984 0.31033617
000160 63 ee 57 3d 6f 40 6c bd 07 3e 55 be 37 73 2b 3e
       0.052717578 -0.057678636 -0.20824443 0.1674317
000170 9f 21 4d 3e 44 6e 2b bc 87 91 87 be 56 09 0b 3e
       0.20032357 -0.010463301 -0.26478216 0.1357778
000180 c3 e7 fa 3b d8 6e 9c 3e 02 79 34 3e b2 df dd bc
       0.0076570227 0.30553317 0.17624286 -0.027084205
000190 1b a8 93 bd fe 74 29 3e 3a 3a b7 bd a3 0f 41 be
       -0.07209798 0.16548535 -0.08946653 -0.18853621
0001a0 9c 49 1f 3e fe 58 04 3e 53 3a 6f bd 30 07 b1 3e
       0.15555423 0.12924573 -0.05840523 0.34575796
0001b0 37 98 24 3e 30 2e 9f 3e 07 c8 50 3e 98 99 2c 3e
       0.1607369 0.31089926 0.20388804 0.16855466
0001c0 f0 cf fb 3d 39 04 f7 3d e9 09 72 be 8d 88 0d 3e
       0.1229552 0.12061352 -0.23636593 0.13821621
0001d0 dc e6 01 be 80 41 19 3e 59 a1 52 3d c0 95 62 be
       -0.12685722 0.14966393 0.051423404 -0.22127438
0001e0 37 c9 2c 3d 8e a9 32 be a9 08 66 be 21 51 9c be
       0.04218408 -0.17447492 -0.22464241 -0.30530646
0001f0 58 c4 91 3e 91 6a 8c be 06 04 23 be 4c 2a a0 3e
       0.2847011 -0.27425054 -0.15919504 0.3128227
000200 92 72 5e be b3 25 08 3e 3b dc aa bd 51 26 68 be
       -0.21723393 0.13295631 -0.08342787 -0.22670867
000210 3b d7 0b be 9a ae 23 bd 22 49 29 3e 51 c3 af 3c
       -0.13656323 -0.039961435 0.16531804 0.021455439
000220 ea 78 1b be 7b 08 de bc ae 21 a4 3d 9a b2 44 3d
       -0.15182844 -0.027103653 0.080142364 0.04802189
000230 14 6f 72 bd 51 ba 91 3e 77 d9 37 3e e9 fc 86 bd
       -0.059187964 0.2846246 0.1795405 -0.065912075
000240 8c 4a 4e be 64 01 23 3e 05 32 16 3e d0 e9 d6 3b
       -0.20145625 0.15918499 0.14667518 0.0065586343
000250 f5 bf 57 3e 0a cc b4 3d 4d 47 a2 3e f7 fc 06 3e
       0.2106932 0.0882798 0.31695023 0.13182436
000260 7c 72 23 3d cc ff 92 bc 03 eb 51 be a3 a9 9a 3e
       0.039904103 -0.01794424 -0.20499806 0.30207548
000270 d5 b1 41 3e 57 3a e7 3d 7d 56 93 bd 16 e0 93 be
       0.18915494 0.11290424 -0.07194231 -0.28881902
000280 7f 37 99 be 13 af c5 3c 34 18 7c be ea 91 89 bd
       -0.29925153 0.024131333 -0.24618608 -0.06717284
000290 f8 7f 99 be 3f f1 b9 bd f0 fc 6e 3e 76 f5 87 bd
       -0.29980445 -0.09079217 0.23338675 -0.06638615
0002a0 88 50 86 bd 15 9f 86 be ab ad 8a be 0e 9f e4 bd
       -0.06558329 -0.26293245 -0.27085623 -0.1116315
0002b0 96 de ea 3d 0c 52 91 3d 99 c0 63 3b 31 e3 ad bd
       0.11468236 0.07095727 0.0034752248 -0.08490599
0002c0 eb 3b fb bc ab cb 91 be 50 c7 63 bd 4e 84 eb 3d
       -0.03066822 -0.284757 -0.05561 0.114998445
0002d0 da e2 11 be 10 34 42 3e 99 c2 84 3e c6 ea 60 bd
       -0.14246693 0.18965173 0.25929716 -0.054911397
0002e0 b0 90 af 3c 42 5c c4 3d 02 a2 8f 3d 10 66 a6 bd
       0.021431297 0.09587909 0.070133224 -0.081249356
0002f0 50 f4 09 bd a3 8f 92 3e 41 26 30 bd 8e 36 08 3e
       -0.03368026 0.2862521 -0.04300523 0.13302061
000300 99 62 82 3e 65 ce a9 3e 9d 01 70 3e 01 36 09 3e
       0.2546585 0.3316528 0.23438115 0.13399507
000310 fa 3c 8a be c1 5f ee 3d f1 8e 1e 3e 59 fb 3b be
       -0.26999646 0.11639357 0.15484215 -0.183576
000320 c0 87 99 3d 5e ba f2 bd 8a eb 7c 3e db 4b 81 be
       0.074965954 -0.11851953 0.24699226 -0.25253186
000330 47 87 0d be b5 8e 53 be 92 de c7 bd 7d 4a 21 be
       -0.13821135 -0.20659907 -0.09759249 -0.15751071
000340 52 13 64 3d b2 97 32 be 55 5e 96 3e 00 63 39 3e
       0.055682488 -0.1744068 0.29368845 0.18104172
000350 4d 8d 40 be c7 8d 89 bd 64 13 8e be d8 b9 37 3e
       -0.18803902 -0.06716495 -0.2774917 0.17941988
000360 17 76 10 be 3b 5d 70 3e 70 6f 00 be a0 74 46 3d
       -0.14107548 0.23473065 -0.1254251 0.048451066
000370 8d cd 81 3e d5 24 1a 3e 14 c9 b2 3e 11 34 57 3e
       0.25352135 0.15053113 0.34919035 0.21015956
000380 f4 68 41 bc 48 5e a7 be 5f 99 f4 bd 0f 97 8b bd
       -0.011804808 -0.32689118 -0.11943316 -0.068159215
000390 e4 be 6d bd 1c 61 56 3e 09 ea 6c be 87 a4 db bc
       -0.058043376 0.20935482 -0.23136152 -0.026811851
0003a0 cb 05 13 be 06 d8 87 3e 41 c0 05 be 99 7f 8e be
       -0.14357679 0.26532 -0.1306162 -0.27831724
0003b0 f6 21 a2 3d 69 1a 21 bc 76 33 89 3d 47 e3 40 be
       0.07916634 -0.009832957 0.066992685 -0.188367
0003c0 01 e3 5c be 30 c0 8b be b6 3f a2 bd 7b 14 91 3e
       -0.2157097 -0.27295065 -0.07922308 0.28335938
0003d0 48 1d 45 be b2 8d c1 3d 1a d3 f7 bd 0e e4 78 be
       -0.19249451 0.09450854 -0.12100811 -0.24305746
0003e0 50 35 01 be 37 1c 93 bb 78 53 b9 3d 8b e7 b3 bd
       -0.12617993 -0.0044894475 0.090491235 -0.08784398
0003f0 c8 ff 78 be 8e a8 14 be 53 4e 19 3e e9 ec 90 be
       -0.24316323 -0.14517424 0.14971285 -0.28305748

convs.3.att_src f4 [1, 1, 32]
000000 d7 44 b0 3b 1f c0 cd be 2b bc df 3e 11 0c a6 3e
       0.0053793 -0.4018564 0.43698248 0.3243108
000010 c6 0a 49 3c 7b 98 89 be 15 04 6c 3d c4 61 a2 be
       0.012270635 -0.26874146 0.05762108 -0.31715214
000020 29 5b 59 3e 31 bc 99 3e a5 4b 0f be d6 78 a8 3c
       0.21226181 0.3002639 -0.139937 0.020565432
000030 11 38 ce 3e 3d f9 92 bd 5c 00 d1 be 37 0e 12 3c
       0.4027715 -0.07176445 -0.40820587 0.008914522
000040 2e d8 ed bd 54 f8 18 be dd a7 90 be 4a 5c 62 bc
       -0.11613499 -0.1493848 -0.2825307 -0.013815949
000050 9c 92 b9 3d 1a c0 34 be 94 4e 23 be c4 3d 8c be
       0.09061167 -0.17651406 -0.15947944 -0.27390873
000060 77 9b df 3d 7a 1e 97 3e 6c 02 cc bd a9 52 83 3e
       0.109183244 0.2951544 -0.099613994 0.25649002
000070 46 4f 06 3e 52 d8 90 3d cd bd b9 3e 36 55 8e 3e
       0.13116178 0.0707251 0.3627762 0.27799386

convs.3.att_dst f4 [1, 1, 32]
000000 0e c8 8f bd ac c9 ab 3e 25 ca 40 bd a6 f8 d2 3e
       -0.07020579 0.335523 -0.04706778 0.4120533
000010 1d 70 55 bd bf 9c 61 3b 79 a9 7b be 88 a0 9c bd
       -0.052108873 0.0034425703 -0.24576367 -0.076478064
000020 e2 4b e5 bc 99 f8 1c 3d 36 7c 8e 3e 92 61 91 3e
       -0.027990285 0.03832302 0.2782914 0.28394753
000030 24 1a 8f be e8 c8 02 3e 35 eb be be 2a 5f ab 3e
       -0.2794963 0.12771952 -0.37288824 0.33471042
000040 dd 6f af 3c bb 73 02 be bb da 51 be be cf 7e be
       0.021415645 -0.1273946 -0.20493595 -0.24883935
000050 26 e0 0a be af ed 3e be a6 ed 8c 3e ed 4c 5e 3e
       -0.13562068 -0.18645357 0.2752506 0.21709032
000060 c1 7f ac ba 3e 62 fd bc ce 77 93 3d aa d8 aa be
       -0.0013160632 -0.030930635 0.07200585 -0.33368427
000070 52 94 cf 3c 2f 32 76 be 71 45 d4 3e 42 5c eb bc
       0.02533928 -0.24042581 0.4145923 -0.028730515
