trained_models/test_run_best_val_acc.pt (torch, 35211 bytes, 20 tensors)

convs.0.nn.0.weight f4 [32, 7]
000000 b9 bf 36 3d 7d bb f4 3d c6 0a cf bd 04 80 ad be
       0.044616435 0.11949823 -0.10109477 -0.3388673
000010 2f 30 ba be 52 8c bc be 37 0d 0e be b8 cc 8c be
       -0.36364886 -0.36825806 -0.13872229 -0.27499938
000020 1d c0 3f 3e dd 9f 70 bc 1e f3 06 be d4 20 43 bb
       0.18725629 -0.014686552 -0.1317868 -0.0029774206
000030 da 5f 59 3e 41 4f 74 3e ab e5 70 be 44 66 83 3e
       0.2122797 0.23858358 -0.23525111 0.2566396
000040 e1 ae e0 bd a3 fa bf 3d 38 12 9a 3e 1a fe 75 3e
       -0.109708555 0.09373977 0.30092025 0.24022713
000050 be 02 ca 3d fe 2b 4d 3e cb 89 9e bd 3e 85 27 3e
       0.09863804 0.20036313 -0.07741126 0.16359422
000060 e8 39 36 3d dc dc 6e be b9 b2 a3 3e e0 22 ae 3e
       0.044488817 -0.23326439 0.31972292 0.34010983
000070 40 1b 93 3e 6b 53 d1 bd dd 98 99 be c5 a2 ba be
       0.28731728 -0.10220989 -0.29999438 -0.36452308
000080 2f 34 14 be 43 d8 85 be d5 f2 65 be 1a 88 ac be
       -0.14473031 -0.26141557 -0.22455914 -0.33697587
000090 22 78 48 3e 55 e9 79 be 75 0e 70 3e 15 72 5b 3e
       0.19577077 -0.24405415 0.23443015 0.21430238
0000a0 41 41 69 be 9c bb 78 3e 1f 23 8d be dc 89 71 be
       -0.22778799 0.24290317 -0.27565858 -0.23587745
0000b0 48 7e 56 bd 55 79 21 3d 5c 7b 8a bd 0e 2f 29 be
       -0.052366525 0.039422352 -0.0676181 -0.16521856
0000c0 69 ba 28 be f7 23 9a be 7c 67 91 bd 1e 87 31 3e
       -0.1647736 -0.30105564 -0.07099816 0.173367
0000d0 3e 9c 75 be b3 73 4b bb 56 1b 86 3e 8b ee c1 bc
       -0.23985383 -0.0031044304 0.2619273 -0.023673316
0000e0 1b 52 44 be d9 02 22 3c 43 38 1f 3e 74 27 95 be
       -0.19171946 0.009888374 0.15548806 -0.29131663
0000f0 12 bb e4 bd 1c e8 4e be 2e 67 ab bd ca e5 bc bd
       -0.11168493 -0.2020573 -0.08369289 -0.09223516
000100 a4 23 93 be 27 e3 50 be e5 cf 49 3e fa 37 4a be
       -0.2873813 -0.20399152 0.19708212 -0.19747916
000110 58 47 04 3d c2 d4 35 3e a5 df 86 3e 0e 01 cc 3d
       0.0322946 0.17756942 0.26342502 0.09961139
000120 ad 63 b7 be a9 54 6d bd dc 52 2a be 36 37 c0 be
       -0.35818234 -0.057942066 -0.16633171 -0.37542123
000130 31 1e b4 3d 1a 53 6f 3b c8 60 f3 3d a8 87 ac be
       0.08794821 0.0036518038 0.11883694 -0.33697248
000140 aa 49 ad be 13 16 74 3e 3a dd b8 3e 8a 30 3a 3e
       -0.33845264 0.23836546 0.36106282 0.18182579
000150 ff bc 17 3e a5 ec 81 be 60 1e b2 be f0 0f 61 be
       0.1481819 -0.25375858 -0.347888 -0.21978736
000160 b9 d6 c0 3e b0 b2 98 bc 2c 26 2b 3d a0 4a 6c 3d
       0.3766382 -0.018639892 0.04178445 0.057688355
000170 b7 ca af 3e 1e 7a 6b bc 35 40 19 be 13 6f 7d 3e
       0.34334347 -0.014372377 -0.149659 0.24749403
000180 e2 3a 55 be de 3d 3c be 0b de 91 3e cf ad 70 bc
       -0.20823243 -0.18382975 0.28489718 -0.014689877
000190 7a 45 a9 3e 13 f3 37 be 9d 44 49 bd 72 fc 37 bd
       0.3306082 -0.17963819 -0.0491377 -0.044918485
0001a0 0d 14 82 3e 7a c8 97 bc 06 5b ce bc 85 f9 3d 3e
       0.25405923 -0.018528212 -0.025189888 0.18552215
0001b0 32 23 d7 bd 16 88 20 3e 88 5e 18 3e 14 2d 89 3e
       -0.1050476 0.15676913 0.14879811 0.26792204
0001c0 00 91 6f 3e 35 1d b1 3e 35 a7 09 3d 6d 83 9e be
       0.23395157 0.34592596 0.033606727 -0.30959645
0001d0 77 7c 2e 3e 10 a1 32 3e 79 b0 a5 3e a2 69 c1 be
       0.17039667 0.17444253 0.323612 -0.37775904
0001e0 9b ba 3e be 8a 5c bd bc 49 9d 33 be a4 8d 72 be
       -0.18625872 -0.023115415 -0.17540468 -0.23686844
0001f0 b9 8a 86 3e 1b 25 14 be 2c 9c 40 3e 6c 5c 09 bd
       0.26277712 -0.1446728 0.18809575 -0.033535406
000200 83 62 a9 be 11 55 2a be 5a e9 54 bd 05 97 8c be
       -0.3308297 -0.16634013 -0.051980354 -0.2745897
000210 77 24 a6 be 80 5a 7c 3e 66 8e 92 be 24 26 fe bd
       -0.32449695 0.24643898 -0.28624266 -0.124096185
000220 f5 cb 6a 3e d6 d3 82 bd 8e 13 bb 3e 3b 66 f5 bd
       0.22929366 -0.06388061 0.36538357 -0.119823895
000230 0d 9a b0 be 2b 86 b5 be eb 2d 68 be 30 47 19 3e
       -0.3449253 -0.35453925 -0.22673766 0.14968562
000240 3f 02 9e be 28 59 06 3e 1b 1d 2c 3d 68 bf 58 3e
       -0.3086109 0.13119948 0.042019945 0.21166766
000250 fa 44 df bc 99 71 8b 3e 1a cc 1e bd ed b3 19 bc
       -0.02725457 0.27235106 -0.038768865 -0.009381277
000260 7e a8 2c be 2f 07 fc 3d 4d 6d 05 3e 62 88 b0 bc
       -0.1686115 0.12306058 0.13029976 -0.021549407
000270 41 aa c0 3e 74 d6 55 3e 99 f9 1b 3a ec c8 cd 3d
       0.37629893 0.20882589 0.0005949974 0.100480884
000280 69 c0 89 bd c7 88 ab be 5e 07 68 be 44 fd d5 3d
       -0.067261524 -0.3350279 -0.2265906 0.10448697
000290 19 ab b6 3e 1c 3f ba be 36 cd 3e bc 4e 02 78 be
       0.35677412 -0.36376274 -0.011645606 -0.24219629
0002a0 9c 7e 53 be 12 43 15 3e ca e2 75 be d6 34 c0 be
       -0.20653766 0.14576367 -0.24012294 -0.3754031
0002b0 cc f7 15 bd aa aa 72 be f7 d8 39 be d1 e2 9c bb
       -0.03661327 -0.23697916 -0.18149172 -0.004787781
0002c0 9d a8 d7 bd 15 f0 a1 be 48 99 a5 3e 2a 9c 57 3e
       -0.10530207 -0.3162848 0.32343507 0.21055666
0002d0 f7 f5 a4 3e 27 bf a6 3e 1c a5 f5 bb 4f d0 a8 3e
       0.32218906 0.32567713 -0.007496489 0.32971427
0002e0 f8 ed 9f bd 35 a4 f1 3c 94 9e 0a be 16 4f c5 bd
       -0.07809061 0.029497245 -0.13537055 -0.09634225
0002f0 95 d2 47 3e e1 24 3e 3e a2 2c 51 be eb 33 ad 3e
       0.19513924 0.18568756 -0.20427182 0.33828673
000300 98 69 34 3e a3 4a 40 3d 40 94 67 bd 09 bc 2c 3e
       0.17618406 0.04694618 -0.056537867 0.16868605
000310 3b 4c d4 bd a3 fd 69 be 21 e2 53 bd c7 e8 a2 bc
       -0.10366102 -0.22850661 -0.051729325 -0.019886388
000320 9f e2 55 3e ae 69 46 be 10 f9 ba 3e 3e 7e d2 bd
       0.2088723 -0.19376251 0.36518145 -0.10277985
000330 38 4e 10 3c 9a f9 0c 3e 3e 29 04 bc e6 2f 95 be
       0.008807711 0.1376709 -0.0080664735 -0.29138106
000340 cd 73 85 be 6a 59 08 3e 42 89 90 be 4d c4 16 be
       -0.2606491 0.13315359 -0.2822972 -0.1472332
000350 19 41 b7 be 9a 0f a8 be 5b a8 b6 be e6 27 1d bd
       -0.35791853 -0.32824403 -0.3567532 -0.03836813
000360 b1 21 8a 3e 69 8d a0 3d 4b 35 5d 3e c7 eb 86 bd
       0.2697883 0.07839472 0.21602361 -0.0658794
000370 73 1c a6 bd 2a bc 34 3d 86 d6 70 3e dc 05 b6 be
       -0.08110895 0.04412476 0.23519334 -0.35551345

convs.0.nn.0.bias f4 [32]
000000 da dd 9b be e8 06 5a 3d d2 5f 95 be c9 84 8f be
       -0.30442697 0.053229243 -0.29174668 -0.28030995
000010 11 5c 86 3e 53 a4 ab 3e d2 7b b2 be 11 d8 3a 3b
       0.26242116 0.33523807 -0.34860092 0.0028510133
000020 72 a2 c1 3e 6c 8b 3a 3d 17 a4 09 bd f6 77 e4 bd
       0.37819248 0.04554312 -0.033603754 -0.11155693
000030 47 ea 93 3e 00 cd 5e be ad 67 98 3e ea 00 60 be
       0.28889677 -0.21757889 0.29766598 -0.21875349
000040 19 24 07 bc b0 23 b8 be 55 2c 93 3d 74 68 d4 bc
       -0.008248352 -0.35964727 0.0718619 -0.025928713
000050 e9 16 8e 3d 81 46 b3 bd ed 2d 91 bd eb d1 d4 3d
       0.069379635 -0.08753682 -0.07088838 0.10391601
000060 47 6d 74 be 0a 3a 01 3e 2c c6 d9 3d e6 3e 03 3e
       -0.23869811 0.12619796 0.106335014 0.12816963
000070 24 2a 21 be 6f a6 bb 3e 1b bc 14 be 06 45 29 3d
       -0.15738732 0.36650416 -0.14524882 0.04132559

convs.0.nn.2.weight f4 [32, 32]
000000 fa 11 fb bd 03 88 7d bd 86 66 c0 3c 09 d5 5f bd
       -0.12259288 -0.06189729 0.023486387 -0.054646526
000010 48 5d 04 3e 80 22 98 3d 89 63 61 3c ef b1 dc 3d
       0.12926209 0.07428455 0.013756641 0.10776126
000020 53 13 de 3c 28 6b 93 3d 6a ca 01 be b3 bf 38 3e
       0.027108824 0.07198173 -0.12674871 0.18041877
000030 9f ac e1 3c 91 cf dd bd 82 30 56 3d 21 d1 ed ba
       0.027548132 -0.10830606 0.052292354 -0.001814399
000040 3b ef 80 bd 79 68 43 bd fb ce 54 bd 88 48 a8 bd
       -0.062956296 -0.047707055 -0.051955204 -0.08216959
000050 59 b8 06 3e bb 8d 6f 3d fd 8c a5 3d bb fb 08 bd
       0.1315626 0.058484774 0.08083532 -0.033443194
000060 97 a2 08 3e b7 dc 56 bc 7e d3 bc bd 12 ff b5 bd
       0.13343273 -0.013114146 -0.092200264 -0.088865414
000070 88 18 77 bc b5 65 21 3e 60 13 a1 3c ca a1 0b 3d
       -0.015081532 0.15761454 0.019662559 0.03408984
000080 f0 39 c7 bd 1c 53 55 bd 48 73 35 bd a9 4e 27 3e
       -0.097278476 -0.052081212 -0.044299394 0.163386
000090 d3 d0 f0 bd 26 18 b7 bd 02 a9 06 3e dc 28 16 3e
       -0.1175858 -0.08940153 0.13150409 0.14664024
0000a0 bb 5b b1 3c 98 d9 ed bd a1 70 4c bc 67 50 ae bd
       0.021650186 -0.11613768 -0.012478025 -0.08511429
0000b0 53 32 a0 bc 35 5c e9 3c 1d 64 e0 bd 8b c1 b4 bc
       -0.019555246 0.02848635 -0.10956595 -0.022064945
0000c0 bf 67 47 3d 4e f9 f4 3c d3 69 72 bd 04 62 ba bd
       0.048682924 0.029904034 -0.059182953 -0.09100726
0000d0 4a c7 95 3d 12 03 3e bc 28 53 f9 3d 04 c4 85 bd
       0.07313402 -0.011597412 0.12174064 -0.06531528
0000e0 7c 9f f7 3c 22 69 c4 3d 75 b2 2b be 71 a3 eb 3d
       0.030227415 0.09590365 -0.16767295 0.11505783
0000f0 7c c9 d2 bc c5 82 fe 3d 60 88 35 3e 9b df 7a bd
       -0.02573084 0.12427286 0.17727804 -0.061248403
000100 99 c7 c8 bc 88 13 6c bd c7 15 c8 3d c4 6a 0f 3e
       -0.024509238 -0.057635814 0.09769779 0.14005572
000110 72 e9 19 be ae a4 27 be bb 7f 0f 3e fd 56 2c bb
       -0.15030459 -0.16371414 0.14013569 -0.0026296966
000120 ae f6 db bc 22 10 f9 3c b6 e4 20 be 6d 6c 9b 3d
       -0.026851024 0.0304032 -0.15712246 0.0758904
000130 a4 e9 93 3d 1f 17 7f bb d8 98 26 3e 41 e8 7e 3d
       0.07222298 -0.0038923693 0.16269243 0.062233213
000140 96 2f 3e bd 68 cd 4c bd ea 01 e9 bd 9d ec a5 bc
       -0.0464321 -0.05000058 -0.11377318 -0.020254428
000150 ea 53 38 bd be 7d d4 3d f5 fa 77 3c bc 77 bf bd
       -0.0450019 0.10375546 0.015135516 -0.093490094
000160 e0 27 bb bc 6b a4 c4 bd b0 d0 8b bd 4a 06 a1 3d
       -0.022846162 -0.09601673 -0.06826913 0.07862528
000170 25 7a 04 3e d3 fa 9a bd c4 a1 64 bd e8 a6 29 be
       0.1293722 -0.07567372 -0.055818334 -0.16567576
000180 e4 f7 0b 3e 1a 83 a0 3d 43 04 33 be c9 8f f6 bd
       0.13668782 0.07837506 -0.17482094 -0.120391436
000190 6d 5b 2b 3e 59 f3 3a bb 07 77 c7 bb d8 da 37 bc
       0.16734095 -0.0028526394 -0.006087187 -0.01122161
0001a0 b1 3a 85 3c 9e b9 c5 3d b5 e8 5f bd b7 37 28 bd
       0.016263338 0.09654544 -0.054665286 -0.04106876
0001b0 6f 51 27 be 80 b6 a8 bc 0a 12 d5 bd 75 dd a2 bd
       -0.16339658 -0.020594835 -0.10403831 -0.07952396
0001c0 64 7d 10 3e 0b 3e 1d 3e d3 83 eb 3d 7c 3a e6 3c
       0.14110333 0.15355699 0.11499753 0.02810406
0001d0 30 4d 27 be 58 97 56 3c 0a 45 04 3e 57 ff b0 3d
       -0.16338038 0.013097607 0.12916961 0.08642452
0001e0 bc 70 0e 3e ba 67 90 bc c6 46 42 3c c5 1a a7 bd
       0.13910192 -0.017627586 0.011857694 -0.08159403
0001f0 ca 40 73 bd e4 7d 2d be 67 a7 ed bd 32 38 9d 3c
       -0.05938796 -0.16942555 -0.11604195 0.019191835
000200 57 5f a4 bb d7 b2 c3 3d 0b f0 9e 3d b6 95 15 be
       -0.005016248 0.09555595 0.07760628 -0.14607891
000210 c7 0f dd 3c c0 6b b1 bd 7a 26 75 bd 45 1d 05 be
       0.026985062 -0.0866313 -0.059851147 -0.12999447
000220 fb b9 8a bd 69 58 87 3d e7 25 5a 3d c3 68 95 3d
       -0.06773754 0.0660866 0.053258803 0.07295372
000230 e2 ab 43 3d 6f 9b 17 be db f0 d9 3d 3e c8 22 3e
       0.047771342 -0.14805387 0.10641643 0.15896699
000240 cb 79 b3 3d e4 d7 2d be 0a dd c4 3d 24 33 d4 bd
       0.087634645 -0.16976887 0.09612472 -0.10361317
000250 01 63 06 be 34 11 d2 bd b1 e7 ca 3b c1 43 0a 3e
       -0.13123704 -0.102571875 0.0061921705 0.13502409
000260 48 e1 b1 3d 2d 93 9e bd b6 ec 52 3d 8d 92 21 be
       0.08685547 -0.07742915 0.051495276 -0.15778561
000270 c5 97 d6 bd 65 8a 68 bd 19 f6 d5 bd 86 13 25 3e
       -0.104781665 -0.05677261 -0.1044733 0.16120729
000280 e8 e1 fd bd ff b0 18 be 13 45 05 be 84 43 1f be
       -0.12396604 -0.14911269 -0.13014631 -0.15553099
000290 23 56 20 be df 16 95 3d 5e 3c 80 bd 6d e4 de bd
       -0.15657859 0.07279753 -0.06261514 -0.108834125
0002a0 2e be d8 bd 79 6f 81 bc 93 63 ac bc 48 01 b0 bd
       -0.10583149 -0.015800225 -0.021043574 -0.085939944
0002b0 45 5e 3f bc 4c 49 29 3d e0 14 29 3e 27 ea 22 be
       -0.01168019 0.041329667 0.1651187 -0.15909635
0002c0 25 c5 f8 bc 2f 98 ab bd 54 8e a2 bb c1 64 95 bc
       -0.030367443 -0.08378636 -0.0049608145 -0.01823652
0002d0 07 f2 f0 3d 84 db 1d 3d 50 2c 53 bc a4 2a 2d be
       0.11764913 0.038539425 -0.012888983 -0.16910797
0002e0 48 11 8f 3c 3a b6 c7 3d e7 e6 b8 bd 66 66 d1 3d
       0.017464295 0.09751554 -0.09028416 0.10224609
0002f0 fd 30 1a bd 06 ad 90 3d c3 ee 19 3e 5b 6e 19 3e
       -0.037644375 0.070642516 0.15032487 0.14983504
000300 a1 a8 d3 3d d3 bb 79 bc fa 7d 14 3e a9 94 17 3e
       0.10334898 -0.015242535 0.14501181 0.14802803
000310 ef 71 a1 bd 20 d7 30 3d bc 0c 24 3e 1c 52 11 3e
       -0.07883059 0.04317391 0.16020483 0.14191478
000320 9e 49 f6 bd 46 5d 49 3d 98 88 a6 bd 83 73 73 3d
       -0.1202576 0.049161218 -0.08131522 0.059436332
000330 96 0a 78 bd 92 a0 8c bd fb 51 22 3d f5 ce 1a bd
       -0.06055697 -0.06866564 0.039628964 -0.037795026
000340 d7 3e 16 be a6 bb 28 3d 9d 15 9b bd f3 91 01 3e
       -0.14672409 0.04119458 -0.07572482 0.12653331
000350 ef 4d b0 bd b5 ff aa bb 14 13 b3 3d 6c 52 ba 3d
       -0.08608615 -0.005218471 0.08743873 0.09097752
000360 2e f4 30 3e 5d 76 01 be 28 8a 28 be 6c bc d7 bd
       0.17280647 -0.12642808 -0.16458952 -0.105339855
000370 34 e7 b3 3a b2 da ce bd f6 a4 91 bd ee 51 32 bc
       0.001372552 -0.101003066 -0.07111542 -0.010883791
000380 19 26 2f 3d 4e 6b 22 bd 6c 0a 24 3e 13 5c 2d 3d
       0.042760942 -0.039653115 0.160196 0.042324137
000390 17 69 29 3d 3e 9b 8c bc 52 60 b1 bd 3e 5d 52 bd
       0.041359987 -0.017163869 -0.0866095 -0.051358454
0003a0 eb a4 bf bd 49 7c cc bc 2a e2 dd bd 05 37 f5 3c
       -0.093576275 -0.024961608 -0.10834153 0.029933462
0003b0 2c 1b 17 be 5e 9e 31 3e 09 be 18 3e 18 4a 12 be
       -0.14756459 0.17345569 0.14916243 -0.14286077
0003c0 b2 8d a5 bb fd 67 14 3e bc 48 6f bd 51 0f 8b bd
       -0.005052292 0.14492793 -0.058418974 -0.06790031
0003d0 68 f3 ff 3d 25 67 22 be ff c6 92 bd 7c d4 87 3d
       0.12497598 -0.15859659 -0.07166862 0.06632325
0003e0 61 2f db bd 96 4b 20 bd e3 d9 e5 bc 2a e6 cc bb
       -0.10702396 -0.039134584 -0.028057998 -0.0062530236
0003f0 32 ca 1b 3d 5b cb 1b 3e 3e a2 24 3e e3 3b f1 3d
       0.038034625 0.15214293 0.16077515 0.117790006

convs.0.nn.2.bias f4 [32]
000000 97 85 0f be 6b 5b e2 bd 0d a5 67 3d e9 01 cb bd
       -0.14015804 -0.11052593 0.05655389 -0.09912474
000010 d2 a3 f7 3c 0c 21 05 3d 47 73 26 be e0 f5 37 bd
       0.030229483 0.03250222 -0.16254912 -0.04491222
000020 7e 4a b4 bc 77 d1 b8 3d 1f 63 2f bd 5a 26 75 bd
       -0.022008177 0.09024327 -0.04281914 -0.059851028
000030 e8 ef 8a 3d 6a 5f 31 bd b6 8b 15 bd fb 15 22 3e
       0.0678404 -0.043303885 -0.03651019 0.15828697
000040 7d db 68 3b c8 5f ed 3d ba 9a 14 3e 4b 5f 8d bd
       0.0035531216 0.115905344 0.14512148 -0.06902941
000050 4a 35 cd 3d db 69 88 3d 60 f3 37 bc f3 77 29 bd
       0.1001993 0.06660815 -0.011227459 -0.041374158
000060 e8 b4 bc bd e1 8e c0 bc 11 d1 c1 3c 9b c5 90 bd
       -0.09214193 -0.02350563 0.023659261 -0.0706894
000070 5c 73 f9 bd 15 82 98 3d ad 9b 21 3c 58 e0 30 be
       -0.12180206 0.07446686 0.009863776 -0.1727308

convs.1.nn.0.weight f4 [32, 32]
000000 11 cb 0f 3e 7e fe ce 3d 1c d7 ff 3d 15 15 25 3e
       0.14042307 0.10107134 0.12492201 0.16121323
000010 6a ae 34 bd 4c 79 dd 3c e3 a8 b0 3c 33 31 a9 3d
       -0.044111647 0.027035378 0.021564906 0.08261337
000020 c6 82 ba 3d d3 ab 11 3e 35 2e 11 be d6 c5 f5 bd
       0.09106974 0.14225702 -0.14177783 -0.12000625
000030 08 b0 9e bd 9f 5c 61 bd 4d 4f 71 bd 74 2e 2a 3e
       -0.07748419 -0.05501997 -0.058913518 0.16619283
000040 18 4f 7c bd c4 55 b9 3c 6d 69 de 3d 20 c3 0f be
       -0.061598867 0.022623904 0.10859952 -0.14039278
000050 7d 89 20 3e 5e 69 1a bc 28 06 49 3c 66 1e 01 bc
       0.15677448 -0.009424536 0.012269534 -0.007880783
000060 9e 63 48 bd 2c 99 d8 bc 50 e0 13 3e 3f 88 84 3c
       -0.048923127 -0.026440226 0.14441037 0.016178248
000070 d6 93 90 bd 85 18 9d bc a5 9a 8e bd 8f 44 af bd
       -0.070594475 -0.01917673 -0.0696309 -0.085579984
000080 1a 08 d0 bd 7d 4c ed 3d 75 f3 dd bc 25 ad f6 3c
       -0.10157795 0.115868546 -0.027093628 0.030111859
000090 f2 82 db 3d 9a ad 28 3e b4 ac 09 be 18 82 d3 bd
       0.10718335 0.16472474 -0.13444787 -0.10327548
0000a0 8f 0a 2c be 11 a6 28 be 8f 58 c3 bd f9 6c 8f bd
       -0.16800903 -0.164696 -0.095383756 -0.07003207
0000b0 b7 2d 7c bb 56 d0 40 bd 49 03 58 3d 67 bc 53 bd
       -0.0038479397 -0.047073685 0.052737508 -0.051693346
0000c0 ef f2 8b 3c dc 73 d7 bd c1 b5 28 39 76 bb bd bc
       0.017083613 -0.10520145 0.00016089437 -0.023160677
0000d0 2e 13 b5 bb 1a fd 2e 3e 0f f0 af bc fe 06 0f 3e
       -0.005525968 0.17088738 -0.021476774 0.13967511
0000e0 bd fa 31 3e 56 1b 6f 3a 56 ec bd 3d bb ab 04 3e
       0.17380805 0.00091212 0.09273593 0.12956135
0000f0 c5 f9 3c bd 13 1d 15 3e c5 49 11 bd ba 83 d3 3c
       -0.046136636 0.14561872 -0.035470743 0.025819648
000100 9d 9d e6 3d 6e c3 1c 3e 1a e3 c4 bd 0b e0 90 bd
       0.11260531 0.15308926 -0.09613629 -0.07073983
000110 15 48 83 3d cf 38 16 bd af c8 a4 bd 83 51 23 be
       0.06410233 -0.03667527 -0.0804609 -0.15949063
000120 a8 c3 20 3e 07 df 41 bd 98 38 47 3d 45 9f b3 3d
       0.15699637 -0.047331836 0.048637956 0.087706126
000130 9f f4 25 3e 26 b2 4f 3d f6 be d8 bd 4e 2a 33 be
       0.16206597 0.050707005 -0.10583298 -0.17496607
000140 7a 26 1d bd 22 0d 2d be 46 5c 3b be 98 29 e5 bd
       -0.038366772 -0.16899541 -0.18296918 -0.11189574
000150 0d 64 9d 3d 9a 07 9d bc 5c 9e 70 3c 19 e4 b9 bd
       0.07685099 -0.019168664 0.014686193 -0.09076709
000160 b2 24 92 3c cf db 1f be bf a4 b4 bd bf 8f 0e 3e
       0.017839763 -0.15611194 -0.08820485 0.13922022
000170 56 74 66 bc 4f 2a 66 3d 36 44 07 3e fe 4b a3 3c
       -0.014065823 0.056192692 0.13209614 0.019933697
000180 11 d7 64 bd 55 d4 96 3d 27 a5 19 be 62 b5 2f bb
       -0.055869166 0.07364718 -0.15004407 -0.0026810993
000190 6b 03 8b 3d 2d 1d 5c bd 05 c1 d6 3d 47 14 4f 3c
       0.06787761 -0.05373876 0.10486034 0.012639112
0001a0 25 a2 03 be 25 d3 ab bd 4f fd 4e 3d b0 6d d8 bd
       -0.12854822 -0.08389882 0.050534543 -0.10567796
0001b0 e0 6c 94 bc 3a 5f fd bd 62 b1 38 3d 2a 7d 39 bd
       -0.018118322 -0.12371679 0.04509104 -0.04528538
0001c0 0a 0a 74 bd 22 7f 8a bd 9d a2 84 3d 87 4f 94 bd
       -0.059579886 -0.0676253 0.064763285 -0.07241731
0001d0 5f 98 d2 3d 11 d9 9a 3c 43 ec b8 3d 22 c2 0c 3e
       0.10282969 0.018902333 0.09029438 0.13745931
0001e0 6b fa c9 3d 96 5d 43 3d e3 1d a0 bd 8b f2 32 be
       0.098622166 0.047696672 -0.078182004 -0.17475335
0001f0 51 6e 30 bd 6f 1f 50 bc f1 6d de bd 66 7f 19 be
       -0.043073956 -0.012702807 -0.108608134 -0.14990005
000200 5e 45 2d be 1b f5 b0 3d b9 2d 21 3e b8 20 13 be
       -0.16920993 0.086405 0.15740098 -0.1436795
000210 6b fb a7 3c 69 17 3a bd 91 fd 23 bd 60 92 0f be
       0.020505628 -0.045432482 -0.04003674 -0.14020681
000220 12 30 35 bd 73 45 1e 3d e1 c5 fb 3d 98 c5 24 be
       -0.044235297 0.03864045 0.12293602 -0.16091001
000230 30 2f 0c 3e 13 54 2a be 9d 1b 1a be f3 4e 96 3d
       0.13689876 -0.16633634 -0.15049596 0.07339277
000240 8f 8b c9 bd f2 09 de bd a5 25 0e bd 62 cf 22 3e
       -0.09841072 -0.10841741 -0.03470387 0.15899423
000250 a8 dd 8f 3d bd b0 01 be d7 e9 31 be c3 f9 b1 ba
       0.070246994 -0.12665077 -0.17374359 -0.0013578463
000260 2d 66 15 3e f1 a3 f5 bc 5c f4 20 3e ad 13 fc bd
       0.14589758 -0.0299854 0.15718216 -0.1230844
000270 bf 33 a9 3d e7 06 62 bd 24 d4 ca 3d 4f 1d 24 be
       0.08261823 -0.055182364 0.09903744 -0.16026805
000280 be 82 02 3e 02 78 2e be 17 e4 ee bc 26 fd 33 be
       0.12745187 -0.17037967 -0.029161496 -0.17577037
000290 df 49 ef 3d a6 ac 6b 3d 0e 39 29 3e dd aa e1 3d
       0.11684012 0.057537697 0.16525671 0.11018918
0002a0 ff 44 fc 3d 31 a5 6c bd 53 c0 84 bd 20 8b c2 bd
       0.123178475 -0.057774726 -0.064819954 -0.09499192
0002b0 42 0c 5e 3d 89 4a 14 3d 83 8b e2 bd 7d 9b ee bc
       0.05421091 0.036203895 -0.11061766 -0.029126877
0002c0 43 31 cf bd 71 f6 1e 3e 51 5d 15 be 6f a3 eb bd
       -0.10116818 0.15523697 -0.14586379 -0.11505782
0002d0 f2 62 a6 3d dd 81 b1 bc 03 b1 af 3b 7c bd 41 bb
       0.08124341 -0.021668369 0.0053616776 -0.0029562404
0002e0 f7 5d 8c 3c 22 a1 29 bd e3 99 bd bd 31 35 2f 3e
       0.01713465 -0.041413434 -0.09257867 0.17110135
0002f0 f1 0d ab bd f9 08 fd bd 6b 05 25 be f5 d1 66 3d
       -0.083522685 -0.12355227 -0.16115348 0.056352574
000300 92 af 2f be de 47 0e 3d 87 f7 1c 3d b9 08 b3 3d
       -0.17156819 0.034736507 0.038321998 0.08741898
000310 b9 03 7c bc 43 49 06 3e fb ac 56 bd 86 6b 13 bd
       -0.015381747 0.13113885 -0.05241106 -0.035991214
000320 8d 1a 14 3e 0b 62 f1 3d 6f 33 75 3d 27 62 25 bd
       0.14463253 0.11786278 0.059863504 -0.04037681
000330 9a b8 23 3c 01 6d e9 bd 73 c0 0e 3e fb 99 3d be
       0.009992743 -0.11397744 0.13940601 -0.1851577
000340 c8 0e 1b 3d aa 6b f0 bd a3 df a9 3d f4 43 4e 3c
       0.037855893 -0.11739285 0.082946084 0.0125894435
000350 9f 07 0a 3e f3 ca 3a 3d 74 bf 23 3e 34 e3 0e 3e
       0.1347947 0.045603704 0.15991002 0.13953859
000360 ec 6a 6c 3c d0 44 71 bd 66 53 8a bd 90 f2 89 bd
       0.014429789 -0.058903515 -0.06754188 -0.06735718
000370 3d cf d4 3c 1a 65 0f be 99 cc b2 bd 87 23 10 3e
       0.025977725 -0.14003411 -0.0873043 0.14076053
000380 ba cf fc bd 2e 0f 56 3c e5 52 9c bd d4 15 04 3e
       -0.12344308 0.013065143 -0.076329984 0.12898952
000390 78 53 31 bd 0d 73 a8 bc bf 5b 56 bc 3e 31 27 3e
       -0.043292493 -0.020562673 -0.013083397 0.16327378
0003a0 df f1 3b 3e 7a c0 32 3e ae fa 2b be b2 ac b7 3b
       0.18353985 0.17456236 -0.16794845 0.0056053037
0003b0 8c 2a 20 3e 70 7b 6f 3d 24 6c e3 bd 30 d1 28 3e
       0.1564123 0.05846733 -0.111046106 0.16486049
0003c0 a1 65 dc 3c 7a 1f d1 bd 31 80 8f bd a1 b8 81 bc
       0.02690393 -0.10211082 -0.070068724 -0.015835108
0003d0 b9 4b e4 bd 88 f5 7c 3d fc e5 37 3e 9c 24 bd bd
       -0.111472555 0.061757594 0.17958826 -0.09235498
0003e0 81 10 51 3b d3 f0 04 be db 6f 9a 3d 5e 08 0d 3d
       0.0031900706 -0.12982492 0.07540866 0.034431808
0003f0 6e 33 20 be e1 0e fc 3d 43 e9 fa 3d 36 35 aa 3d
       -0.15644619 0.123075254 0.122515224 0.083109304

convs.1.nn.0.bias f4 [32]
000000 b4 ac 9a bd 65 b4 32 3e 69 79 02 be eb 91 4f 3d
       -0.07552472 0.17451628 -0.12741627 0.050676268
000010 2d cf 9e bd 4b 04 1f bd 94 b7 4a 3d c7 1a cf 3d
       -0.077543594 -0.038822453 0.04949148 0.10112529
000020 31 46 9c bd 0b 7a 1e be 9a b2 fb 3c 94 4a f8 bd
       -0.076305754 -0.15476243 0.030724812 -0.121236
000030 84 07 77 bd 6e 6d 11 3e f7 a8 2e 3e 89 97 47 bb
       -0.0603099 0.142019 0.17056642 -0.0030455312
000040 31 9a c4 3d 38 8f b1 3d b5 6a 25 be b6 55 01 3e
       0.09599722 0.08669895 -0.16153987 0.12630352
000050 df 33 4e 3d e1 18 04 3c 26 cf d5 bc ac 3a d7 bd
       0.050342437 0.008062572 -0.026099753 -0.10509238
000060 b6 31 c7 bd 22 cd 2f be 4e d1 e9 3d bd b7 c1 3d
       -0.097262785 -0.17168096 0.11416875 0.094588734
000070 f7 e5 22 bd a5 90 2a 3e b5 6b 17 be f8 48 b7 bd
       -0.039770093 0.1665674 -0.1478718 -0.089494646

convs.1.nn.2.weight f4 [32, 32]
000000 d6 34 b9 bd af a1 27 3e 1d a6 12 3e 27 bd 69 3d
       -0.09043281 0.16370271 0.1432118 0.057065155
000010 d8 6e 2c 3e 54 c8 8d 3d 9b c9 ac 3d 84 3c d1 bd
       0.16839159 0.06922975 0.08436891 -0.102166206
000020 ec 6c 20 bc 85 e9 24 3e 99 41 9a 3d 24 61 3d bd
       -0.009791594 0.16104706 0.07532043 -0.04623522
000030 46 44 87 3d fc 07 09 3e 36 51 5d 3d 84 04 bf 3d
       0.06604819 0.13381952 0.054032527 0.09327033
000040 51 1c 0a bd 04 0e 3d 3e 34 e5 b5 bd 8b 43 d5 bd
       -0.03371841 0.18462378 -0.08881608 -0.104132734
000050 3a f4 93 3d 35 0d c6 3b ec 1f e4 3d b3 29 07 3e
       0.07224317 0.006044055 0.11138901 0.131995
000060 1a f8 c1 bc 1f 2a 82 bd 3a 73 2e 3e 80 0d 4b bd
       -0.023677874 -0.0635569 0.17036143 -0.04957342
000070 5e 70 28 bd cb 63 07 be b3 1b 0f be fe 87 86 bd
       -0.041122787 -0.13221662 -0.1397541 -0.06568907
000080 84 1b 0e 3e a2 48 24 3d 7b 15 5d 3d 28 82 00 be
       0.13877684 0.04010833 0.053975563 -0.1254965
000090 8b a0 39 3c e9 24 ee bd f1 c3 39 3d ea 95 c2 bd
       0.01132978 -0.11628134 0.04535288 -0.0950125
0000a0 1b f5 24 be 33 2c 0a bd 4b 0c 07 be 7b 0a 19 3d
       -0.16109125 -0.033733558 -0.13188283 0.03736351
0000b0 7f 0e e2 bd 2b 57 85 3d 91 cb 19 bd 6e 94 08 be
       -0.11037921 0.065107666 -0.03754765 -0.13337871
0000c0 54 27 68 bd a3 70 5b 3d 5e 0d f5 bd 13 7d 02 be
       -0.05667813 0.053574216 -0.1196544 -0.12743025
0000d0 78 d7 78 3d 93 a7 b0 bd ee 8f 00 3d 9a fb d8 3c
       0.060752362 -0.08625712 0.031387262 0.02648716
0000e0 c9 89 00 be 7f dd 5d bc b2 06 c2 bd 2b 0a 0d be
       -0.12552561 -0.013541578 -0.09473933 -0.1377341
0000f0 59 9f 23 be d2 87 c0 3d 03 80 09 3e 5f 35 05 3e
       -0.15978755 0.09400906 0.13427739 0.1300864
000100 ca 9a 97 bd 48 cd 49 bc 78 f7 2f 3d 5f a7 8a bd
       -0.074025705 -0.012317009 0.042960614 -0.06770205
000110 fc aa 28 be 77 86 9d bc 35 0b 49 bd 1c 71 1b be
       -0.16471475 -0.019229157 -0.049082953 -0.15179867
000120 f8 1a 1b 3e 81 20 9c bd 1b 35 4f 3d ba 79 d5 3d
       0.15147007 -0.07623387 0.050587755 0.10423608
000130 7f 5a 06 3e 06 c0 ad bd a3 b5 84 bd 59 64 23 be
       0.13120459 -0.08483891 -0.06479957 -0.15956248
000140 ac 9c 09 3d e5 ed 34 be f6 5a a3 bc d9 51 1e 3d
       0.03359668 -0.17668875 -0.019940834 0.038652275
000150 f1 fe 2a 3d ea fa a2 bd 82 5b f3 3d 69 16 10 be
       0.041747037 -0.07958014 0.11882688 -0.14071049
000160 60 6e 28 3c 87 8f 91 3d 5b c2 23 3e d5 83 e7 bc
       0.010280222 0.07107454 0.1599211 -0.028261105
000170 74 6d 17 be c6 e8 3c be f6 1f fb 3d 6d 4f 09 be
       -0.14787847 -0.18448171 0.122619554 -0.13409205
000180 b1 90 22 3e 01 c8 0b bd 9e a2 63 bd 03 8d f0 3d
       0.15875508 -0.034126285 -0.055575006 0.11745646
000190 ec 4f d3 bd f2 b3 c2 3c 50 5c 2a be 53 88 28 be
       -0.10317978 0.023767445 -0.16636777 -0.16458254
0001a0 17 dd 96 3c c4 5a 5b bd 39 fe cb bc b9 d3 24 be
       0.01841597 -0.053553358 -0.024901496 -0.16096391
0001b0 26 f3 ad bc 72 80 a7 bc 39 7d 12 be ca 49 fc 3d
       -0.021234106 -0.02044699 -0.14305581 0.12318762
0001c0 99 20 2b be 45 cc 1b bb 09 69 cf 3d d2 65 cb bc
       -0.16711654 -0.0023772877 0.10127456 -0.024828825
0001d0 e7 3c 84 3c e7 e8 dc 3d fd 6a 18 3e 4d 3d 12 bd
       0.016142322 0.1078661 0.14884563 -0.035702992
0001e0 27 88 ff bd d9 a0 26 be 94 0b 0d be 7b d8 27 bd
       -0.12477141 -0.16272296 -0.13773948 -0.040977936
0001f0 31 d6 14 be 3a de fc 3c 42 09 e4 bd b7 a1 82 3d
       -0.14534833 0.030867685 -0.11134578 0.06378501
000200 39 34 4d 3b 06 fc 88 bd 40 19 25 3d 3f c8 0e be
       0.0031311645 -0.06688695 0.040307283 -0.13943575
000210 8c 15 82 3d a7 e2 9e 3c 82 72 19 be 6d b3 0f 3c
       0.06351766 0.019395186 -0.14985088 0.008770806
000220 ad 05 b6 3d f1 99 0c 3e a5 dd 60 bc da 95 c4 bd
       0.08887801 0.13730599 -0.013724719 -0.095988944
000230 d8 49 5d ba 4e be 17 3d 8c 62 f9 bd c0 c6 8e 3d
       -0.00084414845 0.037046723 -0.121769994 0.06971502
000240 72 55 86 bb 5c f0 0d 3e 6f 13 77 3d 89 ea 09 bd
       -0.0040995413 0.13861221 0.060321268 -0.033670936
000250 76 27 e1 3d ea 15 ae 3c c1 e3 0e 3d 1b ca 1a 3e
       0.10993855 0.021250684 0.03488517 0.1511616
000260 c2 21 11 3e 30 2b b0 3d dd fa 19 3e 8b 2b a5 3d
       0.14173034 0.08601987 0.15037103 0.08064946
000270 8c 2d 89 bd de e5 40 3d 51 ba 94 3d e6 33 38 be
       -0.066981405 0.04709422 0.072620995 -0.17988548
000280 aa be d9 bd bc e3 b7 bd c7 d5 0f be a7 08 8d 3d
       -0.106320694 -0.08978984 -0.14046393 0.06886416
000290 c3 62 8d 3d 23 7c 57 3d 2c 30 ef 3c 7e b0 04 be
       0.06903603 0.05260862 0.029197775 -0.12957951
0002a0 9a 95 25 be 17 d5 f9 3d 00 c7 0b 3e 4d b0 22 bd
       -0.1617035 0.12198847 0.13650131 -0.039718915
0002b0 60 2e c4 b8 cd ac 34 bd 33 83 f1 bd f6 95 12 be
       -9.354646e-05 -0.04411011 -0.117926024 -0.14315018
0002c0 00 91 94 3d 7a b1 18 3e 85 d3 b2 3d ac 81 00 3d
       0.07254219 0.14911452 0.087317504 0.031373665
0002d0 22 ec df 3d c7 1c 23 3e ba a2 c1 bd 94 24 cd bc
       0.10933711 0.15928946 -0.09454866 -0.025041856
0002e0 f7 0e ac bd 22 da ef bc fe bc 29 3e 33 7b af bc
       -0.08401292 -0.029278819 0.16576001 -0.02142105
0002f0 f9 af 15 be 7b c8 56 bd 58 19 24 be 8a 24 93 bc
       -0.1461791 -0.052437287 -0.16025293 -0.01796176
000300 8f 9f 35 3b 4e 37 ed 3c 03 2c 2d be 88 61 c5 bd
       0.0027713513 0.028957035 -0.1691132 -0.09637743
000310 71 80 0a 3e 82 aa f6 bc 7f 53 ff 3c af 57 27 3e
       0.13525559 -0.030110601 0.031167744 0.16342042
000320 b4 bb d6 3d 28 da a2 bd f9 0a 20 be af fa 78 bd
       0.1048502 -0.07951766 -0.15629186 -0.060785946
000330 da 42 7a bd d0 5a 5a bd 6d a7 01 3e f4 13 71 bd
       -0.06109891 -0.05330926 0.12661524 -0.05885692
000340 98 3c 17 bd 8f d5 c4 3d 27 97 30 be 29 55 20 be
       -0.03692302 0.096110456 -0.1724516 -0.15657486
000350 b2 2d 8e 3c aa cc 34 3e 32 a4 c5 3d f4 cb 2d 3e
       0.017355774 0.17656198 0.096504584 0.16972333
000360 d7 0f 1f ba b3 c7 16 bd 0d e6 14 be 26 f5 9d 3d
       -0.0006067729 -0.03681154 -0.14540882 0.07712774
000370 26 1e b6 3d 13 a6 02 bd 8b 00 25 be 63 d0 80 3d
       0.08892469 -0.031896662 -0.16113488 0.062897466
000380 2c f4 ff 3b fe d5 25 3e d3 fa 8a 3d b4 e4 19 bd
       0.00781109 0.16194913 0.06786122 -0.037571624
000390 a9 9a 02 3c ef bc b1 3d 6b 54 3b bd 11 f6 d9 bd
       0.007971444 0.08678614 -0.045734804 -0.106426366
0003a0 5f 73 a2 3d cb 2e 8f 3c b5 2c 3c bd ce 98 28 3e
       0.079321615 0.017478367 -0.045941073 0.1646454
0003b0 cf 30 de 3c 3b c4 2c 3e ca b7 bc 3d c2 ae e6 3d
       0.027122883 0.16871731 0.092147425 0.11263801
0003c0 07 f6 f2 3c cf 12 91 3c d6 9c 13 be bf 1e bf 3d
       0.02965833 0.017709164 -0.14415297 0.09332036
0003d0 53 f1 9e bd 8c e2 3a 3d 17 c5 14 3d e0 37 e8 bd
       -0.07760873 0.04562621 0.036320772 -0.11338782
0003e0 d5 62 bc 3c 34 63 22 be 72 82 08 be a1 13 2c be
       0.022996346 -0.15858155 -0.13331011 -0.16804363
0003f0 62 0f 2f 3e 1b 35 1f be 1b 38 a8 bd 53 7e 35 3e
       0.17095712 -0.15547602 -0.08213826 0.1772397

convs.1.nn.2.bias f4 [32]
000000 c8 cb 58 bd c5 07 12 3e c7 a0 b5 bd 60 45 d1 3c
       -0.052928716 0.14260776 -0.088685565 0.025545776
000010 dc 81 3e be 08 fc db bd 54 ab ac bc 67 66 05 be
       -0.18604225 -0.107414305 -0.02107779 -0.13027345
000020 d8 16 17 be 80 17 f4 bd 5a 22 f5 3d 67 22 08 3e
       -0.14754808 -0.11918545 0.11969443 0.13294373
000030 78 54 ab bd 07 34 f1 3d 0f fd 97 3d 58 36 56 3d
       -0.083657205 0.117775016 0.07421314 0.05229792
000040 f3 e2 49 3d 88 86 d8 3d 7d c8 8d 3c e7 20 d2 bd
       0.0492887 0.10572535 0.017307514 -0.10260182
000050 64 2f 1c bd 4b f4 92 3d 31 83 92 bd a1 5e 67 3d
       -0.038131133 0.071755014 -0.07153929 0.05648673
000060 10 b6 cd ba 72 77 98 bd 0d 88 02 3d 92 bb 67 bc
       -0.0015694518 -0.074446574 0.03186803 -0.014143841
000070 09 d2 d8 bd e8 a6 ac 3c e9 ab 06 bd c6 4a e8 bc
       -0.10586936 0.02107568 -0.03287879 -0.028355967

convs.2.nn.0.weight f4 [32, 32]
000000 75 98 99 3c ac 35 0d 3e db 2d 75 bd c6 50 1a bd
       0.018749455 0.13790005 -0.059858184 -0.037674688
000010 b6 f0 c1 bd a0 09 c5 bd 04 a6 64 3c 79 31 1d 3d
       -0.0946974 -0.096209764 0.013955597 0.03837726
000020 cf bb 2b 3e 58 2b 8f 3d ba 04 6a 3c 5e 02 16 bd
       0.16770862 0.06990689 0.014283353 -0.03662335
000030 dc 46 8c bd 59 1c c2 3d f1 98 12 3e 19 a8 ac 3d
       -0.06849453 0.09478063 0.14316155 0.084304996
000040 b8 9d 23 be 5e c7 80 bd 22 11 f6 bd 23 bf af bc
       -0.15978134 -0.06288026 -0.120149866 -0.021453446
000050 f7 26 03 3e b5 a2 27 bc 7f 2f 2d be 91 ba 19 3e
       0.12807833 -0.0102316635 -0.1691265 0.15012576
000060 1f 90 8f 3d 09 28 7c bd ee 51 80 bd bd 56 2d bd
       0.07009911 -0.061561618 -0.06265627 -0.04231905
000070 eb 10 a7 3a 0b 2a db 3d ce cd c2 3d 2c 6b 41 3e
       0.0012746131 0.107013784 0.095119104 0.18888539
000080 07 5f 5c 3d 1a 3a 0f be 1d f0 8e 3c 2b b4 c5 bd
       0.053801563 -0.13987008 0.01744848 -0.09653505
000090 12 87 c1 bc 4d 74 c0 bd 1a 8c 1d be 4b 96 2d 3e
       -0.023623977 -0.093971826 -0.15385476 0.16951863
0000a0 40 95 fc bc 5c 51 0c 3e f2 e7 a8 3d 65 58 9d 3d
       -0.030832887 0.13702911 0.08247365 0.076828755
0000b0 79 af 12 be 66 2f 71 3d c5 ad 8f 3d 0a 7c 1e bc
       -0.1432475 0.058883093 0.07015566 -0.009673128
0000c0 34 12 c5 bc 9a b9 08 be 3f 48 ab bd 2f b1 f6 bd
       -0.024056531 -0.13352051 -0.08363389 -0.12045514
0000d0 ed c6 0e be 8f 8b 24 be 50 26 23 3d c1 9d 3b bd
       -0.13943072 -0.16068862 0.03983146 -0.045804743
0000e0 5f d4 92 bc e0 0b 0e 3b a1 61 36 bd 33 a8 a1 bd
       -0.017923532 0.0021674559 -0.0445267 -0.078934096
0000f0 84 dc bf 3b 68 c9 e4 3d 57 bb 2f 3e de e4 23 be
       0.005855145 0.11171228 0.17161308 -0.16005275
000100 2f 4b fa bc 94 60 02 3e 1f 5c 5a 3c 0b 23 69 3d
       -0.030553428 0.12732154 0.013327627 0.056918185
000110 55 45 b0 bd 97 82 ea 3d 37 e4 df 3d d9 19 2c 3e
       -0.08606974 0.11450689 0.109322004 0.16806735
000120 6f fa ee bd 72 e3 13 3e 89 2b da bd fd f0 a9 bd
       -0.1166886 0.14442232 -0.10652835 -0.08297918
000130 83 04 20 bd a8 9c 99 bd 2a 64 3e be 7d 17 bb bc
       -0.039066803 -0.07500583 -0.18592897 -0.022838349
000140 c7 b2 80 bb f3 5e ce 3d aa bc 3d 3e 96 77 0f 3e
       -0.003927562 0.10076704 0.18529001 0.14010462
000150 26 03 0c be b6 ac be 3d ea bc 04 3e 38 be 10 3e
       -0.13673076 0.09310286 0.1296269 0.14135063
000160 58 da 12 be 09 d5 d2 3d fe 53 53 bd 45 28 2c 3e
       -0.14341104 0.102945395 -0.051593773 0.16812237
000170 82 c6 f9 3d c5 49 39 3e a2 57 33 bd 13 a6 70 3d
       0.121960655 0.18094547 -0.043784745 0.05875213
000180 e3 d2 55 3c 9c d0 2c 3e 18 07 8c 3c 93 7d d4 bc
       0.013050768 0.16876453 0.017093226 -0.025938785
000190 3b 3d 17 bd 59 f9 57 bb d7 fa c7 bd 16 50 11 3b
       -0.03692363 -0.003295502 -0.09764641 0.002217298
0001a0 ca f5 29 3e 07 f4 c9 bd 32 e6 db bc cc b9 ec 3d
       0.16597667 -0.09860998 -0.026843164 0.115588754
0001b0 3a a4 86 bd 4c fd d7 bd e8 5b ea 3d 13 fb 1b be
       -0.065742925 -0.105463594 0.11443311 -0.15232496
0001c0 eb eb 02 be 86 1c a7 bd 5c 55 fd bd a1 2f b6 bc
       -0.12785308 -0.08159737 -0.12369797 -0.022239508
0001d0 27 c7 b5 bb b1 2e 11 3e 3b ee 4a 3d 88 d4 fd 3d
       -0.0055474225 0.14177968 0.0495436 0.12394053
0001e0 77 b3 34 3c 68 ca 73 3d cb 66 33 be 03 f6 3a bc
       0.011029116 0.0595192 -0.17519681 -0.011411193
0001f0 38 f2 80 3d 02 0c 9f 3d a4 e3 07 3d 67 99 c3 bd
       0.062961996 0.07765962 0.03317608 -0.095507436
000200 8f 38 25 3e f4 8f 02 be db b4 e9 bd a7 06 df 3c
       0.16134857 -0.12750226 -0.114114486 0.027224852
000210 36 22 fb bd db f0 cc 3c b2 0b 29 be 9d 8f 9b bd
       -0.122623846 0.025017193 -0.16508368 -0.075957514
000220 67 97 df bd 3c 0e 15 be e7 2a 21 be e9 83 0b be
       -0.109175496 -0.14556211 -0.15739022 -0.13624538
000230 84 d5 02 3e 4e 8c 09 3e fa a3 1c be f3 67 aa bd
       0.12776762 0.13432428 -0.15296927 -0.08320608
000240 df 61 a1 3d f9 c6 3c 3e e9 14 57 3d 98 12 85 3d
       0.078799956 0.18435277 0.052510176 0.06497687
000250 ae 80 b8 bc 4d f8 0e 3d 89 29 a4 3d 59 87 ed bd
       -0.022522297 0.034904767 0.08015735 -0.11598081
000260 72 ee 33 be af 64 17 bd 22 36 c6 3c d9 fa 1a 3d
       -0.17571428 -0.036961254 0.024195734 0.037836883
000270 49 2a d3 3d 88 cf ab bd c2 5f 53 3b ef 73 18 be
       0.103108 -0.08389193 0.003225312 -0.14887975
000280 8c 77 08 3e c1 b4 36 3c 0b 6c 96 3d 00 e8 f7 3d
       0.13326854 0.0111514935 0.07344826 0.12104797
000290 02 96 0a be eb 17 e9 3d d4 ef c0 bb 5d 6a 0b be
       -0.13533786 0.11381515 -0.0058879647 -0.13614793
0002a0 0b 2c e2 bd 48 93 f7 3c 42 49 2c be 3f d3 e3 3d
       -0.11043557 0.030221596 -0.1682482 0.11124276
0002b0 07 33 0c 3d 81 6e 05 be c4 15 2f be 42 bd 31 bd
       0.03422835 -0.13030435 -0.17098147 -0.04339338
0002c0 b1 41 07 be d3 d6 fe 3d 02 ec c1 3b 01 ac 71 bd
       -0.13208653 0.12443318 0.005918027 -0.059001926
0002d0 ce 8a 79 bd 45 5c 63 3d 03 e9 87 bd d4 84 18 3e
       -0.06092339 0.055507917 -0.0663624 0.1489442
0002e0 eb fa 24 be e1 d6 d6 3d 30 c6 21 bd bb c2 d9 bb
       -0.16111343 0.10490204 -0.039495647 -0.006645528
0002f0 f3 d6 b4 bd 81 92 fa 3d 78 69 c3 bd d0 46 d1 3d
       -0.08830061 0.12234975 -0.09541601 0.102185845
000300 d9 42 03 3d ae a2 ba 3d 19 60 de 3d 17 f8 f7 3d
       0.032046173 0.0911306 0.10858173 0.12107866
000310 4c b8 cc bd b3 c8 90 3d fb c1 07 3e 4a e3 69 bd
       -0.09996089 0.0706953 0.13257591 -0.057101525
000320 9f 1d 2d 3e c5 82 63 bb 08 e4 01 be 5e 5c cb bb
       0.16905831 -0.0034715396 -0.12684643 -0.0062060794
000330 45 c9 20 be 90 b1 de bd 3a 9f c8 bc 38 a5 09 3d
       -0.15701778 -0.10873711 -0.024489988 0.03360483
000340 43 ab 13 be d2 34 c1 bd 9b 65 1e be 73 50 cc bd
       -0.144208 -0.09433903 -0.15468447 -0.09976282
000350 16 57 8a bd 54 cf ed 3c 9e 30 15 bd 8c e4 1a bd
       -0.067548916 0.029029526 -0.036423318 -0.037815616
000360 ac e5 ac bd 04 39 b5 3c 5e 2a 1c 3e c0 3b ac 3d
       -0.08442244 0.022121914 0.15250537 0.08409834
000370 40 35 c9 3d 0d 5d f9 bd d5 f3 b9 bd c7 1b 41 bd
       0.0982461 -0.12175951 -0.090797104 -0.04714563
000380 0f 26 1a bd de 35 8a 3c 25 4a 23 be e1 a5 5b 3c
       -0.03763395 0.016871389 -0.15946253 0.013406248
000390 99 3a 89 3d e0 b5 05 3d 85 68 18 3e 72 45 f3 bc
       0.0670063 0.032644153 0.14883621 -0.0296962
0003a0 34 73 83 3d e9 35 f9 ba c4 2b 04 3e 8b 0e c2 bd
       0.064184576 -0.0019013259 0.1290732 -0.0947543
0003b0 05 25 aa bd 6d f2 dc bd f3 63 09 be 88 27 18 be
       -0.08307842 -0.107884265 -0.13417034 -0.1485883
0003c0 7b 41 bd 3c 86 d9 20 3e ee 3f 3a bd ba 41 b1 bd
       0.023102513 0.15707979 -0.045471124 -0.086551145
0003d0 f6 5c bf bd e8 93 c5 3d 9f eb 31 be 8f d3 be 3d
       -0.09343903 0.096473515 -0.17375039 0.09317695
0003e0 9c c1 f0 bd a0 e3 2f be 1c 96 b9 bc 4e 6e 07 be
       -0.11755678 -0.17176676 -0.022654586 -0.13225672
0003f0 ba e0 f5 3d 4d d3 fb bd e6 37 08 be cc ee 07 3e
       0.12005754 -0.12296162 -0.13302574 0.13274688

convs.2.nn.0.bias f4 [32]
000000 fe 4f 43 3c 36 6a b2 3d c5 d7 14 be f1 52 14 3e
       0.011920927 0.087116644 -0.14535435 0.14484765
000010 78 9a f6 3d e8 8a 3b 3e bb 1b 15 3e 3a 88 33 3d
       0.12041181 0.18314707 0.1456136 0.043831088
000020 77 0f c4 bd 86 77 14 3e b7 77 2e be 5d 69 fb 3c
       -0.09573262 0.1449872 -0.17037855 0.03068989
000030 3f 1f 85 3d 99 a8 9a 3d 1b 12 d3 bd 6c 8d fe 3c
       0.065001 0.07551689 -0.10306188 0.031073295
000040 09 e3 ef 3d 53 c0 fb bc d9 8b fd 3d 70 3d 08 be
       0.117132254 -0.030731356 0.123801894 -0.13304687
000050 a4 87 36 3e f2 c0 35 3e 3d dd a5 3d 31 c0 21 3d
       0.1782518 0.17749384 0.080988385 0.03948993
000060 25 b9 fe 3d 8d 31 b6 bd 58 a3 f1 bd 17 1c f6 3d
       0.12437657 -0.0889617 -0.117987335 0.120170765
000070 05 45 88 3a ee c8 de bd 66 3e 6f bd ad 9b 75 3d
       0.0010396546 -0.10878168 -0.058409117 0.059962917

convs.2.nn.2.weight f4 [32, 32]
000000 2e 5c 14 3e 20 75 94 3d 71 1b eb bd a2 61 cd 3d
       0.14488289 0.07248902 -0.114798434 0.100283876
000010 4f 38 e3 3d 61 50 c7 3d 0a 31 6e bd 95 6e ef bb
       0.110947244 0.09732128 -0.058152236 -0.0073068836
000020 1d b1 16 be 3a 74 19 3e a8 dc 1c be 3a 2a 8c 3d
       -0.14716001 0.14985743 -0.15318549 0.068439916
000030 b7 d0 01 3d 17 59 0c 3e 61 4a 8a 3d 5a 29 8b bd
       0.031693187 0.1370586 0.06752468 -0.067949966
000040 20 f3 17 3e 14 1f 6a 3a 6a 4a 3b 3c af c6 07 bd
       0.14838839 0.00089310226 0.011431316 -0.033148464
000050 fe f6 dd bd 5a 5a 30 3d 67 73 da bd 2b 5a 41 3d
       -0.10838126 0.043054916 -0.106665425 0.04720513
000060 f2 1a 29 3e 15 97 66 bd 7a 10 cf bd 49 bb f0 3c
       0.16514185 -0.056296427 -0.101105645 0.02938618
000070 62 f5 11 3d 62 a9 4f 3a a1 54 39 3e 73 54 04 3e
       0.035634406 0.00079216633 0.1809869 0.1292284
000080 7b 3e 15 3e 47 90 2b 3e a2 7b af 3d 0f 3a 8e 3d
       0.14574616 0.16754256 0.08568503 0.069446675
000090 57 13 a3 bd f5 c7 e5 3d 17 f0 13 be 1b 58 2e 3d
       -0.07962673 0.112197794 -0.14447056 0.042564493
0000a0 49 f0 95 3c f1 84 1a 3d 33 16 30 3e c6 ce df 3d
       0.018303053 0.03772444 0.17195968 0.10928111
0000b0 85 0d 36 3e 95 62 87 3c 6c 4e 8c bc 32 ae 88 bd
       0.17778595 0.0165265 -0.017127238 -0.0667385
0000c0 da 4d ea bd 06 b2 83 bd 4f a9 36 3d 41 5c 8f bd
       -0.1144063 -0.0643044 0.04459506 -0.07000018
0000d0 6c f7 26 be fe 66 72 bc 8a 40 e3 bd fe b5 b0 3d
       -0.16305321 -0.014795063 -0.11096294 0.08628462
0000e0 03 5f 25 be 5b dd 50 bd b6 0f 01 be 1a 75 2f bd
       -0.16149525 -0.05099235 -0.1260365 -0.042836286
0000f0 c4 c1 1c 3e c0 3a 20 be 5c bd 03 be 99 f5 8e 3d
       0.1530829 -0.15647411 -0.12865204 0.06980438
000100 af 30 56 3c 3e bf 11 be 92 c9 54 3e 4f 78 f0 3d
       0.0130731305 -0.1423311 0.20780018 0.11741697
000110 a5 f5 ac 3b a5 4e 4c bd 28 5d 29 3d df 18 0b be
       0.0052783065 -0.04987969 0.041348606 -0.13583706
000120 70 b8 77 3d 9f 85 04 3e 60 ca bb bc 75 9e e6 3c
       0.060478628 0.12941597 -0.022923648 0.02815173
000130 7d 65 31 3e e1 7b f6 3b ae 86 0c be 6c 26 96 3c
       0.17323871 0.0075220917 -0.13723251 0.018328868
000140 69 86 3a bd ff fe 49 bd 78 05 f5 bd 2e b0 89 ba
       -0.04553834 -0.04931545 -0.11963934 -0.0010504776
000150 ca 63 85 3d 91 42 43 bd 7b 75 94 bc 1a 48 1d be
       0.06513174 -0.047670905 -0.018122425 -0.15359536
000160 e0 e1 a0 3c ee c6 1b 3e db 32 a9 bc bf f5 19 3e
       0.019638956 0.15212604 -0.020654133 0.15035151
000170 d1 14 5f 3d 81 08 99 3c 92 10 15 3e a7 9e 06 3e
       0.05446321 0.018680813 0.14557102 0.13146459
000180 85 58 36 bd 43 f9 1a 3e 0d 97 e0 bc 88 db 21 3e
       -0.044518013 0.15134148 -0.027415777 0.15806401
000190 09 bf 2f bc 43 db 74 3c 2d 23 e5 bd 19 1e 92 bc
       -0.010726699 0.014944854 -0.1118835 -0.017836617
0001a0 66 8b ec bc 5e b9 37 3c bb 4d e1 3d bf 8e 20 3e
       -0.028875064 0.011213629 0.11001154 0.15679453
0001b0 f0 23 14 be d1 77 84 3d 05 f2 f1 bd 6c ae b3 3d
       -0.14466834 0.06468166 -0.1181374 0.08773503
0001c0 f1 53 4e 3c 64 b1 4b bd 3d fc cc bd 32 22 dd bd
       0.012593255 -0.04972972 -0.10009048 -0.10797538
0001d0 43 7c a0 bd d5 c9 dc bd ef 37 05 3e e7 49 80 3d
       -0.07836201 -0.10780684 0.13009618 0.06264096
0001e0 a9 56 d4 bc 40 04 95 bb 84 c0 6c 3d f1 02 1d be
       -0.025920229 -0.004547626 0.057800785 -0.15333153
0001f0 9d 96 de 3a 9a ed c9 bd ab 37 2d 3e d1 a9 c2 bb
       0.0016982142 -0.09859772 0.16915767 -0.005940654
000200 5c 6f 9e bd da f8 0f 3e 17 c4 26 be 2a b4 34 3e
       -0.07736084 0.14059773 -0.1628574 0.17646852
000210 24 01 2b be a2 d0 10 3d 7c 76 23 3e b4 9c 01 3e
       -0.16699654 0.035355218 0.15963167 0.12657434
000220 1b 30 a3 bd 96 be 23 3e 44 70 f0 3d ea 8d 9c bd
       -0.0796816 0.15990672 0.11740163 -0.076442555
000230 35 80 cb bc 16 2e f9 bd 4d 7c ce 3b a1 b6 31 be
       -0.024841407 -0.12166993 0.006301439 -0.17354824
000240 b3 db d8 bc f0 09 12 3d 5e 5e c3 bd 54 b4 2b be
       -0.026471948 0.03565401 -0.095394835 -0.16768008
000250 6e e2 44 bd b8 2b 12 bd 5d 32 b8 bc 00 fb 0d 3c
       -0.048067503 -0.035686225 -0.022484953 0.0086658
000260 fe d5 92 bb fe dd 92 3d 9b 49 1b be 05 0c a3 3c
       -0.0044810763 0.07171248 -0.15164797 0.019903192
000270 09 ab 2d 3e f7 b3 d4 3d c5 1f 7d bc 24 af 94 bd
       0.16959776 0.10385888 -0.015449469 -0.07259968
000280 d3 9d f0 3d 8a fb d3 3b 11 ae d5 3d 85 9f 95 3c
       0.117488526 0.006469195 0.10433591 0.018264541
000290 3d 86 eb bd 34 43 5a bd da df ce bc d7 f0 aa bb
       -0.11500213 -0.053286746 -0.025253225 -0.0052166986
0002a0 79 dc e2 bd 21 fa e1 bd 73 0d 8a bc 71 79 51 3d
       -0.11077208 -0.110340364 -0.016852116 0.051141206
0002b0 30 cc 00 be 60 8d 5f 3d d8 b0 00 3e 50 6a 81 3d
       -0.12577891 0.054578185 0.1256746 0.063191056
0002c0 2d a8 43 3d 15 de 25 be bd 9f 1d bd f7 a7 35 bd
       0.047767807 -0.16197999 -0.038482416 -0.044349637
0002d0 0a 0b 4f 3d 2b 10 de bd 77 ce a5 3d 5d fd 55 3c
       0.050547637 -0.108429275 0.08096021 0.013060895
0002e0 1d a0 32 3e da 82 f4 3d 03 fe 0c 3e fd ba cd 3d
       0.17443891 0.119390205 0.13768773 0.10045431
0002f0 a0 7a b3 bd 97 79 3a bd 53 bc 18 3e d2 0a 03 be
       -0.08763623 -0.045526113 0.1491559 -0.12797096
000300 eb 89 f3 bd 5d 73 b1 3c dd 05 2f be ce a9 29 3e
       -0.1189154 0.021661455 -0.1709208 0.16568682
000310 ba c2 0e be c2 02 a8 3d c3 62 8d bd 55 12 83 bd
       -0.1394147 0.08203651 -0.06903603 -0.06399981
000320 e9 32 93 bc 13 53 fd 3d 9c d1 a9 bd 03 6b 76 bd
       -0.017968612 0.12369361 -0.08291933 -0.060160648
000330 c1 5d b5 3d 3f 2e 54 bd ad 53 0f 3e 81 93 50 3d
       0.08855773 -0.051801916 0.13996764 0.05092192
000340 97 74 9b bd 30 56 3f be a3 b3 20 bd d6 71 35 bd
       -0.07590597 -0.18685222 -0.039233815 -0.044298016
000350 94 40 e6 3d 41 f4 08 be 12 25 f9 bd df 2f 4c bd
       0.11242786 -0.13374425 -0.12165274 -0.04985034
000360 47 a5 bb 3c 06 7d 45 be f4 bf 33 bd 05 52 e6 bc
       0.022905959 -0.19285974 -0.043884233 -0.028115282
000370 c8 3b 0c bd ed 30 a3 bd 12 74 4a 3c 80 a3 57 bd
       -0.0342367 -0.07968316 0.012356775 -0.05264616
000380 1e 22 01 3e ef 1a c2 3a 67 79 67 bd 71 c7 f4 3d
       0.12610671 0.0014809052 -0.056512263 0.11952103
000390 24 c9 2e be af 49 89 3b 6f a5 bb 3d 61 59 26 bd
       -0.17068917 0.004189692 0.09162413 -0.040612582
0003a0 87 c7 06 3e 59 02 2a 3e 14 02 7a bb ff 98 16 3e
       0.13162051 0.16602458 -0.0038148211 0.14706801
0003b0 e5 c3 7d bd bc 0b c3 bd cb db 8a 3d 54 df 8d 3c
       -0.061954398 -0.095237225 0.067802034 0.017318405
0003c0 d5 7b 20 3c 06 69 c0 bc f6 ef 12 be 9e a5 b8 3c
       0.009795149 -0.02348758 -0.1434935 0.02253991
0003d0 1c d9 c0 bd 89 42 7f bd c3 65 ea b9 22 84 14 bd
       -0.0941641 -0.062319312 -0.00044707776 -0.036258824
0003e0 5f 16 ac bc 34 a5 05 3e 29 ea 6a bd 92 5f 20 be
       -0.021006761 0.13051301 -0.05735222 -0.15661457
0003f0 82 dd 0e be 30 53 b1 3c 3e c2 c8 3d c0 95 8f bc
       -0.13951686 0.021646112 0.09802674 -0.017527461

convs.2.nn.2.bias f4 [32]
000000 6f a5 28 3d 77 b7 28 3e ba 20 16 be bb cc 30 bd
       0.041173395 0.16476236 -0.14660922 -0.043163996
000010 d5 73 98 3d 22 ab 52 bd c4 f8 6d 3d df d8 2e be
       0.07443968 -0.051432736 0.05809857 -0.17074917
000020 30 16 12 be a4 45 6d bd cf f6 1e be 0b 4f 46 bd
       -0.14266276 -0.057927743 -0.15523838 -0.048415225
000030 81 b7 91 bd 76 97 fc bd ac 92 aa 3d 83 eb 05 3e
       -0.07115079 -0.123335764 0.08328757 0.13078122
000040 00 f7 a3 3d 32 39 2b 3e a6 b4 51 3d c1 74 35 3d
       0.08006096 0.16721037 0.05119767 0.0443008
000050 69 f1 3f bd 73 76 22 be 2b 25 6c bc 95 b7 ef bd
       -0.046861086 -0.15865497 -0.014413158 -0.11704937
000060 2c 88 c9 3d 79 c6 10 3e 02 13 ca bd 41 d8 d4 bc
       0.09840426 0.14138211 -0.09866907 -0.025982024
000070 ad 54 b8 bd 59 9c 9d 3c 6f fc 91 bd 7e f9 02 3e
       -0.090005256 0.019239591 -0.07128226 0.12790486

lns.0.weight f4 [32]
000000 cf 6a 81 3f 23 ec 7d 3f ee fb 7c 3f 06 69 7e 3f
       1.011072 0.9918844 0.98821914 0.99379003
000010 2d 1b 7c 3f 65 c4 80 3f 5b 2f 80 3f 27 08 7d 3f
       0.98478967 1.0059935 1.0014452 0.98840564
000020 b3 d9 80 3f 09 23 81 3f a2 31 80 3f a1 3c 80 3f
       1.0066437 1.0088817 1.0015147 1.0018502
000030 c5 03 7f 3f e9 9b 80 3f 9b 7b 81 3f 2d 43 81 3f
       0.99615127 1.004758 1.0115846 1.0098625
000040 ef 26 7f 3f 97 e6 7d 3f 77 d3 80 3f af 67 80 3f
       0.9966878 0.9917998 1.0064534 1.0031642
000050 36 e8 7c 3f 41 21 7e 3f 48 40 80 3f 66 f5 7d 3f
       0.98791826 0.9926949 1.0019617 0.99202573
000060 07 a8 81 3f b4 16 80 3f 91 85 81 3f 40 7f 80 3f
       1.0129403 1.0006928 1.0118886 1.0038834
000070 98 d6 81 3f c6 8f 7e 3f 80 23 7c 3f ba 53 7d 3f
       1.0143614 0.9943813 0.9849167 0.9895588

lns.0.bias f4 [32]
000000 09 37 1a bc 8f 22 14 3b 2f 01 1d bb 90 18 d2 3b
       -0.0094125355 0.0022603606 -0.0023957004 0.0064116195
000010 04 53 ea 3b 00 e7 58 b8 48 d4 fd ba 84 1a ed 3b
       0.0071510095 -5.171355e-05 -0.0019365633 0.007235827
000020 ce 00 85 3a 92 9e d3 3a 47 13 d3 bb 1f a2 85 3b
       0.0010147335 0.001614528 -0.006441507 0.004078164
000030 47 68 5c 39 be d6 a2 bb 85 7e 12 bb 87 66 98 ba
       0.00021019681 -0.004969447 -0.0022353244 -0.0011627235
000040 b8 1a 2e 3b cb 0e 72 3b 54 a4 97 3b ac 01 71 bb
       0.0026566219 0.0036935087 0.0046277437 -0.0036774678
000050 ff 39 10 3c 56 e6 bb 3b 08 bd a6 3b 35 7f 32 b9
       0.00880289 0.0057342453 0.0050884522 -0.00017022791
000060 72 78 10 bb d2 ec 8a bb c9 3f 80 3b 22 d6 49 bb
       -0.0022044447 -0.004239657 0.003913854 -0.00307978
000070 62 32 7b bc d3 55 c9 ba 66 08 fa bb 97 08 9f 3a
       -0.015331836 -0.0015360661 -0.0076303957 0.0012133297

lns.1.weight f4 [32]
000000 00 03 82 3f 6e 8f 7f 3f 75 99 7e 3f da 63 7f 3f
       1.0157166 0.9982823 0.99452907 0.99761736
000010 b0 a4 80 3f 8d 91 7a 3f d4 0f 81 3f 5d 23 82 3f
       1.0050259 0.9787834 1.0082955 1.0167042
000020 18 3c 82 3f 58 8a 82 3f 08 c4 81 3f ca 0f 82 3f
       1.0174589 1.0198469 1.0137949 1.0161068
000030 8a 2f 81 3f 69 2f 82 3f 34 be 81 3f 59 5a 81 3f
       1.0092633 1.0170718 1.013617 1.0105697
000040 45 97 7b 3f 58 c2 81 3f 77 2d 81 3f 6a 82 80 3f
       0.98277694 1.0137434 1.0092 1.0039799
000050 92 8d 7e 3f 91 de 80 3f 24 22 80 3f 7d 1f 83 3f
       0.9943477 1.0067922 1.0010419 1.0243984
000060 f5 42 81 3f d9 fb 80 3f 71 8b 7f 3f 24 17 83 3f
       1.0098559 1.0076858 0.99822146 1.0241437
000070 41 5b 7e 3f 56 67 83 3f ab 95 81 3f ad 16 7f 3f
       0.9935799 1.0265911 1.01238 0.99643975

lns.1.bias f4 [32]
000000 df 40 98 bb 6f 3e f0 3a 0e 72 97 3b c9 d4 74 ba
       -0.004646405 0.0018329154 0.0046217507 -0.0009339569
000010 af a6 8f bc d6 4f b6 3c 17 84 d7 3b 7f 9e b1 3b
       -0.017535536 0.022254866 0.0065770256 0.0054205055
000020 b0 aa a3 bb 5c c1 4b bc 20 92 eb bb 3d 1c 89 bc
       -0.004994713 -0.012436237 -0.0071890503 -0.016737098
000030 99 53 34 bc 83 b0 da 3b 0d ee 57 bc af 66 20 bc
       -0.011006259 0.006673874 -0.013179314 -0.009790107
000040 21 67 8d 3c b1 94 9f 3c 3b a3 53 3b f5 a4 14 bb
       0.01726109 0.019480081 0.0032293338 -0.002268133
000050 7b 44 45 bc b9 16 79 3c 89 0f fb ba 1c 05 18 3c
       -0.012040253 0.015203171 -0.001915441 0.009278562
000060 a2 b3 10 bc dc 02 29 bc d2 d7 8b 3b 1a 16 00 3c
       -0.00883189 -0.010315623 0.004267671 0.007817769
000070 f2 29 3a 3b cb 68 21 3c 57 62 87 bc c9 e3 78 3c
       0.002840635 0.009851645 -0.016526384 0.015191027
