GNNStack_checkpoints/run_7_12/artery_model_best_val_acc.pt (torch, 35383 bytes, 20 tensors)

convs.0.nn.0.weight f4 [32, 7]
0	0x3ca7ae6b	0.020468911
1	0x3e46753e	0.19380662
2	0xbc9569e4	-0.01823897
3	0x3ae68e19	0.0017589956
4	0xbb1a64ba	-0.0023558573
5	0x3e4ce748	0.20010102
6	0x3d0b1390	0.033954203
7	0xbea59d3a	-0.32346517
8	0xbe8e26de	-0.27764028
9	0x3cc11f65	0.02357454
10	0xbd0302fc	-0.031985268
11	0x3eba5ec5	0.36400428
12	0xbdc07b0e	-0.09398471
13	0x3e9162c9	0.2839568
14	0xbe9f1d5e	-0.31077093
15	0xbeb86551	-0.36014798
16	0xbd1f463d	-0.038885344
17	0xbe74423f	-0.23853396
18	0xbde9e5cd	-0.11420784
19	0x3d153781	0.036429886
20	0xbeaa1c90	-0.33224916
21	0x3e856ccb	0.26059565
22	0xbe6342a8	-0.22193396
23	0x3e951f4f	0.2912545
24	0x3dfebca9	0.12438328
25	0xbd92a76d	-0.0716084
26	0xbea98304	-0.3310777
27	0x3d747c51	0.05968887
28	0xbe5aa436	-0.21351704
29	0x3ea7fa55	0.32808176
30	0xbea19b3e	-0.31563753
31	0xbdc8c93e	-0.09804009
32	0xbe511260	-0.20417166
33	0xbe73ed9f	-0.23821114
34	0xbe4c3fe8	-0.19946253
35	0xbd0099eb	-0.031396788
36	0x3ceeb39e	0.029138383
37	0x3d75e1bb	0.060029726
38	0x3e45bb1e	0.19309661
39	0xbe2304c4	-0.15919787
40	0xbe747843	-0.23874001
41	0xbdae568c	-0.08512601
42	0x3ebb8edd	0.36632434
43	0xbd3b686d	-0.045753885
44	0xbea06108	-0.3132403
45	0x3e9cc57f	0.30619428
46	0x3dce894a	0.100847796
47	0x3d8dbab9	0.0692038
48	0x3d8540b3	0.06506481
49	0x3e84a5cd	0.25907746
50	0xbe1f88e1	-0.15579559
51	0x3e9098fe	0.28241724
52	0x3eb6ec9f	0.35727403
53	0xbdc6222d	-0.09674487
54	0x3e75f512	0.24019268
55	0x3e5b4f49	0.21416964
56	0x3eb07ef9	0.34471872
57	0xbdb011cf	-0.08597147
58	0xbe6406d8	-0.22268236
59	0xbe10787c	-0.14108461
60	0xbe88eaf1	-0.26741746
61	0x3c277922	0.010221751
62	0x3eb93050	0.36169672
63	0x3eb94be6	0.36190718
64	0x3e8e673b	0.27813134
65	0x3d191dd8	0.037381977
66	0x3c10be40	0.008834422
67	0x3e7a7c0d	0.24461384
68	0x3e64adcf	0.22331928
69	0xbd252b56	-0.04032453
70	0xbdcdbaf8	-0.10045427
71	0x3e1d5a03	0.15366368
72	0xbc3ef74d	-0.011655641
73	0xbe87bef0	-0.2651286
74	0xbe30da4d	-0.17270775
75	0x3ea1f7a3	0.31634244
76	0x3ea403cf	0.32034156
77	0xbe1cb75c	-0.15304321
78	0xbda04e6d	-0.078274585
79	0xbe3eb39d	-0.18623205
80	0xbdfc82c7	-0.12329631
81	0x3eaf4a58	0.34236407
82	0xbeab4cc8	-0.33457017
83	0x3e3d9c60	0.18516684
84	0xbeb12c1a	-0.3460396
85	0xbe38fdeb	-0.18065612
86	0xbd97177b	-0.073775254
87	0x3ce6edc0	0.02818954
88	0xbd5c098c	-0.053720042
89	0xbe293446	-0.16523847
90	0xbe2871d2	-0.16449669
91	0xbe679693	-0.22616033
92	0xbe893199	-0.26795653
93	0xbe715060	-0.23565817
94	0x3eb97794	0.36224043
95	0xbe378a11	-0.17923762
96	0xbea41ed2	-0.32054764
97	0x3e855aa1	0.26045707
98	0x3e18ae41	0.14910223
99	0x3e87934c	0.26479566
100	0xbec35682	-0.38151938
101	0xbeb739ec	-0.35786378
102	0xbe86040f	-0.2617497
103	0xbe4666c9	-0.19375147
104	0xb9083a8a	-0.00012991778
105	0x3e202f1a	0.15642968
106	0x3e5e9492	0.21736363
107	0xbea4e043	-0.32202348
108	0x3e16f6cd	0.14742585
109	0xbe678051	-0.22607543
110	0x3dab6472	0.08368768
111	0x3df80c1b	0.12111684
112	0x3d8c1c0a	0.068412855
113	0x3e0b3307	0.13593684
114	0xbc2e210e	-0.010627998
115	0x3e7af3e1	0.24507095
116	0x3db24a17	0.08705538
117	0x3eabdad1	0.3356538
118	0x3da7b005	0.0818787
119	0xbe4fad7a	-0.2028102
120	0x3e7f1f59	0.24914302
121	0x3d03e6de	0.032202594
122	0x3eb8baf5	0.36080137
123	0xbd183335	-0.03715821
124	0x3ec255e5	0.37956157
125	0xbe56ba58	-0.20969522
126	0x3e3845b1	0.17995335
127	0xbe93c7c8	-0.28863358
128	0x3e80749e	0.25088972
129	0x3d9198f0	0.07109249
130	0x3e56aac5	0.20963581
131	0xbeac5f90	-0.33666658
132	0xbec17914	-0.37787688
133	0x3e41d47a	0.1892871
134	0xbe2a808b	-0.16650598
135	0x3e1835ac	0.14864224
136	0xbe60a190	-0.21936631
137	0xbde50caa	-0.11184056
138	0x3aa6a6d0	0.0012714509
139	0x3e66589a	0.22494736
140	0x3e5895ba	0.21150866
141	0xbcce2163	-0.025162404
142	0xbdca386a	-0.098740414
143	0xbc74e607	-0.014947421
144	0x3e49e70b	0.19717042
145	0xbea1765c	-0.31535614
146	0xbde27b74	-0.11058703
147	0xbebe7f01	-0.3720627
148	0x3d35141a	0.044208623
149	0xbd5af5b0	-0.053456962
150	0x3e6254f1	0.22102715
151	0x3e95c65a	0.29252893
152	0xbea8b799	-0.32952574
153	0xbe2e8837	-0.1704415
154	0xbd91783b	-0.0710301
155	0x3b6ff117	0.0036612207
156	0xbda14c2b	-0.07875856
157	0xbe78a117	-0.24280201
158	0xbe0ba589	-0.13637365
159	0xbb030d2c	-0.0019996865
160	0x3e9d4f57	0.30724594
161	0xbdc24bc0	-0.094871044
162	0x3e7d8464	0.24757534
163	0xbe9bc1e7	-0.30421373
164	0x3c7505ae	0.014954967
165	0xbe986b98	-0.29769588
166	0xbeb663e3	-0.35623083
167	0x3d1c2b08	0.038126975
168	0xbe3099c7	-0.17246161
169	0x3e908709	0.28228024
170	0x3e9b9a64	0.30391228
171	0xbec1ea34	-0.37873995
172	0xbcbab953	-0.022793448
173	0xbd7e6da3	-0.062116276
174	0xbe554441	-0.20826818
175	0xbe83dc80	-0.25754166
176	0xbe2fbadc	-0.17161125
177	0x3e228f88	0.15875065
178	0x3dba634d	0.09100971
179	0x3e6370a7	0.22210942
180	0xbd06d94a	-0.032922067
181	0x3e43260c	0.19057482
182	0x3da011f6	0.07815926
183	0xbda94ad2	-0.08266224
184	0xbcbf6027	-0.023361279
185	0xbeac3786	-0.3363611
186	0xbba26b9d	-0.004956676
187	0xbdfaaa95	-0.12239567
188	0xbe023f6f	-0.1271951
189	0xbe22a599	-0.15883483
190	0xbd9dcb57	-0.077047996
191	0xbe8c3637	-0.27385113
192	0x3cbf7ff9	0.023376452
193	0xbbe72a11	-0.0070545753
194	0xbdca8d3c	-0.098902196
195	0x3ea942f7	0.33058903
196	0x3e80b649	0.25139073
197	0x3de40b3e	0.11134957
198	0xbe0f292c	-0.1398055
199	0x3d4100df	0.04711997
200	0xbe859443	-0.26089677
201	0x3e874086	0.26416415
202	0x3eb54f96	0.35412282
203	0xbd8263df	-0.06366705
204	0x3e986b32	0.29769284
205	0x3eb755eb	0.35807738
206	0xbcb6076e	-0.02222034
207	0xbe0f0ace	-0.13968965
208	0x3cc6ac71	0.024252148
209	0x3d8f7148	0.070040286
210	0xbeb09e2b	-0.34495673
211	0xbced9fb3	-0.029006815
212	0xbe0bfaab	-0.13669841
213	0x3e82337d	0.25429907
214	0xbc7b6faa	-0.015346447
215	0x3e78f332	0.24311522
216	0x3ead2c0b	0.33822665
217	0xbdea6c65	-0.11446456
218	0x3d9fb3e7	0.077979855
219	0xbd08db01	-0.033411983
220	0xbe28ff30	-0.16503596
221	0xbe5a81d9	-0.21338595
222	0x3b5a11f6	0.0033274866
223	0x3de75776	0.11295979

convs.0.nn.0.bias f4 [32]
0	0xbd8f9591	-0.070109494
1	0x3d88cf31	0.066801436
2	0x3e6db675	0.23214133
3	0x3e209e82	0.15685466
4	0x3e23cf83	0.15997128
5	0x3dcfb9a7	0.10142832
6	0xbe903773	-0.28167304
7	0xbe696884	-0.22793776
8	0xbe94c9c6	-0.2906019
9	0x3e789bdf	0.2427821
10	0xbea7a842	-0.32745558
11	0xbe91931d	-0.2843255
12	0x3e836020	0.25659275
13	0x3e639b14	0.22227126
14	0xbeb396e4	-0.35076058
15	0x3e57fd8f	0.21092819
16	0xbd9fdcc5	-0.0780578
17	0x3db0619f	0.0861237
18	0xbe7792ac	-0.24177045
19	0xbd56befc	-0.05242823
20	0x3db0e67f	0.08637714
21	0x3e8ebe27	0.2787945
22	0x3e74cda3	0.23906569
23	0xbe553da8	-0.20824301
24	0xbe7a3c4e	-0.24437067
25	0xbce946bb	-0.02847611
26	0x3dfa9a62	0.122364774
27	0x3e5ca9e1	0.21549179
28	0xbec15cee	-0.37766212
29	0xbcf6cb1d	-0.030126149
30	0x3c12449e	0.008927492
31	0xbe38a20c	-0.18030566

convs.0.nn.2.weight f4 [32, 32]
0	0x3e14ef11	0.14544322
1	0xbd376a82	-0.04477931
2	0xbe25c479	-0.1618823
3	0xbddf485b	-0.109024726
4	0x3c72ed8c	0.014827143
5	0xbe040b78	-0.12895
6	0x3d074aaa	0.03303019
7	0x3e2d8d69	0.16948475
8	0x3ac08464	0.0014687893
9	0xbd3f05fe	-0.046636574
10	0x3e32f13b	0.17474835
11	0x3e05c805	0.13064583
12	0x3e013019	0.12616004
13	0x3c9f67bd	0.019458646
14	0x3c328530	0.010896012
15	0xbe0a6732	-0.13515928
16	0x3ca08584	0.019594915
17	0x3e38cc97	0.18046795
18	0x3bb7f1b4	0.00561353
19	0xbe26cdc8	-0.16289437
20	0x3db3cb31	0.0877899
21	0x3e27458f	0.16335128
22	0x3e222060	0.15832663
23	0x3c56274d	0.0130708935
24	0x3d26fbec	0.040767595
25	0x3d02057c	0.03174351
26	0xbdacf2fc	-0.08444783
27	0xbc6f1a73	-0.014593708
28	0x3e148820	0.14505053
29	0x3ccd5bf3	0.025068259
30	0x3e35f46f	0.17769025
31	0xbde0adf9	-0.10970683
32	0xbc962fd9	-0.018333362
33	0x3b9ed180	0.0048467517
34	0xbddb1a2e	-0.10698353
35	0x3e0f9127	0.14020215
36	0x3e001536	0.12508091
37	0xbdcb9e18	-0.09942263
38	0x3e237a3b	0.15964596
39	0x3e2b4570	0.16725707
40	0xbdcd8204	-0.10034564
41	0x3aaca0ec	0.0013170517
42	0x3e34848c	0.17628688
43	0xbdeaaf61	-0.11459232
44	0xbcd48d08	-0.025946155
45	0xbe03f1c0	-0.12885189
46	0x3e03ffc3	0.12890534
47	0x3cf8f4ee	0.03039023
48	0x3da73ee8	0.08166295
49	0x3e099917	0.13437305
50	0xbcc68a68	-0.02423592
51	0xbe340950	-0.17581677
52	0x3c66542c	0.014058154
53	0xbbcefc79	-0.006316718
54	0x3d7ab0b2	0.061203666
55	0x3da7fa4a	0.08202036
56	0xbd9ec4d5	-0.077523865
57	0xbd832751	-0.064039834
58	0x3de72c7c	0.112877816
59	0x3d507b9d	0.050899137
60	0x3d2fdb9f	0.042934056
61	0x3db5b33b	0.08872076
62	0x3db10574	0.08643618
63	0xbe078a78	-0.13236415
64	0x3c5d01c3	0.01348919
65	0x3c86af6d	0.016441071
66	0xbe2dc526	-0.16969737
67	0x3d18ef44	0.037337556
68	0xbbba169c	-0.005678965
69	0x3e0e0de4	0.13872486
70	0xbe36be16	-0.1784595
71	0x3e295398	0.16535795
72	0xbdc05894	-0.09391895
73	0x3dd2a60f	0.102855794
74	0x3e0343de	0.12818858
75	0xbd0d7a01	-0.03454018
76	0xbdc3b04a	-0.09555109
77	0xbcfab326	-0.030603003
78	0xbde5b6d3	-0.112165116
79	0x3c8ceccb	0.017202755
80	0x3d95b67e	0.07310198
81	0x3d1d21b1	0.03836221
82	0xbdd0ee37	-0.10201686
83	0x3dbea1c6	0.093081996
84	0x3e20e589	0.1571256
85	0xbd5cf118	-0.053940862
86	0x3db39292	0.087681904
87	0xbc59cc06	-0.013293272
88	0x3da0b64b	0.078472696
89	0xbdfa99b6	-0.12236349
90	0xbe226348	-0.15858185
91	0xbc39f758	-0.011350475
92	0xbe1b381a	-0.1515812
93	0x3d91224d	0.070866205
94	0x3e245854	0.1604932
95	0xbd166f39	-0.036727164
96	0xbb824972	-0.0039760405
97	0x3cda94af	0.026682226
98	0xbdaae46f	-0.083443515
99	0xbbd5b925	-0.006522315
100	0x3d1f5d0a	0.03890709
101	0x3e13799c	0.14401859
102	0xbe16416c	-0.14673394
103	0xba1b153e	-0.0005915946
104	0xbe123e7d	-0.1428165
105	0xbc879643	-0.016551143
106	0xbc360253	-0.011108953
107	0xbda07368	-0.07834512
108	0x3ddb4e9a	0.107083514
109	0x3df9cfa8	0.121978104
110	0xbd905a1c	-0.07048437
111	0xbce82aa0	-0.028340638
112	0xbd72cb89	-0.059276138
113	0xb9062cd7	-0.0001279594
114	0x3d785f82	0.06063796
115	0x3e2a70d2	0.166446
116	0xbe24f74e	-0.16109964
117	0x3d8cb9d9	0.06871385
118	0xbde7214e	-0.11285649
119	0xbe19469c	-0.14968342
120	0x3e098e64	0.13433224
121	0xbd55c6a1	-0.05219138
122	0xbdc7578c	-0.09733495
123	0x3d2e58d5	0.042565186
124	0xbd15d2b8	-0.03657791
125	0xbe2629db	-0.16226904
126	0xbdc6112a	-0.096712425
127	0xbda3512e	-0.07974468
128	0xbc1004ff	-0.008790254
129	0xbdf887e5	-0.12135295
130	0xbe32c276	-0.17456993
131	0x3dcd9e32	0.10039939
132	0xbe1a912f	-0.15094446
133	0xbc9cf8ae	-0.019161548
134	0x3e108483	0.14113049
135	0xbd8015a1	-0.062541254
136	0xbe018e64	-0.12651974
137	0x3d4ad19e	0.049516313
138	0x3e1f809f	0.15576409
139	0xbcfdfc71	-0.031004163
140	0xbc6f2b0c	-0.0145976655
141	0x3d9fcf61	0.07803226
142	0x3caf5715	0.021403829
143	0x3d019dcb	0.031644624
144	0x3dc67bf6	0.096916124
145	0x3dad8340	0.084722996
146	0xbe00a366	-0.12562332
147	0xbd8fbffb	-0.07019039
148	0x3df35cac	0.1188291
149	0x3cdba660	0.026812732
150	0x3d21b3a0	0.039477944
151	0x3e303155	0.17206319
152	0x3df100fa	0.117677644
153	0x3d90d0ed	0.070710994
154	0x3e25fc83	0.16209607
155	0xbe21747d	-0.15767093
156	0x3cbd8bcd	0.023137951
157	0x3d6189e4	0.055063143
158	0xbd081319	-0.033221338
159	0xbda92c06	-0.0826035
160	0x3cea0b92	0.02856997
161	0xbe16ea63	-0.14737849
162	0xbd97b034	-0.07406655
163	0x3e090bd6	0.13383421
164	0xbd815aba	-0.06316133
165	0xbd5b1de8	-0.053495318
166	0x3db9de49	0.09075601
167	0xbd3a4984	-0.045480266
168	0x3d1021f6	0.035188638
169	0xbe365943	-0.17807488
170	0x3dcfec49	0.1015249
171	0xbe1742c1	-0.14771558
172	0x3cbf8841	0.0233804
173	0xbe2cfe75	-0.16893943
174	0xbe17a8ff	-0.1481056
175	0x3e19a1c2	0.15003112
176	0xbdd0ba71	-0.10191811
177	0xbc0db369	-0.008648732
178	0x3bfcff26	0.0077208458
179	0x3e282b92	0.16422871
180	0x3d7ab092	0.061203547
181	0x3da804ef	0.08204066
182	0xbd9563d2	-0.0729443
183	0xbd71aafe	-0.05900096
184	0x3df7b0f0	0.12094295
185	0x3d7999d1	0.060937706
186	0x3d5670d2	0.052353688
187	0xbe0190a6	-0.12652835
188	0xbe09e003	-0.1346436
189	0x3cdc29da	0.026875425
190	0xbe06cfce	-0.13165209
191	0x3dfda119	0.123842426
192	0x3e176c67	0.14787446
193	0xbd901b37	-0.07036441
194	0xbdea6315	-0.1144468
195	0x3e309022	0.17242482
196	0xbdc267a8	-0.09492427
197	0xbe11b758	-0.14230096
198	0xbe0b8687	-0.13625537
199	0x3cf9f586	0.030512583
200	0x3ce6104d	0.028083945
201	0x3dec6e93	0.11544528
202	0x3e10d570	0.1414392
203	0x3d999e5d	0.075009085
204	0x3cc11e6c	0.023574077
205	0x3e226ffe	0.15863034
206	0xbd9c4262	-0.07629849
207	0xbd118edb	-0.03553663
208	0x3e1a22e4	0.15052372
209	0xbd6be538	-0.057591647
210	0x3dc5940c	0.09647378
211	0x3d1158fa	0.035485245
212	0x3d792d1e	0.060834043
213	0xbd17b3c9	-0.03703669
214	0xbe1ab9cf	-0.15109943
215	0x3e0221e1	0.12708236
216	0x3e1ae23b	0.15125363
217	0xbe0bddea	-0.13658872
218	0xbdb385a5	-0.08765725
219	0x3b99aae8	0.004689563
220	0x3dae3fda	0.085082725
221	0xbc948f79	-0.01813482
222	0xbd9eccd5	-0.07753912
223	0x3e0af163	0.13568644
224	0xbdb0a533	-0.08625259
225	0x3e1d48e9	0.15359844
226	0x3b0d1c7c	0.002153187
227	0x3dc6e463	0.0971153
228	0x3d1d7402	0.03844071
229	0x3cf284d5	0.029604355
230	0x3e06a76e	0.13149807
231	0xbbab8a43	-0.005234988
232	0x3e05f61f	0.13082169
233	0x3d73cd0c	0.05952172
234	0xbdc79889	-0.09745891
235	0x3dcb5edd	0.09930203
236	0xbe01a197	-0.12659298
237	0x3db92b7e	0.090414986
238	0xbd1a207a	-0.03762863
239	0x3d5d100a	0.053970374
240	0xbca2dc56	-0.019880455
241	0x3d162e37	0.036665168
242	0xbd525c45	-0.051357526
243	0x3d9a4460	0.07532573
244	0x3da695b6	0.08134024
245	0xbe2baacd	-0.16764374
246	0x3e215961	0.15756752
247	0xbe140e60	-0.14458609
248	0xbd925ed8	-0.07146996
249	0x3d88989a	0.066697314
250	0x3e2863b4	0.16444284
251	0x3d5f9b2d	0.054591347
252	0xbdc51180	-0.096224785
253	0x3d1f635e	0.038913123
254	0xbdd72d36	-0.1050667
255	0x3dac31ba	0.08407922

convs.0.nn.2.bias f4 [32]
0	0x3def92bb	0.116979085
1	0xbce1f7cd	-0.027583981
2	0xbe2c4e35	-0.16826709
3	0xbcd4e08e	-0.025985982
4	0x3c6bcfed	0.014392835
5	0x3d2e1d67	0.04250851
6	0x3d6f5130	0.058427036
7	0xbccf6934	-0.02531872
8	0xbc4366f4	-0.011926401
9	0xbd18fd0c	-0.0373507
10	0x3d8b272b	0.0679458
11	0x3d19c806	0.037544273
12	0x3d8ce2a8	0.06879169
13	0xbc8e1dce	-0.017348196
14	0xbc345d9f	-0.011008649
15	0x3df8050c	0.121103376
16	0x3c9070f8	0.017631993
17	0xbe1fad83	-0.15593533
18	0x3d3ab706	0.0455847
19	0x3e1e4d64	0.1545921
20	0xbd058d6f	-0.032605585
21	0x3de6f32e	0.112768516
22	0xbe0b023f	-0.13575076
23	0xbce8a31c	-0.02839809
24	0x3de738f7	0.11290162
25	0xbdbeb8f6	-0.09312622
26	0xbd1ecf3a	-0.038771845
27	0xbb095afa	-0.0020958767
28	0xbd0af096	-0.033920847
29	0xbd49a912	-0.049233504
30	0x3e0e2f43	0.13885216
31	0xbcd03ffc	-0.025421135

convs.1.nn.0.weight f4 [32, 32]
0	0x3e292f7d	0.16522022
1	0xbda94958	-0.08265942
2	0xbdf1494f	-0.11781561
3	0x3d771a5d	0.060327876
4	0xbcc4d087	-0.024025215
5	0xbdeebb0d	-0.11656771
6	0xbe2ea780	-0.17056084
7	0x3e08c0bb	0.13354771
8	0xbdd235fe	-0.102642044
9	0x3e24c9a6	0.16092548
10	0xbdeae92c	-0.11470255
11	0x3dc0f158	0.09421033
12	0xbd8c832a	-0.06860955
13	0x3dfad2ff	0.122472756
14	0x3e3352b0	0.17512012
15	0x3e132b65	0.14372022
16	0xbdac5688	-0.08414942
17	0xbd3362f9	-0.04379556
18	0xbdf93f72	-0.12170304
19	0xbcd0ebeb	-0.02550312
20	0x3d25fec0	0.04052615
21	0x3df36338	0.11884159
22	0xbda693a4	-0.08133629
23	0x3df1331c	0.117773265
24	0xbd2931c6	-0.041307233
25	0x3c033cff	0.008010148
26	0xbde42104	-0.1113911
27	0x3d2b911f	0.041886445
28	0x3cf9880e	0.030460384
29	0x3df61f8f	0.12017738
30	0x3e028490	0.12745881
31	0x3e19fbb1	0.15037419
32	0x3ddbae13	0.107265614
33	0xbbbd8487	-0.0057836208
34	0x3dd1e216	0.102482006
35	0x3dfd731d	0.12375472
36	0x3e001aeb	0.12510268
37	0x3dd410ce	0.10354768
38	0xbd560d08	-0.05225852
39	0x3c5c2559	0.013436639
40	0xbd85321c	-0.06503698
41	0x3db4c07e	0.088257775
42	0xbd320afb	-0.043467503
43	0xbe3b4e29	-0.18291534
44	0xbd921c61	-0.07134319
45	0xbe09d81d	-0.13461347
46	0x3cef61f5	0.029221514
47	0x3e0a22d1	0.13489844
48	0xbc8956af	-0.016764967
49	0xbda31707	-0.079633765
50	0xbd583403	-0.052783977
51	0xbe18ce7b	-0.14922516
52	0x3db386d9	0.087659545
53	0x3ddd91a1	0.10818792
54	0xbe04aa20	-0.12955523
55	0x3dfdf5df	0.12400412
56	0x3d750354	0.059817627
57	0xbe21edb5	-0.15813334
58	0x3dcb438e	0.099249944
59	0xbc65a781	-0.014016987
60	0xbdcc77fe	-0.09983824
61	0x3d9fb0fe	0.077974305
62	0xbdc81db9	-0.09771294
63	0x3cd9c591	0.026583465
64	0x3e3112e6	0.17292365
65	0x3dcb26fa	0.099195436
66	0x3de12eef	0.1099528
67	0xbdc41366	-0.095740125
68	0xbdcc5b69	-0.099783726
69	0x3d6a76d0	0.057242215
70	0x3a9677b0	0.0011479761
71	0x3e025693	0.12728338
72	0x3e1cbbb0	0.15305972
73	0x3e152bc8	0.14567482
74	0x3d63bcab	0.05559985
75	0xbded5b82	-0.11589719
76	0x3c75220d	0.014961732
77	0x3ca1792a	0.019711096
78	0xbddddbe4	-0.108329564
79	0xbcb32a59	-0.021870779
80	0x3cb95dfb	0.022627821
81	0xbdfdf995	-0.124011196
82	0x3c7ec679	0.015550249
83	0xbe235c25	-0.15953119
84	0x3db64d25	0.08901433
85	0xbdbe3c36	-0.09288828
86	0x3d874a95	0.06606022
87	0xbcc43e8b	-0.023955604
88	0xbdda908b	-0.10672101
89	0x3d385334	0.045001224
90	0xbe081a0b	-0.13291185
91	0x3ddbed62	0.107386366
92	0x3c644d93	0.013934511
93	0x3d1acfec	0.037795946
94	0x3de3ea5c	0.11128685
95	0x3df50bb5	0.119651236
96	0x3e105a7f	0.14097022
97	0x3df12c74	0.11776057
98	0xbcf89fee	-0.030349698
99	0xba253631	-0.00063023256
100	0xbe1ef228	-0.15522063
101	0x3d1c6e43	0.03819109
102	0x39816f49	0.0002468771
103	0x3e043a1f	0.12912796
104	0x3e0315ce	0.12801287
105	0xbcea942e	-0.02863511
106	0xbdb1e43a	-0.08686109
107	0x3df429db	0.11922046
108	0x3d14b081	0.03630114
109	0xbdb9fe92	-0.090817586
110	0xbdeb3ebd	-0.11486576
111	0xbe2f815f	-0.17139195
112	0x3da4aab9	0.08040375
113	0x3d8570e6	0.06515674
114	0x3d6c4572	0.057683416
115	0x3dbcce45	0.0921903
116	0xbdcecec0	-0.10098028
117	0x3e30e660	0.17275381
118	0x3dbf7e30	0.0935024
119	0x3d6cd7d4	0.057823017
120	0xbd050e70	-0.03248447
121	0xbe1fe1ed	-0.15613528
122	0x3d1f7d30	0.038937747
123	0x3d06da56	0.032923065
124	0x3cf42460	0.029802501
125	0x3db0693a	0.086138204
126	0xbdada1a4	-0.08478096
127	0x3e22adb6	0.15886578
128	0x3c15eb46	0.009150332
129	0xbe22e4dc	-0.15907615
130	0xbd9e04a1	-0.07715727
131	0x3d362488	0.044468433
132	0x3e0145bb	0.12624256
133	0xbd9aa265	-0.075505055
134	0xbda18d87	-0.07888322
135	0xbc8589ef	-0.016301123
136	0xbe2cf50e	-0.16890356
137	0xbd6d6bcf	-0.057964142
138	0xbdd8cc6b	-0.10585865
139	0x3e1c015d	0.15234895
140	0xbddda368	-0.10822183
141	0xbcb78077	-0.022400124
142	0x3e08e8cd	0.13370056
143	0xbd1b40b3	-0.0379035
144	0x3e137eb6	0.14403805
145	0xbdbc3678	-0.091900766
146	0xbc8a4b5d	-0.01688164
147	0x3bf9b857	0.007620852
148	0xbe0adf27	-0.13561688
149	0x3dd5e0bd	0.10443256
150	0xbb884f2e	-0.0041598296
151	0xbe35abca	-0.17741314
152	0x3d882c39	0.0664906
153	0xbd8f6f87	-0.07003694
154	0xbdc33f35	-0.0953354
155	0x3d8fbc9a	0.07018395
156	0x3d42b8e4	0.047539607
157	0xbdde71f5	-0.10861579
158	0x3d79a41a	0.060947515
159	0x3cc41717	0.023936791
160	0xbd70393c	-0.058648333
161	0x3df2d333	0.11856689
162	0xbba1d8b5	-0.0049391636
163	0x3da45354	0.08023706
164	0xbd1cf82e	-0.03832262
165	0x3d7d7299	0.061876867
166	0x3d24f677	0.04027411
167	0x3e0e72d8	0.13910997
168	0xbe20a3cd	-0.15687485
169	0xbd1cf3e6	-0.038318537
170	0x3dc4c74d	0.09608326
171	0xbda35a82	-0.07976247
172	0xbe054ac1	-0.13016798
173	0x3df033e5	0.11728648
174	0x3dbc5efa	0.09197803
175	0x3e250de3	0.16118579
176	0x3d8f4d24	0.06997135
177	0xbd3a4902	-0.045479782
178	0xbe0a0d76	-0.13481697
179	0xbde587e6	-0.11207561
180	0x3d563c60	0.05230367
181	0xbd0b8961	-0.03406656
182	0x3e2c9d5c	0.16856903
183	0x3de903b8	0.113776624
184	0x3c9e3555	0.01931254
185	0x3e2f32a1	0.17109157
186	0x3caa745e	0.020807441
187	0x3d1e3031	0.038620178
188	0x3e32c9ed	0.17459841
189	0xbca4a27e	-0.020097014
190	0x3d70619e	0.058686845
191	0xbc196a37	-0.0093637025
192	0x3e2dd50e	0.16975805
193	0x3da26184	0.07928756
194	0xbd2d7087	-0.042343643
195	0xbe1fedf9	-0.15618123
196	0x3cc50dab	0.024054369
197	0xbb387ecc	-0.0028151749
198	0x3da0e5b8	0.078563154
199	0x3d7bc0da	0.061463214
200	0xbe22d3fc	-0.15901178
201	0xbe0df4a2	-0.13862851
202	0xbd35af20	-0.044356465
203	0xbe1beb2f	-0.15226434
204	0x3c3a8ff0	0.011386856
205	0x3dc1f1d8	0.09469956
206	0x3e2da95e	0.1695914
207	0xbc2f0e38	-0.010684542
208	0xbe0b600e	-0.1361086
209	0x3df14777	0.11781209
210	0xbdfa0230	-0.122074485
211	0x3dfb724b	0.12277659
212	0xbd919d97	-0.07110136
213	0xbdacec21	-0.084434755
214	0x3de5a2ef	0.11212718
215	0x3d508d72	0.050916143
216	0xbd59ea93	-0.053202223
217	0x3dd9c35f	0.10632967
218	0xbe1facdc	-0.15593284
219	0xbd342cd2	-0.043988056
220	0xbdc331dd	-0.09530995
221	0xbe05ee93	-0.1307929
222	0xbe2ad711	-0.16683604
223	0xbde24c80	-0.110497475
224	0x3d55d83d	0.052208174
225	0xbdc46546	-0.09589629
226	0x3e170fa7	0.14752065
227	0xbcf23064	-0.02956409
228	0x3d14c16d	0.036317278
229	0x3e0bcf6f	0.13653348
230	0x3d0cdce5	0.03439035
231	0xbde0d87f	-0.10978793
232	0xbd040889	-0.032234702
233	0xbcf660aa	-0.03007539
234	0xbd9ae007	-0.07562261
235	0x3d02ebf3	0.0319633
236	0xbe1119a1	-0.14169933
237	0x3d3571c6	0.044297956
238	0xbdec01e4	-0.11523798
239	0x3e09cf3d	0.13457961
240	0xbc79cfd8	-0.015247308
241	0xbe192f72	-0.14959505
242	0xbe04ea53	-0.12980013
243	0xbe1ab33a	-0.15107432
244	0x3c7db2a6	0.015484488
245	0x3c205bcb	0.00978751
246	0xbdaedda0	-0.08538365
247	0xbdaaada4	-0.083339006
248	0xbe0294f5	-0.12752135
249	0xbdd120fe	-0.10211371
250	0xbd7a923b	-0.061174612
251	0xbddb00c0	-0.106935024
252	0x3d877f8f	0.06616127
253	0x3d97fea9	0.074216194
254	0xbd8721a6	-0.06598215
255	0x3c17f698	0.009275101

convs.1.nn.0.bias f4 [32]
0	0xbd2003ac	-0.039066
1	0x3d857552	0.06516518
2	0x3cfeb8e4	0.031094022
3	0x3d1f1a92	0.0388437
4	0x3e0b6248	0.1361171
5	0xbdca7db1	-0.09887255
6	0xbc65401e	-0.0139923375
7	0x3e134fb5	0.14385875
8	0xbc8cec55	-0.017202536
9	0x3c7a21e3	0.015266868
10	0x3dd759b0	0.105151534
11	0x3c15f77e	0.009153245
12	0xbc8a4cd3	-0.016882336
13	0x3dcde3e3	0.100532316
14	0x3d88d85a	0.06681891
15	0xbe368c97	-0.17827068
16	0x3d9d4562	0.07679249
17	0xbce5fe6d	-0.028075421
18	0x3d092e08	0.033491164
19	0x3c869b23	0.016431397
20	0x3ded1024	0.11575344
21	0xbe213e7e	-0.15746495
22	0x3d88cca9	0.06679661
23	0x3dc34294	0.09534183
24	0xbe02a703	-0.12759022
25	0xbc8b79f9	-0.017025935
26	0x3dbb44cf	0.091439836
27	0x3cf4feb3	0.029906606
28	0x3df4406a	0.119263485
29	0x3e0ec0f0	0.13940787
30	0x3e18ce35	0.14922412
31	0x3e331335	0.17487796

convs.1.nn.2.weight f4 [32, 32]
0	0x3e2b74f8	0.16743839
1	0xbca269f1	-0.019825907
2	0xbd0ad104	-0.03389074
3	0xbdf56c03	-0.11983492
4	0xbd1cc5f5	-0.038274724
5	0x3d365cf2	0.044522233
6	0x3dc57a39	0.09642453
7	0x3c9e0464	0.019289203
8	0x3dd11e22	0.102108255
9	0x3e2b8b1e	0.16752288
10	0x3df92dc1	0.1216693
11	0x3d10b369	0.03532735
12	0xbc1796a4	-0.009252224
13	0xbdfff5a7	-0.12498026
14	0x3ddbdc9f	0.107354395
15	0xbd949c6a	-0.07256396
16	0x3b519182	0.0031977599
17	0x3e180882	0.14846995
18	0x3e3292d1	0.17438819
19	0xbc26d2bb	-0.010182078
20	0x3e02ee49	0.12786211
21	0x3e129923	0.1431623
22	0xbdd6db2a	-0.10491021
23	0xbd03880d	-0.03211217
24	0x3d8d55ea	0.069011524
25	0x3ded0947	0.11574035
26	0xbe06b816	-0.1315616
27	0xbd98fb14	-0.07469764
28	0x3e0d085b	0.13772719
29	0x3e0fc24f	0.14038967
30	0xbd8ec0c4	-0.06970361
31	0x3ddad365	0.106848516
32	0x3cd6a2bf	0.02620065
33	0xbdaf9294	-0.085728794
34	0x3d95c3ab	0.07312711
35	0x3e075f05	0.13219841
36	0xbdf75ce8	-0.12078267
37	0xbdf432f1	-0.11923779
38	0x3dfed6dd	0.12443326
39	0xb9e59be6	-0.00043794437
40	0x3dbd66e9	0.09248144
41	0xbe1a0f4b	-0.15044896
42	0xbe17bf23	-0.14819007
43	0x3dfa1dda	0.12212725
44	0x3ba1e6ab	0.004940828
45	0x3b8cd7bf	0.00429818
46	0xbda41e0c	-0.080135435
47	0x3dcf791f	0.10130524
48	0x3d035133	0.03205986
49	0xbe3afdb2	-0.1826084
50	0x3db17c03	0.086662315
51	0x3c5debab	0.013544957
52	0xbd9e8c5d	-0.07741616
53	0x3df82df8	0.12118143
54	0x3d846d24	0.064661294
55	0x3d9125f7	0.07087319
56	0xbe0f9772	-0.14022616
57	0x3dce6c78	0.100792825
58	0xbe195cbc	-0.14976782
59	0xbd8aa14b	-0.067690454
60	0x3d6483ca	0.055789746
61	0xbdcaf273	-0.09909525
62	0x3dc3479c	0.09535143
63	0x3dbc7a77	0.09203046
64	0x3d1085c6	0.035283826
65	0x3e055e2d	0.13024206
66	0x3b68649e	0.0035460363
67	0xbd5b4acf	-0.05353814
68	0x3df2c3c8	0.118537486
69	0x3c120273	0.008911717
70	0xbdb84a0f	-0.089985006
71	0xbd8888d3	-0.06666722
72	0x3d7badce	0.06144505
73	0xbc22f29d	-0.009945539
74	0xbc9aedc1	-0.018912198
75	0x3d8ecb21	0.069723375
76	0xbe23b708	-0.1598779
77	0xbd54d657	-0.051962223
78	0xbe2238ec	-0.15842026
79	0x3c622e44	0.013804976
80	0x3d8b368c	0.06797513
81	0x3d1c2060	0.038116813
82	0x3cd347fe	0.025791164
83	0x3d668985	0.056283493
84	0x3d365951	0.044518773
85	0x3d5b1ed7	0.053496208
86	0xbd76fc57	-0.060299244
87	0x3e2c9bdd	0.16856332
88	0xbd62ad2a	-0.055340923
89	0x3da647b2	0.081191435
90	0x3e3240f3	0.17407589
91	0x3d0f8d71	0.035047
92	0xbdbe846e	-0.09302603
93	0xbd21bdb0	-0.03948754
94	0xbe1b6c31	-0.1517799
95	0xbde3f23e	-0.111301884
96	0x3c98a088	0.018631235
97	0x3e19df06	0.15026483
98	0xbd0c0da1	-0.034192685
99	0xbbe1bf46	-0.0068892566
100	0x3c641747	0.013921565
101	0xbdba8bfb	-0.091087304
102	0xbdac952a	-0.08426888
103	0xbe08c91c	-0.13357967
104	0xbc3cad67	-0.011515952
105	0x3d5cf61f	0.053945657
106	0x3e022e4b	0.12712972
107	0xbe34af94	-0.17645103
108	0x3dc418a7	0.095750146
109	0xbe11f7b3	-0.14254646
110	0x3dabdf82	0.0839224
111	0xbdf3ca55	-0.11903826
112	0xbde06ef3	-0.10958662
113	0xbe13a452	-0.14418152
114	0x3e182af4	0.14860135
115	0xbe0e7bbc	-0.13914388
116	0x3df1b98d	0.11802969
117	0x3e16e40e	0.14735433
118	0xbde75631	-0.112957366
119	0x3e01da91	0.12681033
120	0x3e2afcd6	0.16698012
121	0xbe2b1fc8	-0.16711342
122	0xbded97ac	-0.11601195
123	0x3e061e1a	0.1309742
124	0xbdd392e2	-0.1033075
125	0x3ded7dd0	0.115962625
126	0xbdd20e68	-0.10256654
127	0xbd00b933	-0.03142662
128	0xbddb5934	-0.107103735
129	0x3d13a2ea	0.03604404
130	0xbdc90cd6	-0.098169014
131	0xbdb85406	-0.09000401
132	0x3d13fe73	0.036131334
133	0xbbe93048	-0.0071163513
134	0xbb481656	-0.0030530891
135	0xbda3bfe8	-0.079955876
136	0x3dd4edca	0.10396917
137	0x3e311113	0.1729167
138	0x3de84ee4	0.11343172
139	0xbe09d70a	-0.13460937
140	0xbe0d8eb5	-0.1382397
141	0xbde491e8	-0.11160642
142	0x3c55fec7	0.013061232
143	0xbc86943d	-0.016428107
144	0x3cf44f41	0.029822947
145	0x3d80d960	0.06291461
146	0x3deafe23	0.11474254
147	0x3dc3c2a1	0.09558607
148	0x3d5a7c59	0.053341243
149	0xbd6836d6	-0.05669292
150	0xbc67ebc6	-0.014155334
151	0xbd5bdbfd	-0.053676594
152	0xbdf44260	-0.119267225
153	0xbcef9068	-0.029243663
154	0xbe222846	-0.15835676
155	0x3e07d51f	0.13264893
156	0x3e08d1e2	0.13361314
157	0x3ca7c1a8	0.020478085
158	0xbdde6631	-0.10859335
159	0xbd3619a4	-0.044458047
160	0x3d3b6377	0.045749154
161	0x3e172b7a	0.14762679
162	0x3e1d7ba2	0.15379193
163	0x3d7edf63	0.062224757
164	0x3da79348	0.081823885
165	0xbd517be7	-0.051143553
166	0xbde03776	-0.10948078
167	0xbda5bf16	-0.080930874
168	0xbd8947f4	-0.06703177
169	0x3d0278bb	0.03185342
170	0x3c57d825	0.0131740915
171	0x3df06261	0.11737514
172	0x3e1f1099	0.15533675
173	0xbdf1f24c	-0.118137926
174	0x3db13252	0.08652176
175	0xbd6769a0	-0.056497216
176	0x3dcc156e	0.09965025
177	0xbe20c684	-0.15700728
178	0xbd4cac9f	-0.04996931
179	0x3de01058	0.10940617
180	0xbcfba8d4	-0.030720152
181	0xbdb8aebb	-0.09017702
182	0x3e0ad636	0.13558277
183	0xbdeb3515	-0.11484734
184	0xbde67bba	-0.11254068
185	0xbc7a5c18	-0.015280746
186	0x3dc5dcb2	0.09661235
187	0xbdeed46e	-0.116616115
188	0x3e014b02	0.1262627
189	0xbe27b079	-0.16375913
190	0x3e133138	0.14374244
191	0xbdffe6e5	-0.124952115
192	0x3c1f6a6f	0.009729966
193	0xbdf39db9	-0.118953176
194	0xbe15a9aa	-0.14615503
195	0x3e321bf9	0.17393483
196	0x3d93f850	0.07225096
197	0xbe1867df	-0.14883374
198	0xbe1feecc	-0.15618438
199	0xbc1932bc	-0.009350475
200	0x3ded0c18	0.11574572
201	0x3dc34f6d	0.09536634
202	0x3be74332	0.007057571
203	0x3cc796eb	0.024363955
204	0xbe06f5cf	-0.13179706
205	0x3dd78ef3	0.10525312
206	0xbc99942e	-0.018747415
207	0xbe122bfa	-0.14274588
208	0xbe0808ac	-0.13284558
209	0xbd1eee32	-0.03880138
210	0xbdda6111	-0.10663045
211	0xbd701dc2	-0.05862213
212	0x3e31cff3	0.17364483
213	0x3c1dc07b	0.00962841
214	0xbdc46914	-0.095903546
215	0x3e0e70e3	0.1391025
216	0x3e24a9ec	0.16080445
217	0x3c65d424	0.014027629
218	0xbaf3583f	-0.0018565728
219	0x3cd1f4f7	0.025629504
220	0xbd1c3be9	-0.038143072
221	0x3d0969f1	0.0335483
222	0x3d6622db	0.056185585
223	0x3e0ba2c3	0.13636307
224	0x3da39a5b	0.07988425
225	0x3cf0c59e	0.029391106
226	0xbc93e722	-0.018054549
227	0x3e08db12	0.13364819
228	0x3d90b667	0.070660405
229	0x3d56ef0a	0.05247406
230	0x3ded3a25	0.11583356
231	0x3d058bd4	0.032604054
232	0xbd49b1af	-0.049241718
233	0x3d38ae48	0.045088083
234	0xbdb9e42c	-0.090767235
235	0x3dd30b19	0.10304851
236	0xbd58f12a	-0.052964367
237	0x3d113c93	0.03545816
238	0x3d3da762	0.046302207
239	0xbe0bf21d	-0.13666578
240	0xbe1cb063	-0.15301661
241	0x3dee21e8	0.11627561
242	0xbe3b22a2	-0.1827493
243	0xbd73f97c	-0.0595641
244	0x3dc28d4b	0.09499606
245	0x3d21aa6a	0.03946916
246	0x3e295668	0.16536868
247	0xbe37fb8d	-0.17967053
248	0x3d70f0cb	0.058823388
249	0xbd7f798d	-0.06237178
250	0x3d8de9da	0.06929369
251	0x3df8ac4e	0.121422395
252	0x3df4af3d	0.119474865
253	0xbe35c34e	-0.17750284
254	0xbd8b7cf7	-0.068109445
255	0x3defd073	0.117096804

convs.1.nn.2.bias f4 [32]
0	0x38fbd1fe	0.00012007727
1	0xbe084088	-0.13305867
2	0x3d2b5724	0.04183115
3	0xbb9f7170	-0.0048658177
4	0x3d08be36	0.033384524
5	0xbde1f8d7	-0.110337906
6	0x3bd4c53e	0.0064932397
7	0xbdfbeb5b	-0.1230075
8	0x3e2aab80	0.16666985
9	0xbe061f75	-0.13097937
10	0xbe1a6311	-0.15076853
11	0x3d982e1d	0.074306704
12	0x3b7f2244	0.0038930336
13	0xbd1dcc9b	-0.038525205
14	0x3db8bf1f	0.090208285
15	0x3e048c77	0.12944208
16	0x3e1cddd6	0.15318999
17	0xbc61ee4a	-0.013789723
18	0xbc0c4205	-0.008560662
19	0x3de13f89	0.109984465
20	0x3e3169cc	0.17325515
21	0xbd06a289	-0.03286985
22	0xbcd37153	-0.025810873
23	0xbc379dcd	-0.011207056
24	0x3cbfd85c	0.023418598
25	0xbded801f	-0.11596703
26	0x3e256802	0.16152957
27	0xbc58f975	-0.013243069
28	0x3d93bd9f	0.07213902
29	0x3e24ecdf	0.16105984
30	0x3db03ef8	0.0860576
31	0xbd8ce2fa	-0.0687923

convs.2.nn.0.weight f4 [32, 32]
0	0xbe268ff6	-0.16265854
1	0xbc67d91c	-0.014150884
2	0x3e2faf36	0.17156681
3	0x3e27e25b	0.16394942
4	0xbd1edfb1	-0.038787547
5	0x3bd352ce	0.00644908
6	0xbe0ed0c2	-0.13946822
7	0x3c4a88e2	0.012361737
8	0x3d95ecdd	0.07320569
9	0x3cf073b2	0.029352043
10	0xbd916bf0	-0.071006656
11	0xbe2c6d50	-0.16838574
12	0x3c5e50e8	0.013569094
13	0xbe0cdb29	-0.13755478
14	0x3d3e0737	0.0463936
15	0xbe15d465	-0.14631803
16	0x3de4fad4	0.11180654
17	0xbe20b7d3	-0.15695123
18	0x3d129642	0.03578783
19	0x3d9438e2	0.07237412
20	0x3e1c7211	0.15277888
21	0x3e272c4b	0.1632549
22	0xbb32c3d4	-0.0027277367
23	0x3deb55ca	0.11490972
24	0xbd0b7f01	-0.034056667
25	0x3de2d944	0.110765964
26	0x3e1501b4	0.14551431
27	0xbd978458	-0.073982894
28	0x3d9f031c	0.07764265
29	0xbd49ee7e	-0.04929971
30	0x3da6e7c7	0.08149677
31	0x3e24e3fd	0.16102596
32	0xbe2fbbf7	-0.17161547
33	0xbdee45f1	-0.11634434
34	0xbe1ddd0f	-0.15416358
35	0xbe04fbf4	-0.12986737
36	0x3dfb4b7b	0.12270256
37	0x3d9ff774	0.0781087
38	0xbddad2b2	-0.10684718
39	0x3d7b3667	0.06133118
40	0x3e0ae8f0	0.13565421
41	0xbde9c80c	-0.11415109
42	0x3d925812	0.07145704
43	0xbda73311	-0.08164037
44	0x3d16b38b	0.03679232
45	0xbe216cf2	-0.15764216
46	0xbda7f173	-0.0820035
47	0x3d22fccc	0.039791867
48	0xbe09625b	-0.13416426
49	0xbda5ac77	-0.08089536
50	0x3dbce267	0.0922287
51	0xbdc58f01	-0.096464165
52	0x3e09fe8e	0.13476011
53	0x3d3c5f19	0.04598913
54	0x3d90af02	0.0706463
55	0x3da23558	0.07920331
56	0xbd84d5ca	-0.064860895
57	0xbe160ed2	-0.14654091
58	0xbe13ecbc	-0.14445776
59	0xbe10db07	-0.14146052
60	0xbdb0594c	-0.08610782
61	0x3d4a3587	0.049367454
62	0xbe099d68	-0.13438952
63	0xbdf195b2	-0.1179613
64	0x3d810ce7	0.06301289
65	0xbcb6fdbc	-0.022337787
66	0x3d9ff5c1	0.07810546
67	0x3ce3f91d	0.027828747
68	0xbbefac64	-0.0073142517
69	0xbe1708e0	-0.1474948
70	0x3d90a215	0.07062165
71	0x3d39f91d	0.04540359
72	0xbdbb7917	-0.091539554
73	0x3d4a7f0c	0.049437568
74	0x3e180eaf	0.14849351
75	0x3a914da6	0.0011085763
76	0x3cc51440	0.024057508
77	0xbc12f3e3	-0.00896928
78	0x3d404af5	0.046946485
79	0xbdd0aab7	-0.10188811
80	0x3d39c38e	0.04535251
81	0xbdffa7fe	-0.12483214
82	0xbe0c4ae5	-0.13700445
83	0x3e152572	0.14565066
84	0x3e1037b4	0.14083749
85	0x3e243ab8	0.16038024
86	0xbde26b66	-0.11055641
87	0x3e1ba0ed	0.15198107
88	0xbe1655ac	-0.14681119
89	0xbdb38218	-0.08765048
90	0x3cde0b90	0.027105123
91	0x3dd10fb8	0.10208076
92	0xbe2c578b	-0.1683027
93	0x3e0cd633	0.13753586
94	0x3a926d18	0.0011171428
95	0x3d75f2a2	0.060045846
96	0xbb812a8c	-0.0039418396
97	0x3e29abc3	0.16569428
98	0x3bc4213e	0.005985408
99	0x3cb86650	0.022509724
100	0xbd679531	-0.056538764
101	0xbdb7183d	-0.0894017
102	0x3de2b05f	0.11068796
103	0xbd68c03c	-0.056823954
104	0xbd61934f	-0.055072125
105	0x3d6e2874	0.058144048
106	0xbe1ef9ab	-0.15524928
107	0x3dc132fa	0.09433551
108	0x3df03f11	0.11730779
109	0x3e19863c	0.14992613
110	0xbbcef920	-0.006316319
111	0xbdce32be	-0.10068272
112	0x3e01fd3e	0.1269426
113	0x3de76f5d	0.11300538
114	0x3e27a2e1	0.16370727
115	0xbe0f42d6	-0.1399034
116	0xbde2ae68	-0.110684216
117	0xbe2b7891	-0.16745211
118	0xbdf2f64d	-0.118633844
119	0x3e1357fb	0.1438903
120	0xbe343797	-0.17599331
121	0x3d99adc4	0.07503846
122	0xbce4f9d0	-0.027951151
123	0x3e253cc8	0.16136467
124	0x3e2c3df6	0.16820511
125	0x3cfa98bc	0.030590408
126	0xbd67d0c3	-0.056595575
127	0x3dca8435	0.09888498
128	0x3db8210a	0.08990677
129	0xbd63ae9f	-0.055586454
130	0xbe20ca56	-0.15702185
131	0x3ca28b49	0.019841807
132	0xbd7919f8	-0.06081578
133	0xbdbe748f	-0.092995755
134	0x3cba5577	0.022745831
135	0x3e0202ce	0.12696382
136	0xbe30f027	-0.17279111
137	0x3dc4811d	0.09594939
138	0xbc873e21	-0.016509118
139	0xbc53a717	-0.012918255
140	0x3e21d853	0.15805177
141	0x3b342921	0.0027490335
142	0xbdab6eda	-0.08370753
143	0xbd1e6c5f	-0.03867757
144	0xbd179549	-0.037007604
145	0xbe07c840	-0.13259983
146	0xbe027b36	-0.12742314
147	0x3d8fbb39	0.07018132
148	0xbe1ed129	-0.15509476
149	0xbd479da5	-0.048734326
150	0x3dfafe77	0.122555666
151	0xbc6d8222	-0.014496358
152	0xbd44c19a	-0.048036195
153	0xbd6496ab	-0.05580775
154	0xbd3d1c68	-0.04616967
155	0xbe056f5e	-0.13030764
156	0xbe1f13cf	-0.155349
157	0xbcba291a	-0.022724677
158	0x3d23e356	0.040011726
159	0x3df180f8	0.11792177
160	0xbc59fc13	-0.013304728
161	0xbdeefa5c	-0.11668846
162	0x3d90ec02	0.07076265
163	0xbe31c88e	-0.17361662
164	0x3d168d04	0.036755577
165	0x3dbdba2d	0.09264026
166	0xbd1242f3	-0.03570838
167	0x3dae7116	0.08517663
168	0xbe1e35ba	-0.15450183
169	0xbd985394	-0.07437816
170	0x3db1defc	0.08685109
171	0x3e2e742e	0.17036507
172	0x3df972b2	0.121800795
173	0x3d1ab717	0.037772264
174	0xbe2a2fc0	-0.16619778
175	0xbd05a792	-0.03263051
176	0xbe06753c	-0.13130659
177	0xbe0663fe	-0.13124081
178	0xbd91e0a8	-0.07122928
179	0xbd68ad2d	-0.05680578
180	0x3e150a1d	0.14554639
181	0xbe258bdf	-0.16166638
182	0x3de84c52	0.11342682
183	0x3d98b28c	0.0745593
184	0xbdf03285	-0.11728386
185	0xbc63f89a	-0.013914252
186	0xbdfa9d05	-0.1223698
187	0x3cc9f178	0.024651274
188	0x3d542653	0.05179436
189	0xbdd2114a	-0.10257204
190	0x3e1d037d	0.15333362
191	0xbdd87933	-0.10569992
192	0xbd046730	-0.03232497
193	0xbb3f5394	-0.0029194104
194	0xbdf75945	-0.12077574
195	0xbd000edc	-0.03126417
196	0xbde4ae9e	-0.11166118
197	0x3c42eba4	0.011897001
198	0x3ca1f0a8	0.019768074
199	0xbe1f3061	-0.15545799
200	0x3e1d2da2	0.15349439
201	0x3be93aa8	0.007117588
202	0x3e2848cb	0.16434018
203	0x3c72c55c	0.014817562
204	0xbd90fb7f	-0.07079219
205	0xbd810c5c	-0.063011855
206	0xbc190600	-0.009339809
207	0xbd261e33	-0.040556144
208	0x3d305093	0.04304559
209	0xbd0c724b	-0.034288686
210	0xbdb31f23	-0.08746173
211	0x3d74e21f	0.05978596
212	0x3e379050	0.17926145
213	0xbcc342a3	-0.023835486
214	0x3d4128be	0.047157995
215	0xbe005130	-0.1253097
216	0xbde13d42	-0.10998012
217	0xbe3cdd56	-0.18443808
218	0xbdb29573	-0.087199114
219	0x3dbbd49d	0.09171412
220	0x3e1e31a2	0.15448621
221	0x3e3ffe64	0.18749386
222	0x3b57bd89	0.0032919368
223	0xbdb71db1	-0.0894121
224	0xbc17399f	-0.0092300465
225	0x3d93558c	0.07194051
226	0x3dbd2ba8	0.092368424
227	0xbd364619	-0.044500444
228	0xbd03c7c9	-0.03217295
229	0xbe202727	-0.15639935
230	0x3d845aeb	0.06462654
231	0x3ca0d597	0.019633098
232	0xbdf3f23d	-0.11911438
233	0x3cc44c86	0.02396227
234	0x3d048779	0.03235576
235	0xbe019ec5	-0.12658222
236	0x3e2e5fb8	0.17028701
237	0xbdcdfca2	-0.100579515
238	0x3db6ef10	0.08932316
239	0xbd697c84	-0.057003513
240	0xbddd563a	-0.10807462
241	0xbd5d191a	-0.053979017
242	0xbacd4f2d	-0.0015663855
243	0xbd17c44b	-0.037052434
244	0x3dc22d9c	0.094813555
245	0xbe2339cd	-0.15940018
246	0xbdd5b677	-0.10435193
247	0xbd1f2845	-0.038856763
248	0xbe091696	-0.13387522
249	0xbdb8be4e	-0.09020673
250	0xbe20b7aa	-0.15695062
251	0x3dae1dc7	0.08501773
252	0xbdaf7974	-0.08568087
253	0x3ddd4959	0.108050056
254	0x3e183763	0.14864878
255	0xbdf0be55	-0.11755053

convs.2.nn.0.bias f4 [32]
0	0xbda52cdf	-0.08065199
1	0x3e10c580	0.1413784
2	0xbdfa8f54	-0.12234369
3	0xbca4ab37	-0.020101173
4	0x3e2c21f2	0.16809824
5	0x3deded88	0.11617571
6	0xbd9f8777	-0.0778951
7	0xbd645f92	-0.055755205
8	0x3c253093	0.010082382
9	0xbe23f009	-0.16009535
10	0xbe32e2cc	-0.17469329
11	0x3de87824	0.1135104
12	0x3e1552c5	0.14582355
13	0xbcaac016	-0.020843547
14	0xbe16a8ac	-0.1471278
15	0x3dc3f1f4	0.09567633
16	0x3dbf824d	0.09351025
17	0x3d9e0c28	0.07717162
18	0x3d53d3cc	0.051715657
19	0x3daac817	0.08338945
20	0xbdb50a4a	-0.08839853
21	0x3e2a410b	0.16626374
22	0xbc71b49a	-0.014752531
23	0x3c0dc032	0.00865178
24	0xbd11df0a	-0.035613097
25	0x3d98eb58	0.07466763
26	0xbdcfc736	-0.10145418
27	0x3ddaf66e	0.10691534
28	0xbdc5d123	-0.0965903
29	0xbe369de6	-0.17833671
30	0xbd7b3fae	-0.061340027
31	0x3dc91813	0.09819045

convs.2.nn.2.weight f4 [32, 32]
0	0x3e11c1ee	0.14234135
1	0xbe231a89	-0.15928091
2	0x3e32588e	0.17416593
3	0xbe2cf640	-0.16890812
4	0x3e0b8b3e	0.13627335
5	0xbcd8a858	-0.02644746
6	0xbe05b87b	-0.13058655
7	0xbe0d585e	-0.1380324
8	0x3da09c26	0.07842283
9	0x3d3f0f04	0.04664518
10	0x3dbeb47a	0.09311767
11	0xbe2aaca5	-0.16667421
12	0xbd6a8c16	-0.057262503
13	0x3e1cbe8e	0.15307066
14	0x3dfac8d3	0.122453354
15	0x3d351610	0.044210494
16	0xbdebeee2	-0.11520173
17	0xbe0ef37b	-0.13960068
18	0xbda64dc6	-0.08120303
19	0x3da9946b	0.082802616
20	0x3e35f16a	0.17767873
21	0x3c8e31c6	0.017357718
22	0xbd040604	-0.0322323
23	0x3d9ae416	0.07563035
24	0xbe2b7f5c	-0.16747802
25	0x3deff088	0.117157996
26	0xbe2265d3	-0.15859155
27	0xbdf04b39	-0.117330976
28	0xbd99f451	-0.07517303
29	0xbca3ceb8	-0.019996032
30	0x3d9b069b	0.07569619
31	0x3e2b29b4	0.16715127
32	0xbe30c7ba	-0.1726369
33	0x3d350209	0.044191394
34	0xbe1b9842	-0.151948
35	0x3ce4ec55	0.027944723
36	0x3dea057b	0.114268266
37	0x3d89cf28	0.06728965
38	0xbdcb2103	-0.09918406
39	0xbd8e67ec	-0.06953415
40	0x3d9a2b5b	0.07527801
41	0x3da18315	0.0788633
42	0xbdf98a61	-0.12184597
43	0x3e04cd0d	0.12968846
44	0xbda0b9cc	-0.07847938
45	0xbc2f426b	-0.010696988
46	0x3db5eba8	0.088828385
47	0x3e12c0ac	0.14331311
48	0xbe13c3de	-0.14430186
49	0xbe0ca5c9	-0.13735117
50	0x3db7ddc8	0.08977848
51	0xbb57a1c8	-0.0032902826
52	0x3dd12fe0	0.102142096
53	0xbd37ef15	-0.04490574
54	0x3d683bd2	0.056697674
55	0x3e037a67	0.12839662
56	0x3e0c777d	0.13717456
57	0x3dc4c0b0	0.09607065
58	0x3c6991af	0.014255925
59	0x3daf76d6	0.08567588
60	0x3ac3a44c	0.0014926284
61	0xbe0dfc5d	-0.138658
62	0x3d528d25	0.051404137
63	0x3cc8ab40	0.02449572
64	0x3d298ac4	0.041392103
65	0xbd485edf	-0.0489186
66	0x3d8aa48b	0.06769665
67	0xbe2d1150	-0.16901135
68	0xbddee500	-0.10883522
69	0xbdaedaeb	-0.08537849
70	0xbe31e969	-0.17374195
71	0xbd31a1da	-0.043367244
72	0x3dd54646	0.10413794
73	0x3e113fdb	0.14184515
74	0x3d987eee	0.07446085
75	0x3c321067	0.010868168
76	0xbd3a5c33	-0.045498084
77	0x3daa2c6e	0.083092555
78	0xbcf0542e	-0.029337015
79	0xbe273a24	-0.16330773
80	0xbcc448d0	-0.023960501
81	0x3e24dc2b	0.16099612
82	0x3dcb8464	0.09937361
83	0x3d71cb22	0.059031613
84	0xbd384011	-0.044982973
85	0x3dd9c618	0.106334865
86	0x3e240a86	0.1601964
87	0x3d614c5f	0.055004474
88	0x3e1fbed5	0.1560014
89	0x3ce7abcd	0.028280163
90	0x3dcdbd47	0.100458674
91	0xbcb55ec0	-0.022139907
92	0xbdc13bc0	-0.094352245
93	0x3d9074d0	0.0705353
94	0x3dc05532	0.0939125
95	0xbe1a9149	-0.15094484
96	0xbd11f2de	-0.035632007
97	0x3d565d9b	0.052335363
98	0x3bb03ba3	0.005378203
99	0x3e2ffaae	0.1718547
100	0x3a80b21f	0.0009818709
101	0xbdddf2a3	-0.10837295
102	0x3e0556d0	0.13021398
103	0x3e2beace	0.1678879
104	0xbca99c02	-0.020704273
105	0x3d1219db	0.03566919
106	0x3e300d24	0.17192513
107	0xbbc2e63e	-0.005947857
108	0xbcecf374	-0.028924681
109	0x3e176e2e	0.14788124
110	0x3e1385a8	0.14406455
111	0x3c28d1f8	0.010303967
112	0xbdf35965	-0.11882285
113	0xbe117408	-0.14204419
114	0xbda92fc1	-0.082610615
115	0xbe1628c6	-0.14663991
116	0xbe072d65	-0.1320091
117	0xbc0014d7	-0.007817469
118	0xbb339296	-0.0027400604
119	0x3dabdce2	0.083917394
120	0xbd1ec530	-0.03876227
121	0xbbacc68c	-0.005272692
122	0x3e1326d5	0.14370282
123	0x3d3ae8bc	0.04563211
124	0xbbd3b114	-0.0064603183
125	0x3d2ae555	0.041722614
126	0x3e11321d	0.14179273
127	0xbe28641a	-0.16444436
128	0x3e19dec9	0.15026392
129	0x3e1b62c7	0.151744
130	0x3dfcb46f	0.123391025
131	0x3d86a918	0.06575221
132	0xbd708b16	-0.058726393
133	0xbe2afd71	-0.16698243
134	0xbd12ed85	-0.035871048
135	0x3e187701	0.14889146
136	0xbded054b	-0.11573275
137	0x3d7c361b	0.061575036
138	0xbd8ab36d	-0.06772504
139	0x3c141645	0.009038513
140	0xbcf87a53	-0.030331766
141	0xbdd4b696	-0.10386388
142	0xbe31eb46	-0.17374906
143	0xbdb626ce	-0.0889412
144	0x3b8217aa	0.003970106
145	0x3cddfc21	0.027097763
146	0x3d3837ab	0.044974964
147	0x3e049dbe	0.12950799
148	0x3d58a945	0.052895803
149	0xbe34dadd	-0.17661615
150	0xbe0b8b4b	-0.13627355
151	0xbda1ecd6	-0.07906501
152	0xbe0a8b6c	-0.13529748
153	0x3d6a25fc	0.05716513
154	0xbcee33dd	-0.029077465
155	0x3e2ad5cc	0.1668312
156	0x3c932c86	0.017965566
157	0x3df00422	0.11719538
158	0xbd9e35fc	-0.077251405
159	0x3e33ae7c	0.1754703
160	0xbd9c44fa	-0.07630344
161	0x3e04a64c	0.12954062
162	0xbcd9b072	-0.026573393
163	0xbde03c6c	-0.109490246
164	0x3ca2d18f	0.019875316
165	0xbe2a8b25	-0.16654642
166	0x3dafa104	0.08575633
167	0xbd800162	-0.06250264
168	0xbd41f4eb	-0.047352713
169	0xbcc7c34e	-0.02438512
170	0xbd5c9408	-0.05385211
171	0x3de2542c	0.11051211
172	0x3e328dc3	0.1743689
173	0x3d712a2b	0.058878105
174	0xbb815af4	-0.00394761
175	0xbdd756fb	-0.10514637
176	0x3e06620d	0.13123341
177	0xbd5953f6	-0.053058587
178	0xbe098cc0	-0.13432598
179	0x3df6dbdd	0.12053654
180	0xbdf812ae	-0.12112938
181	0xbbd30911	-0.00644029
182	0xbd2204c0	-0.03955531
183	0x3dbeffbb	0.093261205
184	0xbe056cd2	-0.13029793
185	0xbdd467ff	-0.10371398
186	0xbe2b0669	-0.16701664
187	0xbd0b3842	-0.0339892
188	0xbe30fb6b	-0.17283408
189	0x3dce7c25	0.100822724
190	0x3dd40da4	0.10354164
191	0x3dc60b2c	0.096700996
192	0x3dfafbdb	0.12255069
193	0xbdecda0a	-0.11565025
194	0x3b090f47	0.0020913647
195	0xbc3d0a51	-0.011538104
196	0xbde63c8d	-0.11242018
197	0xbccae1d4	-0.024765886
198	0xbd184545	-0.037175436
199	0xbe303b9c	-0.17210239
200	0x3ca0bb85	0.019620666
201	0xbd84e522	-0.06489016
202	0xbc529bfe	-0.012854574
203	0xbc4ede27	-0.012626207
204	0xbcb661c7	-0.02226342
205	0x3d053b46	0.03252723
206	0x3dc8b27c	0.09799668
207	0x3e26e24c	0.16297263
208	0xbe1d6157	-0.15369163
209	0x3dd0db11	0.101980336
210	0x3d8a74e5	0.06760577
211	0x3e0e8932	0.13919523
212	0x3e0ecaf1	0.13944604
213	0x3da7c3e1	0.08191658
214	0x3d29211f	0.041291352
215	0x3d727517	0.059193697
216	0xbd9820dd	-0.07428143
217	0xbdc9f795	-0.09861676
218	0xbe0840c5	-0.13305958
219	0xbd9922e3	-0.07477357
220	0x3e229469	0.15876926
221	0xbdd993ac	-0.10623869
222	0xbe05355c	-0.13008636
223	0x3dc5413d	0.09631584
224	0x3dad7a18	0.08470553
225	0x3de9690c	0.11396989
226	0xbdede5ee	-0.11616121
227	0x3d1c4517	0.038151827
228	0xbd8300a3	-0.06396606
229	0xbe10fa24	-0.14157921
230	0x3dc59283	0.096470855
231	0xbd77d0e9	-0.060501967
232	0xbdc9d8bb	-0.09855791
233	0x3ab1e1ee	0.0013571361
234	0xbdb0916d	-0.08621488
235	0x3d1089ac	0.035287544
236	0x3deae983	0.1147032
237	0x3d7293e3	0.059223067
238	0xbd568917	-0.052376833
239	0x3e021d27	0.12706433
240	0xbe06d6b8	-0.13167846
241	0xbdaafaaa	-0.083485916
242	0x3c165c29	0.009177246
243	0x3e2dbc38	0.16966331
244	0x3cf45873	0.029827332
245	0xbd70c117	-0.058777895
246	0x3cad9ac5	0.021191964
247	0xbc83763f	-0.016047595
248	0xbc8f6b44	-0.017507203
249	0xbe06fff1	-0.13183571
250	0x3db4a5d3	0.08820691
251	0xbe350ee8	-0.17681468
252	0x3ddd64c9	0.10810239
253	0xbda96c0b	-0.08272561
254	0xbdbdece0	-0.09273696
255	0xbc0781c0	-0.008270681

convs.2.nn.2.bias f4 [32]
0	0x3c222dc0	0.009898603
1	0xbc028a11	-0.007967488
2	0x3d83c86f	0.06434714
3	0x3e0d05eb	0.13771789
4	0xbe1f15b2	-0.1553562
5	0x3d6ceaee	0.057841234
6	0x3c090def	0.008365138
7	0x3e091a61	0.13388969
8	0xbd0752d4	-0.033037975
9	0x3c47f26e	0.012203796
10	0x3e1ef1ee	0.15521976
11	0xbd8562e5	-0.06513003
12	0xbe0f0e22	-0.13970235
13	0xbe190e5c	-0.14946884
14	0xbde1ab55	-0.11019007
15	0xbc546441	-0.0129633555
16	0xbe2011fd	-0.15631862
17	0xbd9875b8	-0.07444328
18	0x3c8e0577	0.01733659
19	0x3e233a48	0.15940201
20	0xbbed5b4f	-0.007243551
21	0x3e02987e	0.12753484
22	0x3dcbf3c4	0.09958604
23	0xbd567806	-0.052360557
24	0x3dd171d2	0.102267876
25	0xbd89fd4c	-0.06737766
26	0x3cacb82e	0.021083917
27	0xbce662fc	-0.028123371
28	0x3d04e486	0.0324445
29	0xbd4eae5f	-0.050459262
30	0x3d8e2b6a	0.06941874
31	0x3da267b6	0.079299375

lns.0.weight f4 [32]
0	0x3f80f087	1.0073403
1	0x3f8096a9	1.0045978
2	0x3f816db5	1.0111605
3	0x3f80ae87	1.0053262
4	0x3f80715f	1.0034598
5	0x3f8018bd	1.000755
6	0x3f809cb5	1.0047823
7	0x3f7c84f3	0.98640364
8	0x3f7e90ee	0.99439895
9	0x3f7f2656	0.9966787
10	0x3f7f53e9	0.9973741
11	0x3f80738e	1.0035264
12	0x3f7e52da	0.9934517
13	0x3f809220	1.0044594
14	0x3f7e6baf	0.9938306
15	0x3f7e0550	0.99226856
16	0x3f807e79	1.0038596
17	0x3f7dac0e	0.9909066
18	0x3f8079d9	1.0037185
19	0x3f800dea	1.0004246
20	0x3f8028a1	1.0012399
21	0x3f809d57	1.0048016
22	0x3f7fe184	0.99953485
23	0x3f7ef95e	0.99599254
24	0x3f804003	1.0019535
25	0x3f7e2a71	0.9928351
26	0x3f7ef2e2	0.9958936
27	0x3f7efb20	0.99601936
28	0x3f80a22b	1.004949
29	0x3f808460	1.0040398
30	0x3f81c572	1.013838
31	0x3f8079c3	1.0037159

lns.0.bias f4 [32]
0	0x3b17e3fb	0.0023176658
1	0x3bc92f81	0.006139696
2	0xbb68871c	-0.0035480922
3	0xbba66be5	-0.00507878
4	0x3a9e0e63	0.0012058731
5	0xbaf56845	-0.0018723091
6	0x3b4cffd6	0.003128042
7	0x3be9fd64	0.007140802
8	0xbac8967f	-0.001530364
9	0x3babd7b7	0.005244221
10	0x3b88a8c2	0.004170508
11	0xbb6e336a	-0.0036346563
12	0xbb6dc371	-0.0036279822
13	0xbc0c52b3	-0.008564639
14	0x3bc47168	0.0059949644
15	0xbbac887e	-0.0052652946
16	0xbb6a156e	-0.003571834
17	0x3c0fc59f	0.008775144
18	0xbc001f41	-0.0078199515
19	0xba08598d	-0.00052013324
20	0xbbbb66d0	-0.0057190433
21	0xbba87a90	-0.0051415637
22	0xbb5559d4	-0.0032554762
23	0x3b7dee4a	0.0038746768
24	0xbbc237c2	-0.005927057
25	0xba258818	-0.000631453
26	0x3bb9e4d3	0.00567303
27	0xbb769f42	-0.0037631546
28	0xbc04c0ab	-0.008102576
29	0xbb89d012	-0.004205712
30	0xbb34ae18	-0.0027569588
31	0x3ab58982	0.0013850185

lns.1.weight f4 [32]
0	0x3f80c2bf	1.0059432
1	0x3f7f53f9	0.9973751
2	0x3f7e65b4	0.99373937
3	0x3f7e81e6	0.9941696
4	0x3f8000b7	1.0000218
5	0x3f80fb53	1.0076698
6	0x3f80c7a1	1.0060922
7	0x3f80d212	1.0064108
8	0x3f813a2a	1.0095875
9	0x3f8010f6	1.0005176
10	0x3f800677	1.0001973
11	0x3f80054d	1.0001618
12	0x3f7f3c7f	0.99701685
13	0x3f814fa6	1.0102432
14	0x3f819511	1.0123616
15	0x3f7e7520	0.9939747
16	0x3f7ef74f	0.9959611
17	0x3f8029ab	1.0012716
18	0x3f7ec35f	0.9951686
19	0x3f7f09bd	0.99624234
20	0x3f805e69	1.0028812
21	0x3f8099c6	1.0046928
22	0x3f807fb7	1.0038975
23	0x3f80a5d5	1.0050608
24	0x3f7f5e9f	0.99753755
25	0x3f801c76	1.0008686
26	0x3f809f18	1.0048552
27	0x3f7f8d04	0.9982455
28	0x3f80967f	1.0045928
29	0x3f81ec2a	1.0150197
30	0x3f819d03	1.0126041
31	0x3f8137e8	1.0095186

lns.1.bias f4 [32]
0	0x3bb133ef	0.0054078023
1	0xbc0b1f71	-0.008491383
2	0x3bd76081	0.0065727835
3	0x3bc32cde	0.0059562763
4	0x39ac8d03	0.00032911458
5	0x3b96b2d5	0.004598955
6	0xbba604f5	-0.005066509
7	0xbbfc7006	-0.007703784
8	0xbb86247a	-0.004093704
9	0xbb2eb10f	-0.0026655828
10	0x3be0cf56	0.006860654
11	0x3b97c51f	0.004631653
12	0x3b2d973a	0.0026487843
13	0xbc28b9e6	-0.010298228
14	0xbbc7717a	-0.0060865255
15	0xbb9f2e3d	-0.004857807
16	0x3b01f86d	0.0019831911
17	0xbb872473	-0.004124218
18	0x3a46227b	0.00075582386
19	0x3b46813a	0.0030289427
20	0xbb36746a	-0.0027840384
21	0xbb8f3325	-0.0043701106
22	0x3be6febf	0.007049411
23	0x3b4f2008	0.0031604785
24	0xbb95a19f	-0.004566386
25	0xbbc84818	-0.00611211
26	0xbbef96e2	-0.007311688
27	0x3af6e2b0	0.0018835869
28	0x3af702fb	0.0018845493
29	0xbb807a5b	-0.003920836
30	0x3bfcd05f	0.0077152695
31	0xbc1f687b	-0.0097295
