artery_model_last.pt (torch, 35103 bytes, 20 tensors)

convs.0.nn.0.weight f4 [32, 7]
0.027427275 0.19688074 -0.015559235 0.0043195947 0.0015793577 0.20043346 0.029443622 -0.33769506
-0.2697081 0.021770274 -0.030601628 0.3602716 -0.089681104 0.28934747 -0.31822583 -0.35893387
-0.035155565 -0.24006419 -0.1103176 0.04208165 -0.3286115 0.26077795 -0.22828636 0.2907117
0.12380461 -0.07039159 -0.32995403 0.06278599 -0.21180966 0.32673687 -0.31739628 -0.10022069
-0.20804179 -0.24208559 -0.19692524 -0.037165433 0.0262662 0.06348905 0.19232751 -0.1548533
-0.2341754 -0.08048148 0.3558543 -0.046214707 -0.31756163 0.2960767 0.09164349 0.065670945
0.06519058 0.26365736 -0.17111935 0.27637297 0.36357495 -0.09704451 0.23838809 0.2085823
0.35322663 -0.088591315 -0.22450203 -0.1404041 -0.2581231 0.01220367 0.36423895 0.36658943
0.28562063 0.0365314 0.0077785784 0.24961556 0.22428367 -0.037937094 -0.09577309 0.15006201
-0.012754383 -0.26473403 -0.1770215 0.3074184 0.31485397 -0.14776048 -0.07999997 -0.1861377
-0.122426875 0.3459411 -0.336281 0.18144657 -0.34073704 -0.18016808 -0.076361775 0.026331078
-0.060639605 -0.17173037 -0.16868886 -0.230689 -0.26385534 -0.23459797 0.36198327 -0.17706956
-0.31397966 0.26028618 0.14664976 0.2608626 -0.37647513 -0.36037654 -0.26755553 -0.19911459
-0.0012261133 0.1627386 0.22071062 -0.3242674 0.15123944 -0.21932837 0.08635231 0.11924597
0.061487976 0.1339999 -0.018462976 0.24938852 0.07950682 0.3312147 0.08182524 -0.20023902
0.24315983 0.021719962 0.36547282 -0.041159578 0.3747856 -0.2195551 0.19087113 -0.2821152
0.25937563 0.06891283 0.21523608 -0.325814 -0.37630042 0.18301971 -0.15656479 0.1499179
-0.22367911 -0.11615324 0.0017666848 0.22733796 0.21332428 -0.03345995 -0.10647619 -0.006260946
0.19471857 -0.3200713 -0.115489535 -0.36535028 0.054032028 -0.04563433 0.21381094 0.30123332
-0.3238006 -0.16808128 -0.06107548 -0.002954187 -0.08562665 -0.23733045 -0.14551511 -0.009037552
0.3040729 -0.09642435 0.25006467 -0.3057665 0.01703554 -0.29428837 -0.3538366 0.037693143
-0.17321675 0.27782533 0.29873928 -0.37595612 -0.026122963 -0.064711876 -0.21586974 -0.26266772
-0.16133042 0.1666644 0.08969822 0.2269944 -0.023695368 0.19647747 0.07296266 -0.081881635
-0.021435225 -0.34343335 -0.008726322 -0.124801226 -0.12599629 -0.15179273 -0.08271904 -0.27811408
0.022244386 -0.015305402 -0.09985948 0.32826295 0.25376505 0.10697636 -0.13881378 0.047994114
-0.25988808 0.26416388 0.35320744 -0.055982936 0.29208982 0.35507947 -0.02212143 -0.13965127
0.01968383 0.063091755 -0.3502065 -0.023793777 -0.13582972 0.2524798 -0.010448866 0.24843878
0.3367215 -0.11792328 0.08041261 -0.032310564 -0.16430269 -0.21015067 0.008310266 0.115417965
00000000: 2aaf e03c 1b9b 493e 29ec 7ebc 638b 8d3b
00000010: 7302 cf3a 6e3e 4d3e c033 f13c 5ee6 acbe
00000020: 2e17 8abe 9357 b23c 44b0 fabc 8575 b83e
00000030: baaa b7bd 5a25 943e 7fee a2be 2ec6 b7be
00000040: 48ff 0fbd 63d3 75be 32ee e1bd cf5d 2c3d
00000050: c43f a8be b084 853e e6c3 69be 2ad8 943e
00000060: 458d fd3d 7729 90bd bcef a8be f195 803d
00000070: a2e4 58be 0e4a a73e c481 a2be 8140 cdbd
00000080: e808 55be 49e5 77be c5a6 49be c83a 18bd
00000090: 372c d73c 8c06 823d 81f1 443e dd91 1ebe
000000a0: adcb 6fbe 79d3 a4bd 8932 b63e a24b 3dbd
000000b0: 7097 a2be 5d97 973e 95af bb3d 7d7e 863d
000000c0: a482 853d 19fe 863e e939 2fbe c280 8d3e
000000d0: 7f26 ba3e 46bf c6bd 021c 743e 9996 553e
000000e0: 1fda b43e 5d6f b5bd dce3 65be 18c6 0fbe
000000f0: b628 84be e7f1 473c 877d ba3e 9cb1 bb3e
00000100: de3c 923e f3a1 153d 72e3 fe3b 399b 7f3e
00000110: 9eaa 653e ed63 1bbd af24 c4bd dba9 193e
00000120: c2f7 50bc 388b 87be 2045 35be f265 9d3e
00000130: 8a34 a13e 864e 17be 06d7 a3bd e29a 3ebe
00000140: f1ba fabd 311f b13e 062d acbe 21cd 393e
00000150: 1675 aebe fb7d 38be 9063 9cbd 46b4 d73c
00000160: 3c61 78bd 16da 2fbe c6bc 2cbe bd39 6cbe
00000170: 0c18 87be 733a 70be df55 b93e b951 35be
00000180: f1c1 a0be 3b44 853e 5b2b 163e c88f 853e
00000190: 59c1 c0be 4683 b8be 0afd 88be b2e4 4bbe
000001a0: 89b5 a0ba f3a4 263e f701 623e 6006 a6be
000001b0: 83de 1a3e 9e97 60be 7bd9 b03d 3b37 f43d
000001c0: d1da 7b3d 4537 093e ab3f 97bc b45f 7f3e
000001d0: 79d4 a23d f994 a93e fe93 a73d 750b 4dbe
000001e0: e4fe 783e 10ee b13c 411f bb3e f296 28bd
000001f0: e6e3 bf3e 0dd3 60be b973 433e 6771 90be
00000200: e2cc 843e 2b22 8d3d d966 5c3e 18d1 a6be
00000210: 73aa c0be 8569 3b3e 8552 20be 1484 193e
00000220: 230c 65be c0e1 edbd 1b90 e73a 48cb 683e
00000230: ae71 5a3e 4d0d 09bd 3010 dabd 9f28 cdbb
00000240: 4e64 473e 63e0 a3be c785 ecbd 310f bbbe
00000250: b050 5d3d 10eb 3abd 41f1 5a3e 413b 9a3e
00000260: 31c9 a5be 801d 2cbe 482a 7abd 099b 41bb
00000270: 065d afbd c106 73be ea01 15be 3e12 14bc
00000280: 71af 9b3e 217a c5bd 7a08 803e 6d8d 9cbe
00000290: 1e8e 8b3c f7ac 96be 122a b5be 2064 1a3d
000002a0: bb5f 31be 1f3f 8e3e 5bf4 983e 527d c0be
000002b0: d3ff d5bc a987 84bd f50c 5dbe 627c 86be
000002c0: cd33 25be 13aa 2a3e b3b3 b73d 3871 683e
000002d0: ca1c c2bc 6431 493e 726d 953d 8fb1 a7bd
000002e0: ed98 afbc 7fd6 afbe d9f8 0ebc c997 ffbd
000002f0: 2c05 01be 8e6f 1bbe 9a68 a9bd f864 8ebe
00000300: dc39 b63c 82c3 7abc 2183 ccbd 1512 a83e
00000310: 7eed 813e 6c16 db3d 3325 0ebe 7a95 443d
00000320: 0d10 85be 7d40 873e 9bd7 b43e 5d4e 65bd
00000330: cc8c 953e facc b53e 0038 b5bc be00 0fbe
00000340: fc3f a13c 4036 813d 444e b3be 2beb c2bc
00000350: f216 0bbe 0845 813e b831 2bbc bc66 7e3e
00000360: c366 ac3e c381 f1bd 5eaf a43d 1558 04bd
00000370: f73e 28be bd31 57be c827 083c 4160 ec3d

convs.0.nn.0.bias f4 [32]
-0.06625115 0.063169695 0.23609567 0.15806471 0.15614226 0.105723396 -0.29086643 -0.22826184
-0.28126568 0.24772637 -0.33213878 -0.28077638 0.24965924 0.22442356 -0.35660234 0.21765795
-0.08556865 0.082077004 -0.2361195 -0.056703538 0.08392277 0.28747952 0.22975184 -0.20483941
-0.24771383 -0.023497162 0.11857704 0.20727941 -0.37645242 -0.03017437 0.013996721 -0.17696999
00000000: afae 87bd 1d5f 813d 10c3 713e b7db 213e
00000010: c2e3 1f3e 8285 d83d 72ec 94be 79bd 69be
00000020: 0e02 90be fbab 7d3e 180e aabe ecc1 8fbe
00000030: aca6 7f3e 4acf 653e 9594 b6be bae1 5e3e
00000040: 9e3e afbd fd17 a83d 4fc9 71be f841 68bd
00000050: b4df ab3d 8430 933e 1144 6b3e 6cc1 51be
00000060: b2a8 7dbe 1f7d c0bc 85d8 f23d 0e41 543e
00000070: 5fbe c0be 3e30 f7bc 8152 653c 9f37 35be

convs.0.nn.2.weight f4 [32, 32]
0.14023638 -0.04560301 -0.16780014 -0.10481364 0.006283264 -0.13082875 0.041362062 0.17254946
0.0070492676 -0.04268582 0.16691718 0.13196743 0.118567884 0.012749976 0.008645764 -0.1362676
0.01887347 0.17303967 0.010191767 -0.1574544 0.097868055 0.16003504 0.1486578 0.008303156
0.03439456 0.02988818 -0.07169031 -0.025447855 0.14459422 0.01917118 0.16770102 -0.11734607
-0.025200238 0.0025095453 -0.10539808 0.13710463 0.123757534 -0.09615673 0.15565202 0.16538619
-0.10473952 -0.005471696 0.17582788 -0.11486256 -0.027626533 -0.122139454 0.12753208 0.028821185
0.0742499 0.12732439 -0.027451914 -0.17678359 0.009045276 -0.012988935 0.06352877 0.08184213
-0.0870438 -0.06881745 0.11121734 0.05014834 0.04028008 0.079664886 0.08221591 -0.1281697
0.014072533 0.016995834 -0.17095602 0.037854876 -0.0029072543 0.13741787 -0.16766688 0.16661435
-0.08607032 0.1046216 0.12990965 -0.0217935 -0.09080041 -0.02968452 -0.10994887 0.022259658
0.07474854 0.03635006 -0.10140902 0.09711836 0.16289017 -0.05394376 0.09095543 -0.0122066
0.070850804 -0.12604252 -0.1501157 -0.0056150462 -0.14870831 0.063303754 0.16511545 -0.035351504
0.0016254173 0.02716308 -0.08443008 -0.009308822 0.045427192 0.14371069 -0.14694884 -0.003970062
-0.14435387 -0.016119309 -0.00516665 -0.073429435 0.10906297 0.12229214 -0.06875656 -0.024744503
-0.054391507 0.0049629738 0.05806358 0.16288303 -0.16303484 0.071990326 -0.10691026 -0.14486274
0.13623168 -0.052444592 -0.09951044 0.048497703 -0.036944997 -0.16181302 -0.09187822 -0.07520584
-0.01351282 -0.11719897 -0.1709342 0.09839974 -0.15205477 -0.02085316 0.1510607 -0.06498125
-0.117521115 0.047350824 0.15419091 -0.020314088 -0.010544938 0.08224608 0.021691505 0.033565454
0.093764514 0.08039712 -0.12659879 -0.07040291 0.12054365 0.027165744 0.041506685 0.16966063
0.10980378 0.070350446 0.16843504 -0.15588412 0.027251072 0.046704475 -0.030748203 -0.083002046
0.03223365 -0.14596412 -0.074864924 0.13499768 -0.06483239 -0.051326737 0.080286495 -0.04391776
0.026810242 -0.17619587 0.100837775 -0.15706019 0.02296885 -0.17482537 -0.15193447 0.14294173
-0.09742368 -0.0068919878 0.00855582 0.16369607 0.05727129 0.08579172 -0.07579106 -0.06089202
0.12801042 0.06477082 0.04517775 -0.13327123 -0.1405235 0.0352576 -0.13324636 0.123607844
0.14801101 -0.07260591 -0.113300756 0.17183909 -0.09403477 -0.14150153 -0.12778407 0.03143157
0.034606088 0.11490125 0.14231063 0.07630407 0.025067497 0.1598366 -0.07293686 -0.030641122
0.15043636 -0.05936732 0.095522 0.038728505 0.06323124 -0.039865624 -0.15123712 0.12680385
0.14551252 -0.13993818 -0.081896484 0.0071947873 0.08734861 -0.024952253 -0.07807598 0.13717373
-0.08819512 0.16108042 0.0036242136 0.09375252 0.041771203 0.031946767 0.1309547 -0.007902351
0.12535661 0.058957025 -0.0986974 0.11523252 -0.124990135 0.0915898 -0.037665963 0.055481035
-0.02060753 0.035281524 -0.052516878 0.074110866 0.08302283 -0.1615008 0.15501188 -0.14347714
-0.07801298 0.07025494 0.16359808 0.056723647 -0.097984105 0.03203413 -0.10546112 0.08260331
00000000: 209a 0f3e 39ca 3abd cdd3 2bbe 89a8 d6bd
00000010: d7e3 cd3b f9f7 05be 446b 293d ceb0 303e
00000020: 8bfd e63b 54d7 2ebd 56ec 2a3e 7822 073e
00000030: b8d3 f23d 46e5 503c f6a6 0d3c bc89 0bbe
00000040: 899c 9a3c 5031 313e 5efb 263c ba3b 21be
00000050: 0c6f c83d 3ae0 233e c039 183e f609 083c
00000060: 4fe1 0c3d 0ed8 f43c 5fd2 92bd 0578 d0bc
00000070: 8210 143e e10c 9d3c d1b9 2b3e 2353 f0bd
00000080: bb70 cebc 2f77 243b f3da d7bd 2865 0c3e
00000090: 9774 fd3d d2ed c4bd 3e63 1f3e ff5a 293e
000000a0: ac81 d6bd ea4b b3bb 390c 343e 103d ebbd
000000b0: 0a51 e2bc 4024 fabd c597 023e 681a ec3c
000000c0: 5510 983d 5361 023e d6e2 e0bc c206 35be
000000d0: a332 143c 8bcf 54bc 5f1b 823d d99c a73d
000000e0: 0544 b2bd 2af0 8cbd ebc5 e33d 5968 4d3d
000000f0: bafc 243d 5827 a33d d160 a83d eb3e 03be
00000100: 7b90 663c d93a 8b3c 180f 2fbe b70d 1b3d
00000110: a287 3ebb 45b7 0c3e deb0 2bbe f49c 2a3e
00000120: a345 b0bd d943 d63d 0907 053e 4888 b2bc
00000130: 91f5 b9bd f32c f3bc e02c e1bd e359 b63c
00000140: c315 993d cde3 143d 88af cfbd fee5 c63d
00000150: aecc 263e 22f4 5cbd d746 ba3d 31fe 47bc
00000160: 3a1a 913d 4a11 01be eeb7 19be 6cfe b7bb
00000170: fe46 18be 66a5 813d 0614 293e bdcc 10bd
00000180: f40b d53a 1c85 de3c aee9 acbd 0884 18bc
00000190: dd11 3a3d e528 133e c279 16be 4b17 82bb
000001a0: 80d1 13be a40c 84bc 004d a9bb 2c62 96bd
000001b0: 685c df3d 4d74 fa3d 3dd0 8cbd fcb4 cabc
000001c0: a1c9 5ebd 71a0 a23b 14d4 6d3d cfca 263e
000001d0: 9bf2 26be aa6f 933d c4f3 dabd e656 14be
000001e0: 5180 0b3e 24d0 56bd 21cc cbbd 87a5 463d
000001f0: a353 17bd 50b2 25be a62a bcbd 8505 9abd
00000200: e064 5dbc 0306 f0bd 6009 2fbe ce85 c93d
00000210: 3fb4 1bbe 3fd4 aabc a8af 1a3e e414 85bd
00000220: e9ae f0bd f0f2 413d 39e4 1d3e bb69 a6bc
00000230: adc4 2cbc a270 a83d 62b2 b13c ee7b 093d
00000240: 9c07 c03d 3fa7 a43d 1da3 01be 672f 90bd
00000250: 97df f63d b28a de3c ea02 2a3d 84bb 2d3e
00000260: cee0 e03d e513 903d 3c7a 2c3e 16a0 1fbe
00000270: a43d df3c 314d 3f3d a8e3 fbbc fafc a9bd
00000280: 6f07 043d 9e77 15be c852 99bd d53c 0a3e
00000290: d8c6 84bd fc3b 52bd 3f6d a43d 1ce3 33bd
000002a0: 27a1 db3c b16c 34be 0984 ce3d 63d4 20be
000002b0: 2b29 bc3c 6c05 33be b694 1bbe 515f 123e
000002c0: 1186 c7bd 2fd6 e1bb b62d 0c3c f19f 273e
000002d0: 4d95 6a3d 92b3 af3d 5838 9bbd e969 79bd
000002e0: 2a15 033e 90a6 843d 4e0c 393d 4178 08be
000002f0: 64e5 0fbe 466a 103d bc71 08be 1c26 fd3d
00000300: 3390 173e 68b2 94bd 3a0a e8bd 96f6 2f3e
00000310: 4d95 c0bd c7e5 10be d4d9 02be 64be 003d
00000320: 1dbf 0d3d 5951 eb3d e1b9 113e 4f45 9c3d
00000330: 5a5a cd3c 35ac 233e ec5f 95bd 1703 fbbc
00000340: fd0b 1a3e 262b 73bd 0aa1 c33d c8a1 1e3d
00000350: 617f 813d 234a 23bd e7dd 1abe ded8 013e
00000360: 3c01 153e f44b 0fbe 58b9 a7bd 40c2 eb3b
00000370: d4e3 b23d ab68 ccbc 4de6 9fbd 4577 0c3e
00000380: a59f b4bd 44f2 243e 3784 6d3b 5201 c03d
00000390: 4818 2b3d 9dda 023d fd18 063e dd78 01bc
000003a0: 7c5d 003e ec7c 713d dd21 cabd 07ff eb3d
000003b0: d4fa ffbd 6f93 bb3d a047 1abd 1540 633d
000003c0: 1fd1 a8bc 5c83 103d f01b 57bd 70c7 973d
000003d0: e007 aa3d 7760 25be 6fbb 1e3e aceb 12be
000003e0: 45c5 9fbd d2e1 8f3d 4186 273e 0e57 683d
000003f0: e4ab c8bd 3836 033d 00fc d7bd ed2b a93d

convs.0.nn.2.bias f4 [32]
0.11948613 -0.034312528 -0.16666153 -0.024993515 0.013908733 0.043944128 0.05734696 -0.022981228
-0.00932378 -0.037390847 0.068564154 0.03936418 0.07050238 -0.016026206 -0.016320802 0.1302557
0.021248108 -0.16118407 0.03513788 0.16263251 -0.03470662 0.10671502 -0.12822181 -0.026117729
0.11726875 -0.08845452 -0.044076122 0.001502378 -0.02767613 -0.049319953 0.12256565 -0.031439524
00000000: 25b5 f43d 4b8b 0cbd 52a9 2abe 33bf ccbc
00000010: 74e1 633c c2fe 333d a5e4 6a3d 2143 bcbc
00000020: c5c2 18bc 2527 19bd 5d6b 8c3d 563c 213d
00000030: 8d63 903d 6449 83bc 34b3 85bc c061 053e
00000040: 8310 ae3c 700d 25be bdec 0f3d 2389 263e
00000050: 8728 0ebd 688d da3d 944c 03be d9f4 d5bc
00000060: 992a f03d a527 b5bd 2a89 34bd 71eb c43a
00000070: 0db9 e2bc b803 4abd b303 fb3d bbc6 00bd

convs.1.nn.0.weight f4 [32, 32]
0.16495292 -0.08847687 -0.12393035 0.051256888 -0.025985809 -0.1252123 -0.1662424 0.14293595
-0.09562265 0.15491652 -0.122050606 0.08921605 -0.06687616 0.12608697 0.17022926 0.14883593
-0.089720696 -0.048930775 -0.112176575 -0.029657034 0.0521981 0.121754475 -0.08329212 0.113352396
-0.037844677 0.0039795707 -0.11613654 0.042084284 0.02338513 0.1152027 0.12683713 0.14432845
0.104052015 -0.0045391 0.10571271 0.13058463 0.12643652 0.11161437 -0.05654443 0.008012562
-0.07048071 0.08903673 -0.042363044 -0.17580621 -0.075452216 -0.135072 0.03617641 0.12883118
-0.009988885 -0.072969496 -0.056119595 -0.14269772 0.08021883 0.10383967 -0.12679747 0.12588935
0.060184088 -0.15592282 0.10613085 -0.011776459 -0.093592055 0.085058086 -0.09369587 0.033239815
0.17072105 0.09856537 0.11245544 -0.0971978 -0.10273588 0.057289384 0.002398792 0.1304487
0.15620261 0.14058071 0.05166814 -0.11656258 0.01355385 0.022620514 -0.108930215 -0.020927384
0.02207302 -0.12493646 0.019186107 -0.16019447 0.0930087 -0.09329658 0.064815 -0.0244692
-0.10627038 0.045704268 -0.13341202 0.108655766 0.011578386 0.037121914 0.111332774 0.1173796
0.14211057 0.1186967 -0.026075082 -0.0012191755 -0.15183097 0.03980125 0.0032107588 0.12921505
0.12788907 -0.027729534 -0.091434434 0.119586125 0.037586287 -0.09184356 -0.114558995 -0.17509298
0.0804852 0.06637168 0.050269175 0.092086986 -0.10185622 0.16874915 0.087672144 0.05694289
-0.035346523 -0.15418465 0.038788065 0.03380356 0.028853804 0.08640187 -0.083129905 0.16558284
0.006382469 -0.16199248 -0.08119089 0.042554744 0.12252969 -0.07597536 -0.0817282 -0.00860786
-0.1677113 -0.062678576 -0.10931121 0.15179166 -0.11023234 -0.016004052 0.13322945 -0.034436155
0.14518622 -0.092324845 -0.01444214 0.00767621 -0.12534523 0.10580016 -0.004000373 -0.1755515
0.07111134 -0.07113274 -0.09557316 0.06862511 0.045697946 -0.10918808 0.06297595 0.021309927
-0.05849984 0.11971532 0.0044140117 0.07818648 -0.03761951 0.05938536 0.043807432 0.13865727
-0.15286034 -0.040689304 0.093386024 -0.08219422 -0.12813373 0.11512263 0.08948133 0.16428018
0.06747349 -0.048365083 -0.13818191 -0.11507346 0.053346433 -0.034679867 0.16596559 0.11594979
0.015323686 0.1715077 0.018578101 0.03662386 0.1720799 -0.022639694 0.053824995 -0.011785362
0.16431329 0.077840306 -0.057292536 -0.15661636 0.022241194 -0.0006706197 0.076466896 0.073914886
-0.16146763 -0.14616516 -0.048215564 -0.15192756 0.009090438 0.10468292 0.17007928 -0.00944059
-0.13571046 0.120609164 -0.12025812 0.123518676 -0.06289915 -0.084429264 0.111237444 0.05050131
-0.04950168 0.10781456 -0.15570313 -0.048668317 -0.09627575 -0.13038851 -0.1557531 -0.11123448
0.05952022 -0.09532949 0.15936585 -0.034804046 0.04194317 0.12930743 0.040650744 -0.11342522
-0.025354464 -0.03030441 -0.08024383 0.026506124 -0.13481507 0.037700154 -0.12076965 0.13958052
-0.020805454 -0.15626259 -0.13415536 -0.15673093 0.01532861 0.00894834 -0.08946083 -0.08626114
-0.1339889 -0.103182785 -0.06627412 -0.10610337 0.060654875 0.068755195 -0.078157604 0.004424035
00000000: 6be9 283e 5c33 b5bd 32cf fdbd bef2 513d
00000010: 31e0 d4bc a737 00be 733b 2abe cd5d 123e
00000020: cfd5 c3bd 70a2 1e3e abf5 f9bd e8b6 b63d
00000030: 5ef6 88bd f11c 013e 9450 2e3e 7268 183e
00000040: 7cbf b7bd a36b 48bd d5bc e5bd 4ff3 f2bc
00000050: adcd 553d 695a f93d 0f95 aabd 4d25 e83d
00000060: 0503 1bbd 0f67 823b ffd8 edbd 9260 2c3d
00000070: 2c92 bf3c 65ef eb3d 98e1 013e d6ca 133e
00000080: 3919 d53d bbbc 94bb e87f d83d fab7 053e
00000090: 9378 013e 1396 e43d 229b 67bd 1f47 033c
000000a0: 3158 90bd e458 b63d df84 2dbd 8b06 34be
000000b0: b186 9abd 5050 0abe b72d 143d 52ec 033e
000000c0: 6ca8 23bc 0871 95bd a9dd 65bd 5a1f 12be
000000d0: c549 a43d e5a9 d43d 32d7 01be 23e9 003e
000000e0: 9783 763d 3baa 1fbe 225b d93d 0df2 40bc
000000f0: 31ad bfbd ef32 ae3d 9fe3 bfbd 7926 083d
00000100: 80d1 2e3e a4dc c93d 0a4f e63d a40f c7bd
00000110: 3067 d2bd 46a8 6a3d 0d35 1d3b 5894 053e
00000120: 94f3 1f3e 64f4 0f3e f9a1 533d 5db8 eebd
00000130: f810 5e3c a84e b93c ce16 dfbd e86f abbc
00000140: 7ad2 b43c b0de ffbd 2f2c 9d3c 050a 24be
00000150: 587b be3d 4712 bfbd babd 843d a273 c8bc
00000160: 49a4 d9bd 6634 3b3d 299d 08be ea86 de3d
00000170: 45b3 3d3c 260d 183d 7002 e43d b764 f03d
00000180: 6f85 113e 4117 f33d 699b d5bc becc 9fba
00000190: 9479 1bbe a306 233d 986b 523b f350 043e
000001a0: 5af5 023e 0c29 e3bc fa41 bbbd 92e9 f43d
000001b0: 14f4 193d 7a18 bcbd e89d eabd 934b 33be
000001c0: 6dd5 a43d e0ed 873d 0de7 4d3d 1a98 bc3d
000001d0: fe99 d0bd 94cc 2c3e 748d b33d f33c 693d
000001e0: 84c7 10bd 95e2 1dbe 3ce0 1e3d 9a75 0a3d
000001f0: d05e ec3c 77f3 b03d 0340 aabd 8c8e 293e
00000200: 0824 d13b 5be1 25be 6947 a6bd e24d 2e3d
00000210: d9f0 fa3d f898 9bbd 1d61 a7bd fb07 0dbc
00000220: 83bc 2bbe a05d 80bd 8ede dfbd 466f 1b3e
00000230: 7ec1 e1bd ee1a 83bc 4d6d 083e ed0c 0dbd
00000240: b2ab 143e cf14 bdbd ba9e 6cbc b788 fb3b
00000250: 805a 00be c1ad d83d 9015 83bb c6c3 33be
00000260: d2a2 913d 0bae 91bd dcbb c3bd 528b 8c3d
00000270: c52d 3b3d 009e dfbd 89f9 803d 2892 ae3c
00000280: 879d 6fbd 4e2d f53d 6aa3 903b 3c20 a03d
00000290: ea16 1abd 103e 733d 6c6f 333d 2cfc 0d3e
000002a0: 6c87 1cbe d4a9 26bd 2c41 bf3d 7155 a8bd
000002b0: 7d35 03be 6ac5 eb3d fd41 b73d 1039 283e
000002c0: 8b2f 8a3d 771a 46bd 8f7f 0dbe a2ab ebbd
000002d0: ca81 5a3d 7a0c 0ebd e2f2 293e 1577 ed3d
000002e0: 3310 7b3c b79f 2f3e 1a31 983c e702 163d
000002f0: b735 303e e176 b9bc 9977 5c3d 6417 41bc
00000300: be41 283e bd6a 9f3d 94ab 6abd 0a60 20be
00000310: 2a33 b63c 87cc 2fba ad9a 9c3d b060 973d
00000320: c557 25be 52ac 15be af7d 45bd e692 1bbe
00000330: 0ff0 143c 0064 d63d 4329 2e3e b4ac 1abc
00000340: aff7 0abe f001 f73d e449 f6bd 5cf7 fc3d
00000350: 45d1 80bd 40e9 acbd 75d0 e33d 76da 4e3d
00000360: 46c2 4abd e1cd dc3d a470 1fbe 6e58 47bd
00000370: 382c c5bd 9184 05be be7d 1fbe e7ce e3bd
00000380: 79cb 733d 1c3c c3bd cd30 233e b08e 0ebd
00000390: 9acc 2b3d 2b69 043e 6581 263d 7b4b e8bd
000003a0: 2ab4 cfbc f440 f8bc e156 a4bd 5f23 d93c
000003b0: f60c 0abe 7a6b 1a3d 1456 f7bd 32ee 0e3e
000003c0: 3370 aabc 4d03 20be 0660 09be 137e 20be
000003d0: da24 7b3c 0f9c 123c 3d37 b7bd aea9 b0bd
000003e0: 6334 09be 7f51 d3bd baba 87bd b94c d9bd
000003f0: 3f71 783d 86cf 8c3d 1811 a0bd 7ff7 903b

convs.1.nn.0.bias f4 [32]
-0.034933854 0.058528833 0.031216333 0.03853462 0.13572557 -0.0961244 -0.01517859 0.14978054
-0.01508653 0.005953825 0.10839607 0.016106877 -0.014574663 0.09514821 0.061727263 -0.17224394
0.069201626 -0.03330406 0.031187339 0.012077064 0.116517775 -0.15348536 0.0727983 0.09297556
-0.13061228 -0.018905137 0.09397322 0.02713521 0.11687835 0.14210585 0.15222108 0.17369144
00000000: cd16 0fbd eebb 6f3d 65b9 ff3c 7ad6 1d3d
00000010: a5fb 0a3e dfdc c4bd 9faf 78bc 1260 193e
00000020: 7e2d 77bc 4e18 c33b c2fe dd3d 92f2 833c
00000030: 91ca 6ebc 11dd c23d bad5 7c3d b760 30be
00000040: 95b9 8d3d d769 08bd 977c ff3c e1de 453c
00000050: dfa0 ee3d 442b 1dbe 4617 953d f869 be3d
00000060: 3abf 05be f2de 9abc 0875 c03d a94a de3c
00000070: eb5d ef3d 3284 113e d8df 1b3e 2bdc 313e

convs.1.nn.2.weight f4 [32, 32]
0.16978133 -0.024961304 -0.038049873 -0.12707081 -0.037538186 0.04947363 0.09119112 0.013082229
0.1077136 0.15736695 0.11641125 0.03757966 -0.008539781 -0.11707364 0.102846995 -0.07623249
-0.0036842527 0.13773063 0.17546213 -0.01859668 0.12539326 0.14277314 -0.11066945 -0.02588122
0.061555225 0.115046404 -0.13117673 -0.0660107 0.13096178 0.13686985 -0.07561809 0.10490488
0.016247349 -0.07907039 0.08003074 0.13621274 -0.12895079 -0.11732076 0.13275191 0.008164609
0.092801504 -0.14374352 -0.13983695 0.12619682 0.0048317076 0.011490494 -0.07208227 0.10481347
0.041700944 -0.17206052 0.08840642 0.021161256 -0.07016011 0.12703061 0.066321656 0.073581964
-0.13457258 0.0974697 -0.15069062 -0.07115803 0.05379457 -0.09324669 0.10267684 0.09860995
0.03227515 0.12803614 -0.006176904 -0.055946223 0.11862773 0.0004895937 -0.103332646 -0.07203147
0.05514205 -0.0155739095 -0.0317682 0.06470543 -0.16569519 -0.06432949 -0.1682183 0.008346107
0.05189911 0.030222408 0.018686973 0.04824572 0.032607652 0.041964084 -0.06454583 0.1544114
-0.057119813 0.08435582 0.16906777 0.025125012 -0.098328106 -0.042791825 -0.15933369 -0.120961204
0.017943269 0.14883392 -0.030454231 -0.008943748 0.014350734 -0.093809806 -0.08626202 -0.13370967
-0.011360641 0.051517516 0.12546913 -0.1748316 0.09024876 -0.14720865 0.084518254 -0.122709975
-0.11397875 -0.14675146 0.14936335 -0.14572786 0.11972742 0.1512923 -0.11455006 0.1273819
0.16272454 -0.1693298 -0.114694916 0.13288294 -0.10662304 0.11586204 -0.10255226 -0.027994791
-0.113222204 0.027023274 -0.10712303 -0.09889441 0.03247062 -0.004980664 -0.010247509 -0.08495994
0.10341161 0.16249323 0.105927 -0.13708101 -0.14515229 -0.11272748 0.010279104 -0.011782363
0.025576562 0.05873138 0.10702837 0.08751842 0.04566682 -0.054315727 -0.016622912 -0.056268424
-0.12814127 -0.022433262 -0.16472146 0.13329667 0.124968715 0.010980079 -0.11694541 -0.05202538
0.04417386 0.1425687 0.1482083 0.056276698 0.08057152 -0.04604709 -0.11781526 -0.08858793
-0.06252886 0.024378076 0.002998934 0.11774974 0.15437384 -0.12366047 0.07473636 -0.061890192
0.08682448 -0.16574736 -0.052928872 0.100089416 -0.03749632 -0.08959987 0.13118263 -0.11194724
-0.11766448 -0.011567462 0.093152314 -0.11461566 0.1203208 -0.16989978 0.13766548 -0.1302674
0.009836172 -0.11869903 -0.14890571 0.17362905 0.073456466 -0.14810556 -0.15574612 -0.009323185
0.114192046 0.09797184 0.007119927 0.02275238 -0.1304555 0.107357405 -0.019181691 -0.14228454
-0.13073485 -0.036889426 -0.11142286 -0.05724196 0.17219529 0.007527578 -0.096003294 0.13720702
0.1639081 0.017219154 -0.004544215 0.020943465 -0.035719097 0.032853056 0.05492345 0.13319755
0.08275856 0.03419943 -0.013787369 0.13490124 0.07125177 0.05616233 0.12066042 0.036823492
-0.04999231 0.045218028 -0.08829618 0.10756509 -0.05607015 0.03922458 0.048690416 -0.1332103
-0.14822215 0.12173349 -0.1757188 -0.061642393 0.09994533 0.04349443 0.16883145 -0.1743469
0.060922213 -0.06709551 0.07329791 0.12802319 0.119439304 -0.175631 -0.06317901 0.123121575
00000000: 28db 2d3e a67b ccbc 2fda 1bbd da1e 02be
00000010: a4c1 19bd dca4 4a3d 69c2 ba3d d856 563c
00000020: f398 dc3d cd24 213e 0569 ee3d 21ed 193d
00000030: 70ea 0bbc 4ec4 efbd 72a1 d23d c81f 9cbd
00000040: 8173 71bb 4209 0d3e 58ac 333e 1158 98bc
00000050: 1767 003e 1f33 123e aaa6 e2bd da04 d4bc
00000060: 5521 7c3d 739d eb3d 3153 06be 9e30 87bd
00000070: d81a 063e 9c27 0c3e a8dd 9abd 5fd8 d63d
00000080: 2919 853c a8ef a1bd 28e7 a33d 5a7b 0b3e
00000090: ad0b 04be de45 f0bd 1ef0 073e dac4 053c
000000a0: b70e be3d 8031 13be 6b31 0fbe bd39 013e
000000b0: 4d53 9e3b a042 3c3c df9f 93bd 72a8 d63d
000000c0: 9cce 2a3d a230 30be 6d0e b53d 5f5a ad3c
000000d0: 1bb0 8fbd 5014 023e a6d3 873d 24b2 963d
000000e0: 65cd 09be 329e c73d a44e 1abe 4dbb 91bd
000000f0: b257 5c3d 1ff8 bebd 3c48 d23d 03f4 c93d
00000100: f332 043d e81b 033e a067 cabb de27 65bd
00000110: 18f3 f23d 1458 003a 11a0 d3bd 3c85 93bd
00000120: a1dc 613d b629 7fbc 5f1f 02bd 4884 843d
00000130: 00ac 29be 2ebf 83bd 6b41 2cbe 1cbe 083c
00000140: 2994 543d fc94 f73c 6c15 993c 4e9d 453d
00000150: 9a8f 053d 88e2 2b3d 9b30 84bd 061e 1e3e
00000160: 77f6 69bd bfc2 ac3d 1a20 2d3e f8d2 cd3c
00000170: 3f60 c9bd 7b46 2fbd 5f28 23be 82ba f7bd
00000180: c3fd 923c eb67 183e 277b f9bc cc88 12bc
00000190: 571f 6b3c 5b1f c0bd 24aa b0bd 30eb 08be
000001a0: fb21 3abc 0804 533d fb7a 003e 0e07 33be
000001b0: 58d4 b83d ddbd 16be e817 ad3d 5e4f fbbd
000001c0: b16d e9bd 0446 16be b5f2 183e af39 15be
000001d0: a633 f53d 5eec 1a3e 3999 eabd 6770 023e
000001e0: 43a1 263e cb64 2dbe 2be5 eabd 7712 083e
000001f0: 2e5d dabd 1449 ed3d eb06 d2bd 5555 e5bc
00000200: 0be1 e7bd ea5f dd3c 5263 dbbd 2789 cabd
00000210: eaff 043d d634 a3bb 2be5 27bc 7aff adbd
00000220: 77c9 d33d a064 263e 41f0 d83d f75e 0cbe
00000230: cda2 14be aadd e6bd b069 283c d00a 41bc
00000240: f085 d13c 5190 703d b131 db3d db3c b33d
00000250: 220d 3b3d 2b7a 5ebd c62c 88bc b879 66bd
00000260: 7737 03be f6c5 b7bc beac 28be ec7e 083e
00000270: 99ef ff3d cae5 333c 1381 efbd 9118 55bd
00000280: a6ef 343d 87fd 113e ebc3 173e 6582 663d
00000290: ae02 a53d e09b 3cbd 2149 f1bd 976d b5bd
000002a0: 220f 80bd 88b4 c73c c389 443b c726 f13d
000002b0: 2d14 1e3e b341 fdbd 600f 993d 9280 7dbd
000002c0: 08d1 b13d adb9 29be f2cb 58bd aefb cc3d
000002d0: be95 19bd 2380 b7bd bd54 063e 9844 e5bd
000002e0: 13fa f0bd 7485 3dbc a4c6 be3d 9dbb eabd
000002f0: c06a f63d 35fa 2dbe 2ef8 0c3e d164 05be
00000300: e527 213c 7a18 f3bd bd7a 18be d0cb 313e
00000310: 5870 963d fca8 17be e97b 1fbe 46c0 18bc
00000320: 85dd e93d 76a5 c83d 474e e93b 3363 ba3c
00000330: 2096 05be 33de db3d ec22 9dbc 0ab3 11be
00000340: 5bdf 05be 5e19 17bd ab31 e4bd 8c76 6abd
00000350: f653 303e e7a9 f63b 609d c4bd ff7f 0c3e
00000360: 86d7 273e 2f0f 8d3c a3e7 94bb a191 ab3c
00000370: 304e 12bd ed90 063d 69f7 603d f064 083e
00000380: 527d a93d b414 0c3d 6be4 61bc 8d23 0a3e
00000390: 73ec 913d 790a 663d cf1c f73d 3bd4 163d
000003a0: bdc4 4cbd 8a36 393d a1d4 b4bd 164b dc3d
000003b0: d0a9 65bd f4a9 203d 9a6f 473d 4868 08be
000003c0: 8cc7 17be 684f f93d a1ef 33be bc7c 7cbd
000003d0: 23b0 cc3d 3727 323d 27e2 2c3e fe87 32be
000003e0: 9289 793d 5f69 89bd 371d 963d 8318 033e
000003f0: 989c f43d 9dd8 33be ff63 81bd 2a27 fc3d

convs.1.nn.2.bias f4 [32]
-0.004025819 -0.12612122 0.033383366 -0.004349648 0.024785902 -0.11672741 0.0045520663 -0.11807619
0.1690095 -0.12616399 -0.15505409 0.06923107 0.007197593 -0.036503907 0.0918737 0.13774973
0.1524678 -0.008678432 -0.008090227 0.109868415 0.17552415 -0.032199107 -0.03330793 -0.011788433
0.029160636 -0.10913155 0.16693142 -0.016661959 0.074362025 0.16051152 0.08015424 -0.061613742
00000000: 04eb 83bb ec25 01be ffbc 083d 7e87 8ebb
00000010: ce0b cb3c c80e efbd 8029 953b eed1 f1bd
00000020: d410 2d3e 2231 01be 80c6 1ebe 05c9 8d3d
00000030: c9d9 eb3b 1f85 15bd 4728 bc3d 440e 0d3e
00000040: 8520 1c3e fb2f 0ebc df8c 04bc b102 e13d
00000050: 9abc 333e 36e3 03bd e56d 08bd 4624 41bc
00000060: 49e2 ee3c 5d80 dfbd 12f0 2a3e a97e 88bc
00000070: 1e4b 983d 225d 243e e827 a43d b15e 7cbd

convs.2.nn.0.weight f4 [32, 32]
-0.16212375 -0.013781581 0.16922495 0.16224152 -0.04036912 0.009860457 -0.14021349 0.012128396
0.073894516 0.028461061 -0.06768253 -0.16938749 0.0113107385 -0.13954252 0.044830926 -0.14633112
0.11468878 -0.15864505 0.033520047 0.07119164 0.15103772 0.16153102 -0.004079165 0.11675479
-0.032621507 0.1138043 0.14239997 -0.07572716 0.07719534 -0.051935397 0.08534261 0.15926896
-0.17180625 -0.1171511 -0.15536766 -0.13062927 0.121171 0.08116718 -0.10600629 0.06206675
0.13860051 -0.11600739 0.0746061 -0.0818773 0.03570443 -0.15931422 -0.08170277 0.039711375
-0.13131218 -0.08434278 0.088474736 -0.09791216 0.13507695 0.044309504 0.0704676 0.07949025
-0.061821762 -0.14555629 -0.14527102 -0.14313883 -0.08660222 0.051590063 -0.1326221 -0.11955239
0.06055233 -0.03013196 0.08026537 0.029069712 -0.0040736725 -0.14340301 0.06744193 0.04767326
-0.09724729 0.054379977 0.14463897 0.005523748 0.025143284 -0.0061323466 0.034338623 -0.09740543
0.048068408 -0.11907762 -0.13767959 0.1496251 0.13489959 0.16326304 -0.10461416 0.15281862
-0.15072197 -0.090185374 0.030456668 0.10495208 -0.1716017 0.1294737 0.01592727 0.063027
-0.00459815 0.16922337 0.00513833 0.022261078 -0.058428764 -0.091882415 0.11592429 -0.056695487
-0.043688096 0.053788394 -0.15286928 0.09096687 0.11653772 0.14838539 0.008102382 -0.10275086
0.12651937 0.10617371 0.16533929 -0.14218996 -0.105123535 -0.16916645 -0.122573934 0.14379427
-0.17083642 0.07095958 -0.028879054 0.15966184 0.16984966 0.039435077 -0.06798937 0.09702537
0.08620184 -0.051635608 -0.15348889 0.021496238 -0.057329956 -0.092926085 0.026023483 0.13219222
-0.17116702 0.097787105 -0.02049373 -0.013302758 0.16120124 0.006468589 -0.077930935 -0.04379663
-0.04154273 -0.13105452 -0.12525056 0.074124746 -0.1534664 -0.04501549 0.12304541 -0.016206855
-0.050223928 -0.05584274 -0.043175172 -0.12659222 -0.15774736 -0.021730673 0.037229117 0.12147113
-0.020727737 -0.112924546 0.077980116 -0.16645153 0.04300744 0.09213573 -0.02784765 0.09169845
-0.14824165 -0.06949145 0.08276077 0.1710377 0.1286693 0.044655103 -0.15514085 -0.040693007
-0.1369997 -0.13006611 -0.06432735 -0.05148477 0.14779109 -0.15500279 0.10929752 0.06830198
-0.12169134 -0.021185761 -0.11674275 0.031307478 0.048326474 -0.094215326 0.14049663 -0.09918926
-0.028186109 -0.005484517 -0.12350779 -0.033761613 -0.11231627 0.012220189 0.013082841 -0.15864104
0.14094374 0.008436297 0.16685173 0.019310871 -0.07261397 -0.064399384 -0.020593515 -0.037106
0.044087328 -0.02947657 -0.0905669 0.05952758 0.17542931 -0.024810294 0.0551482 -0.12250907
-0.11634942 -0.17519765 -0.08954828 0.09066706 0.1540704 0.17578839 0.018860968 -0.09034157
-0.009875781 0.07061338 0.09285792 -0.043976437 -0.030756503 -0.15483594 0.061938077 0.021087304
-0.124131516 0.025527356 0.030097269 -0.12388986 0.17136423 -0.09909458 0.08612367 -0.05670495
-0.11025102 -0.052751325 0.0003820088 -0.03543323 0.09353045 -0.15790014 -0.10227923 -0.038807716
-0.13619208 -0.089635804 -0.15472485 0.08645594 -0.08719125 0.10377217 0.15049137 -0.11605281
00000000: c503 26be 24cc 61bc 4e49 2d3e a422 263e
00000010: 175a 25bd c18d 213c 2094 0fbe 2eb6 463c
00000020: 0256 973d 2c27 e93c 239d 8abd ea73 2dbe
00000030: ad50 393c 3ce4 0ebe a2a0 373d d3d7 15be
00000040: f3e1 ea3d d973 22be 514c 093d eccc 913d
00000050: a2a9 1a3e 6368 253e 84aa 85bb 231d ef3d
00000060: 219e 05bd 3b12 e93d 4cd1 113e d716 9bbd
00000070: 9718 9e3d 36ba 54bd 1bc8 ae3d 6717 233e
00000080: faed 2fbe eaec efbd b318 1fbe aec3 05be
00000090: 8028 f83d fa3a a63d d319 d9bd b439 7e3d
000000a0: 4bed 0d3e 4895 edbd 15cb 983d 49af a7bd
000000b0: cf3e 123d 4423 23be c853 a7bd 65a8 223d
000000c0: b376 06be e8bb acbd 3e32 b53d 2c86 c8bd
000000d0: 9d51 0a3e e27d 353d 5151 903d c9cb a23d
000000e0: d138 7dbd b50c 15be edc1 14be fc92 12be
000000f0: 815c b1bd 1a50 533d 16ce 07be e2d7 f4bd
00000100: b805 783d 4dd7 f6bc 2c62 a43d 9b23 ee3c
00000110: 717c 85bb 3dd8 12be ff1e 8a3d 0945 433d
00000120: 9629 c7bd 8abd 5e3d 3d1c 143e 8f00 b53b
00000130: 4af9 cd3c daf1 c8bb a8a6 0c3d 807c c7bd
00000140: 61e3 443d f8de f3bd e1fb 0cbe 5237 193e
00000150: 1e23 0a3e 6d2e 273e f33f d6bd 7c7c 1c3e
00000160: dc56 1abe 1cb3 b8bd 4380 f93c 1ef1 d63d
00000170: 5bb8 2fbe c194 043e e879 823c 4d14 813d
00000180: 14ac 96bb e448 2d3e 705f a83b dd5c b63c
00000190: 0053 6fbd d92c bcbd b769 ed3d 8739 68bd
000001a0: 4af2 32bd 3851 5c3d c489 1cbe d74c ba3d
000001b0: 54ab ee3d 57f2 173e dabf 043c 0b6f d2bd
000001c0: 4b8e 013e 9a71 d93d b44e 293e 3f9a 11be
000001d0: 024b d7bd f839 2dbe 0b08 fbbd ce3e 133e
000001e0: beef 2ebe 4253 913d c493 ecbc 657e 233e
000001f0: 12ed 2d3e ad86 213d 033e 8bbd 3db5 c63d
00000200: 978a b03d dc7f 53bd 312c 1dbe e118 b03c
00000210: d1d2 6abd 0850 bebd 332f d53c 665d 073e
00000220: 6846 2fbe 9b44 c83d 78e2 a7bc d0f3 59bc
00000230: f011 253e 75f6 d33b 419a 9fbd 1864 33bd
00000240: b628 2abd 2833 06be af41 00be b7ce 973d
00000250: 4c26 1dbe 2a62 38bd 3bff fb3d 3dc4 84bc
00000260: 9bb7 4dbd 5bbb 64bd 73d8 30bd 64a1 01be
00000270: 8688 21be 8604 b2bc 8f7d 183d dbc5 f83d
00000280: 37cd a9bc fc44 e7bd 0ab4 9f3d 4572 2abe
00000290: 9228 303d a8b1 bc3d c120 e4bc 66cc bb3d
000002a0: a9cc 17be 8951 8ebd 7b7e a93d 8224 2f3e
000002b0: e3c1 033e 45e8 363d 3edd 1ebe b6ad 26bd
000002c0: a649 0cbe 0d30 05be 0fbe 83bd b2e1 52bd
000002d0: 8c56 173e 0db9 1ebe 61d7 df3d e9e1 8b3d
000002e0: 4f39 f9bd c38d adbc d316 efbd 453c 003d
000002f0: fbf1 453d f7f3 c0bd 59de 0f3e bd23 cbbd
00000300: 8ee6 e6bc 77b7 b3bb a7f1 fcbd 9e49 0abd
00000310: 1306 e6bd 3037 483c 6a59 563c cc72 22be
00000320: 8e53 103e 6538 0a3c 2edb 2a3e d531 9e3c
00000330: a2b6 94bd d3e3 83bd bbb3 a8bc 76fc 17bd
00000340: ea94 343d d978 f1bc 247b b9bd 31d3 733d
00000350: bea3 333e f53e cbbc 14e3 613d 09e6 fabd
00000360: 9b48 eebd 0367 33be 1765 b7bd a7af b93d
00000370: a2c4 1d3e df01 343e 5182 9a3c 0005 b9bd
00000380: 07ce 21bc bf9d 903d 4b2c be3d a320 34bd
00000390: 10f5 fbbc 508d 1ebe c8b2 7d3d 48bf ac3c
000003a0: aa38 febd bf1e d13c 8c8e f63c f8b9 fdbd
000003b0: 1b7a 2f3e 19f2 cabd 9b61 b03d 7343 68bd
000003c0: 49cb e1bd c611 58bd 5a48 c839 6f22 11bd
000003d0: e48c bf3d 93b0 21be c677 d1bd d7f4 1ebd
000003e0: f075 0bbe fa92 b7bd 3170 1ebe d00f b13d
000003f0: 5391 b2bd 8186 d43d 691a 1a3e 18ad edbd

convs.2.nn.0.bias f4 [32]
-0.07906514 0.14297886 -0.12489625 -0.018639311 0.1644666 0.10946796 -0.07669893 -0.056937404
0.015755497 -0.16578901 -0.17421623 0.11095776 0.14107603 -0.026691215 -0.14879243 0.1001065
0.09373295 0.08439486 0.048461962 0.07535126 -0.08906771 0.16991402 -0.013579087 0.010524874
-0.042580273 0.07216025 -0.1050472 0.10549382 -0.09507093 -0.17088212 -0.06275592 0.091603756
00000000: e7ec a1bd 0d69 123e 9bc9 ffbd 78b1 98bc
00000010: ef69 283e bd30 e03d 5414 9dbd 3237 69bd
00000020: ac11 813c 98c4 29be bd65 32be d23d e33d
00000030: 3c76 103e 89a7 dabc 0b5d 18be a304 cd3d
00000040: 10f7 bf3d 36d7 ac3d 0d80 463d c351 9a3d
00000050: 2269 b6bd f1fd 2d3e d27a 5ebc 8570 2c3c
00000060: a768 2ebd c1c8 933d fd22 d7bd 250d d83d
00000070: 8cb4 c2bd b9fb 2ebe 2d86 80bd c09a bb3d

convs.2.nn.2.weight f4 [32, 32]
0.14081179 -0.16110958 0.17187439 -0.17147943 0.13049592 -0.03173179 -0.13272686 -0.13977093
0.07793876 0.04293719 0.09087882 -0.16564596 -0.060581326 0.1494496 0.119607165 0.041513685
-0.114056006 -0.14185628 -0.08590987 0.077464655 0.17536443 0.018477423 -0.029859254 0.07214716
-0.17189522 0.11413428 -0.16047515 -0.12019496 -0.072957434 -0.019993056 0.07660016 0.16733226
-0.17141697 0.0446218 -0.15217838 0.027918058 0.10307576 0.060101096 -0.0982912 -0.07080472
0.07328451 0.07513938 -0.120980114 0.13598329 -0.07891317 -0.013119928 0.08702696 0.14314274
-0.14182706 -0.1408826 0.086305864 -0.00926326 0.09956183 -0.04329451 0.06158127 0.12672572
0.13388915 0.09136868 0.01090505 0.08183584 0.0051609636 -0.13628842 0.05099558 0.02709585
0.0390851 -0.052387238 0.06640004 -0.17227884 -0.122645326 -0.09814234 -0.17705579 -0.050176207
0.10074278 0.13587363 0.07432488 0.018859105 -0.051552318 0.07820188 -0.035375394 -0.16784413
-0.024587715 0.15180823 0.091641314 0.046826057 -0.04948619 0.11390957 0.16663389 0.05069721
0.1482188 0.018547872 0.09239406 -0.032700773 -0.08795397 0.0764553 0.097454414 -0.14775917
-0.03619195 0.054771088 0.01028624 0.17255633 -0.011364846 -0.11563717 0.13320102 0.17035791
-0.018929215 0.02938603 0.17314373 0.002989191 -0.028208243 0.14382422 0.1444816 0.010344141
-0.11351161 -0.14170273 -0.08407414 -0.15231596 -0.13647847 -0.008620759 -0.0017071017 0.08635802
-0.04135945 -0.012537756 0.13574517 0.044632223 -0.0063008536 0.04947789 0.14313172 -0.1562799
0.1489032 0.15195674 0.12539464 0.06653438 -0.052607346 -0.1641785 -0.034805655 0.15014641
-0.11629231 0.059744157 -0.067881726 0.009401147 -0.029889999 -0.10226002 -0.17137434 -0.0891321
0.0031071973 0.028441928 0.046216175 0.13271308 0.05500515 -0.17707446 -0.13607913 -0.07940525
-0.13504858 0.058440927 -0.028268332 0.168681 0.018945653 0.11789992 -0.08015373 0.17613286
-0.08206195 0.12145211 -0.035638455 -0.11539026 0.026679283 -0.16879408 0.076823786 -0.07271523
-0.043035515 -0.03268677 -0.05985728 0.10039504 0.1647538 0.05421278 -0.00998542 -0.11270458
0.12241977 -0.06128646 -0.14180371 0.12110766 -0.12237294 0.0020530333 -0.043012585 0.08732927
-0.13670026 -0.10724021 -0.17436758 -0.041058984 -0.17104904 0.09258787 0.10235861 0.08568203
0.122523144 -0.114280224 0.0015596247 -0.009878878 -0.10284485 -0.017420853 -0.034479342 -0.16965552
0.022177102 -0.06252744 -0.010052338 -0.016777884 -0.021174073 0.036317095 0.10155829 0.16504094
-0.1523421 0.10449572 0.07261424 0.14550047 0.1417138 0.07781811 0.038934287 0.06140034
-0.069219194 -0.09326945 -0.12966265 -0.071289636 0.15749292 -0.111742444 -0.13445228 0.09412684
0.083556235 0.11118448 -0.12026843 0.03597265 -0.052363127 -0.13463731 0.09162511 -0.06262771
-0.10429065 0.0062370123 -0.09053423 0.023869453 0.113576666 0.06405727 -0.0528095 0.1263675
-0.13783255 -0.08299786 0.010475977 0.17477112 0.03367414 -0.056933414 0.01745535 -0.020053145
-0.016496085 -0.12612097 0.09577199 -0.17522977 0.1076733 -0.090767466 -0.09398945 -0.0154025825
00000000: f730 103e e9f9 24be d7ff 2f3e 4e98 2fbe
00000010: b9a0 053e 32f9 01bd 8de9 07be 1c20 0fbe
00000020: 5b9e 9f3d e8de 2f3d ad1e ba3d 189f 29be
00000030: 2024 78bd 5109 193e 9af4 f43d 410a 2a3d
00000040: 3296 e9bd c642 11be 84f1 afbd caa5 9e3d
00000050: bc92 333e f75d 973c 659b f4bc e4c1 933d
00000060: 4d05 30be 3cbf e93d 9953 24be c628 f6bd
00000070: b56a 95bd 7ac8 a3bc 8be0 9c3d 2659 2b3e
00000080: ee87 2fbe 59c5 363d a6d4 1bbe 69b4 e43c
00000090: 6219 d33d 912c 763d e64c c9bd 1102 91bd
000000a0: 3016 963d ade2 993d 6cc4 f7bd 343f 0b3e
000000b0: 3a9d a1bd f7f4 56bc 313b b23d 0394 123e
000000c0: 1d3b 11be 8743 10be 21c1 b03d eec4 17bc
000000d0: 13e7 cb3d 9655 31bd a43c 7c3d 63c4 013e
000000e0: 3d1a 093e 811f bb3d 18ab 323c 8d99 a73d
000000f0: 4d1d a93b 318f 0bbe bee0 503d 1ef8 dd3c
00000100: b317 203d 0094 56bd bffc 873d dd69 30be
00000110: 792d fbbd dafe c8bd 1d4e 35be 9185 4dbd
00000120: 3b52 ce3d 7522 0b3e a537 983d 697e 9a3c
00000130: 8628 53bd 4f28 a03d cae5 10bd 55df 2bbe
00000140: 2d6c c9bc 9e73 1b3e 71ae bb3d aecc 3f3d
00000150: 08b2 4abd 6c49 e93d 13a2 2a3e e1a7 4f3d
00000160: abc6 173e b5f1 973c 1939 bd3d 3ff1 05bd
00000170: 3621 b4bd 9994 9c3d 2e96 c73d 2e4e 17be
00000180: 033e 14bd a657 603d 9e87 283c 9bb2 303e
00000190: 9e33 3abc 2ed3 ecbd d965 083e 4e72 2e3e
000001a0: 7111 9bbc f9ba f03c 974c 313e 4ee6 433b
000001b0: f914 e7bc a846 133e fcf2 133e 797a 293c
000001c0: c678 e8bd 851a 11be 102f acbd b7f8 1bbe
000001d0: 03c1 0bbe 153e 0dbc d4c0 dfba 79dc b03d
000001e0: 8768 29bd 296b 4dbc c800 0b3e 47d0 363d
000001f0: 6477 cebb 54a9 4a3d 1f91 123e d707 20be
00000200: 157a 183e 8c9a 1b3e 7467 003e 2d43 883d
00000210: cd7a 57bd 691e 28be 6090 0ebd fbbf 193e
00000220: aa2a eebd 4ab6 743d 9305 8bbd 4507 1a3c
00000230: dfdb f4bc b46d d1bd c17c 2fbe e48a b6bd
00000240: 1fa2 4b3b 0cff e83c 2c4d 3d3d f0e5 073e
00000250: 154d 613d 0253 35be 5458 0bbe 389f a2bd
00000260: 2d4a 0abe c15f 6f3d fd92 e7bc b6ba 2c3e
00000270: ea33 9b3c 8375 f13d a427 a4bd 2c5c 343e
00000280: 1810 a8bd e2bb f83d a1f9 11bd bb51 ecbd
00000290: 838e da3c 5bd8 2cbe ca55 9d3d b9eb 94bd
000002a0: 0246 30bd 90e2 05bd e82c 75bd ea9b cd3d
000002b0: 38b5 283e 380e 5e3d e399 23bc a9d1 e6bd
000002c0: 37b7 fa3d 8307 7bbd fe34 11be 4b07 f83d
000002d0: aa9e fabd 2f8c 063b f72d 30bd b0d9 b23d
000002e0: 27fb 0bbe c1a0 dbbd 6a8d 32be 772d 28bd
000002f0: 7b27 2fbe b69e bd3d 64a1 d13d 0f7a af3d
00000300: 6aed fa3d c00b eabd 526c cc3a 04db 21bc
00000310: 52a0 d2bd 2db6 8ebc 363a 0dbd 2dba 2dbe
00000320: c1ac b53c 630e 80bd 90b2 24bc c671 89bc
00000330: 4075 adbc 3cc1 143d cbfd cf3d 7e00 293e
00000340: 91ff 1bbe da01 d63d c6b6 943d 13fe 143e
00000350: 6c1d 113e 1a5f 9f3d 8f79 1f3d ec7e 7b3d
00000360: cbc2 8dbd 0e04 bfbd 49c6 04be 4d00 92bd
00000370: d345 213e 39d9 e4bd dcad 09be 93c5 c03d
00000380: 881f ab3d b0b4 e33d 4b4f f6bd 0f58 133d
00000390: b87a 56bd 5dde 09be f2a5 bb3d f542 80bd
000003a0: 5696 d5bd da5f cc3b 036a b9bd df89 c33c
000003b0: e29a e83d 7530 833d c64e 58bd 7b66 013e
000003c0: fa23 0dbe c8fa a9bd 6fa3 2b3c 33f7 323e
000003d0: e5ed 093d 0333 69bd 86fe 8e3c 7e46 a4bc
000003e0: cc22 87bc db25 01be 1b24 c43d 6f6f 33be
000003f0: d283 dc3d 4be4 b9bd 8a7d c0bd 1d5b 7cbc

convs.2.nn.2.bias f4 [32]
0.0064899577 -0.009687079 0.057723574 0.13704494 -0.15488715 0.049991906 0.012027169 0.13350116
-0.037937492 0.008632872 0.15390389 -0.072359525 -0.1403068 -0.15859729 -0.11069548 -0.012863367
-0.16402602 -0.07415422 0.0164435 0.16097698 -0.0040259324 0.12819439 0.10362703 -0.05258234
0.10051192 -0.06765949 0.0254194 -0.034439933 0.035783615 -0.057148267 0.07045155 0.08036909
00000000: b6a9 d43b 8eb6 1ebc 8e6f 6c3d 8255 0c3e
00000010: bd9a 1ebe 50c4 4c3d 9a0d 453c 87b4 083e
00000020: 5864 1bbd e470 0d3c fb98 1d3e 3b31 94bd
00000030: 96ac 0fbe 5467 22be 50b4 e2bd dfc0 52bc
00000040: 70f6 27be 2bde 97bd 85b4 863c 26d7 243e
00000050: f8eb 83bb 6445 033e 693a d43d 9460 57bd
00000060: 32d9 cd3d 0f91 8abd 583c d03c e310 0dbd
00000070: d791 123d 4d14 6abd e748 903d 8d98 a43d

lns.0.weight f4 [32]
1.0012319 0.9999331 0.9990213 0.9996935 1.0003421 1.0000833 1.0012541 0.99893445
0.9997937 0.99909073 1.000428 1.0011438 0.99866676 0.9998043 0.9998208 0.9999819
1.0004838 0.99954015 1.0012182 1.000531 0.99913615 0.9995939 1.0001118 0.9998576
1.0003635 0.9999633 1.0002953 0.99918723 0.99945253 1.0001506 1.0009917 1.0002947
00000000: 5e28 803f 9efb 7f3f dcbf 7f3f eaeb 7f3f
00000010: 360b 803f bb02 803f 1829 803f 2bba 7f3f
00000020: 7bf2 7f3f 69c4 7f3f 060e 803f 7b25 803f
00000030: a0a8 7f3f 2df3 7f3f 42f4 7f3f d0fe 7f3f
00000040: da0f 803f dde1 7f3f eb27 803f 6611 803f
00000050: 63c7 7f3f 63e5 7f3f aa03 803f abf6 7f3f
00000060: e90b 803f 98fd 7f3f ad09 803f bcca 7f3f
00000070: 1fdc 7f3f ef04 803f 7f20 803f a809 803f

lns.0.bias f4 [32]
0.0013103161 0.00036822713 0.0004507316 0.00022307519 -0.00023954689 0.00018199047 0.0003326724 0.0010157647
-0.000117054195 0.0005989507 0.00025456457 -0.0011075696 -0.0014296053 -0.00016944493 0.00024559273 -0.0004471895
-0.0005133066 0.000541452 -0.0011025682 -0.00063352374 -0.0006427923 7.196303e-05 -0.0003517277 0.0006764853
-0.0006026727 -0.00013516546 4.2624273e-05 0.0002083372 -1.0789337e-05 -0.00011151487 -0.000590277 6.311888e-05
00000000: eabe ab3a 9c0e c139 2c50 ec39 4ae9 6939
00000010: e12e 7bb9 b2d4 3e39 896a ae39 6823 853a
00000020: fe7a f5b8 e702 1d3a 1477 8539 de2b 91ba
00000030: 9861 bbba 07ad 31b9 e6c2 8039 c274 eab9
00000040: 6c8f 06ba 3bf0 0d3a 0d84 90ba 0f13 26ba
00000050: 1081 28ba dcea 9638 1868 b8b9 2956 313a
00000060: aefc 1dba 34bb 0db9 77c7 3238 1775 5a39
00000070: d903 35b7 17dd e9b8 d2bc 1aba b15e 8438

lns.1.weight f4 [32]
0.9994303 0.9997556 0.9989767 0.99966973 0.9995624 1.0012481 0.9997504 1.0006855
0.9990421 1.0000274 0.99870765 0.9991297 0.9998207 1.0001848 1.0005294 0.99952525
1.000152 0.9996793 0.9991939 0.99912685 1.0000571 1.0005506 1.0003618 0.9995631
0.9991384 1.0005324 1.0010803 1.0008304 1.000252 1.0003381 1.0005983 1.0007646
00000000: aada 7f3f fcef 7f3f f0bc 7f3f 5bea 7f3f
00000010: 52e3 7f3f e628 803f a4ef 7f3f 7616 803f
00000020: 39c1 7f3f e600 803f 4eab 7f3f f7c6 7f3f
00000030: 40f4 7f3f 0e06 803f 5911 803f e3e0 7f3f
00000040: fb04 803f fcea 7f3f 2ccb 7f3f c7c6 7f3f
00000050: df01 803f 0b12 803f db0b 803f 5ee3 7f3f
00000060: 89c7 7f3f 7211 803f 6623 803f 361b 803f
00000070: 4208 803f 140b 803f 9b13 803f 0e19 803f

lns.1.bias f4 [32]
0.00026502347 -0.000649058 0.0010292368 0.00024799764 0.0004118965 0.0004905707 -0.00014559028 -0.0010880519
1.7512151e-05 -0.0003160932 0.00060045056 0.00076775294 0.00022899863 -0.00018023686 -6.36083e-05 -0.00018787442
-0.0004926496 0.00013680501 -6.8240595e-05 0.0008449266 -7.0595954e-05 -0.0005305156 0.0005945251 -0.000475566
-0.00063802174 -0.0002490731 -0.0013281819 -0.0007739455 0.00022007841 0.00057804445 0.0010779032 -0.00080602436
00000000: d9f2 8a39 8c25 2aba 75e7 863a ae05 8239
00000010: d0f3 d739 a499 003a 98a9 18b9 f79c 8eba
00000020: 0fe7 9237 50b9 a5b9 8e67 1d3a 0743 493a
00000030: 5a1f 7039 f7fd 3cb9 7265 85b8 2800 45b9
00000040: 2825 01ba 5173 0f39 641c 8fb8 107e 5d3a
00000050: ea0c 94b8 4d12 0bba e7d9 1b3a 6355 f9b9
00000060: ea40 27ba 0796 82b9 6416 aeba 9ae2 4aba
00000070: d9c4 6639 e887 173a 6e48 8d3a 614b 53ba
