artery_model.pt (torch, 44312 bytes, 20 tensors)

weight f4 [32, 8]
000000 bb 96 4a be c7 63 78 be d4 08 48 be c6 fe 58 bd
       -0.19784062 -0.24256812 -0.19534618 -0.052977346
000010 49 60 63 3c 03 fa 2a 3d d8 5f 49 3e 7e 1b 04 be
       0.013877937 0.041742336 0.19665468 -0.12901112
000020 ff 5b 57 be b9 11 8a bd f3 92 ae 3e a7 58 27 bd
       -0.21031187 -0.067416616 0.34096488 -0.04085603
000030 ab b3 9f be 2c fb 8a 3e a0 be d5 3d 55 fb 81 3d
       -0.31191763 0.27144754 0.104367495 0.06346766
000040 19 16 67 3d 42 ef 7f 3e b6 28 2b be d9 49 87 3e
       0.05641756 0.24993613 -0.16714749 0.2642353
000050 e9 66 b7 3e 31 16 b5 bd 44 9d 44 3e 02 ce 30 3e
       0.35820702 -0.08842123 0.19200617 0.17266086
000060 28 d5 a1 3e fb 7b cd bd 43 db 62 be fb 68 0c be
       0.31607938 -0.10033413 -0.22153954 -0.13711922
000070 85 a0 6b be 59 9f 80 ba 87 85 a1 3e d2 74 a4 3e
       -0.23010452 -0.0009813114 0.31547186 0.32120377
000080 8d ab 81 3e 7e 79 e8 3c f9 97 ed bb f2 2e 6b 3e
       0.25326195 0.028378244 -0.0072507826 0.22967127
000090 ce f7 6b 3e 0e 3d 14 bd b0 0f d3 bd 1d 68 17 3e
       0.23043749 -0.03619104 -0.103057265 0.1478581
0000a0 39 64 e9 bc b1 3c 83 be 51 41 2b be 34 6d 95 3e
       -0.028490173 -0.2563224 -0.16724135 0.29184878
0000b0 04 a1 94 3e 3a 35 07 be e0 4f 94 bd 28 7a 43 be
       0.29029095 -0.13203898 -0.072417974 -0.19089568
0000c0 a6 eb f0 bd 56 63 9d 3e 72 9d 9c be a9 ab 33 3e
       -0.11763696 0.3073985 -0.3058887 0.17545952
0000d0 af 4f ad be c2 6e 21 be 96 ef ab bd cd b8 df 3c
       -0.33849856 -0.15764907 -0.08395307 0.0273098
0000e0 7c af 01 bd 57 ae 0c be 6d f8 20 be 1d ad 54 be
       -0.031661496 -0.1373838 -0.15719767 -0.20769162
0000f0 1b 45 7b be e6 3c 5b be 62 d2 b6 3e 7a 93 2c be
       -0.2453808 -0.2140995 0.35707384 -0.16853133
000100 a9 60 a1 be d0 88 5b 3e ce d6 f7 3d d9 83 71 3e
       -0.31519058 0.21438909 0.121015176 0.23585452
000110 01 fa b4 be 74 0e b0 be b8 64 8f be 49 e1 4c be
       -0.35346988 -0.34386027 -0.2800653 -0.20007814
000120 6a aa 3d bc df e6 13 3e 09 87 48 3e ad 7f a1 be
       -0.011576274 0.14443539 0.19582762 -0.3154272
000130 1f 75 16 3e ca 87 54 be 9c cd ab 3d 9b b2 ef 3d
       0.14693116 -0.20754924 0.08388826 0.11703988
000140 ac de 5e 3d e6 19 de 3d 46 2f ed bc 1f 35 5d 3e
       0.054411575 0.108447835 -0.028953206 0.21602295
000150 26 83 76 3d f8 e9 94 3e e4 82 b6 3d 2e 9f 2d be
       0.060183667 0.29084754 0.08911684 -0.16955253
000160 34 bf 85 3e b7 3e 64 3d d4 a7 be 3e f2 33 d7 bb
       0.2612244 0.055723872 0.37237418 -0.0065674717
000170 92 a0 b3 3e d2 69 34 be 8d b2 40 3e c3 1b 85 be
       0.35083443 -0.17618492 0.18818112 -0.25997743
000180 1b d9 89 3e 8c 44 a6 3d 15 89 68 3e 93 0d 8e be
       0.2692345 0.08118543 0.22708543 -0.2774473
000190 bf 9d bd be 29 28 3f 3e e1 69 08 be 02 62 00 3e
       -0.37034413 0.18667664 -0.1332164 0.12537387
0001a0 83 fc 53 be 55 8c c2 bd ff f0 58 bc 17 4e 47 3e
       -0.20701794 -0.094994225 -0.013241052 0.19463383
0001b0 b8 b1 45 3e 1f a4 59 bd d8 df be bd 25 2c 30 bc
       0.19306076 -0.053135034 -0.093200386 -0.010752712
0001c0 29 09 4b 3e 46 15 9c be 1f 89 f0 bd 29 72 a9 be
       0.19827713 -0.3048498 -0.11744904 -0.3309491
0001d0 79 b5 44 3d 24 a8 de bc 5b 1b 48 3e 75 df 93 3e
       0.04802463 -0.027179785 0.19541685 0.28881422
0001e0 39 6a 99 be 5f bc 29 be 47 56 3e bd 91 4e 49 bc
       -0.29963854 -0.16575764 -0.046469 -0.012286798
0001f0 40 f1 bc bd 17 dc 72 be 79 83 03 be f5 88 07 bc
       -0.09225702 -0.2371677 -0.12843122 -0.008272399
000200 b3 df 98 3e 9e c5 a0 bd f3 b8 7e 3e 9e ff 90 be
       0.2985817 -0.078501925 0.2487524 -0.2832002
000210 3c 14 4e b8 9a 2f 89 be 95 9c a1 be 5d bd 32 3d
       -4.9133072e-05 -0.2679413 -0.31564775 0.043637622
000220 ac ec 1d be c5 4c 8b 3e 0e 85 9b 3e b2 cf a8 be
       -0.15422314 0.27207008 0.3037495 -0.3297096
000230 c8 4d 3d bd 88 65 37 bd 8e bd 55 be ef 67 83 be
       -0.046216756 -0.044774562 -0.2087309 -0.25665233
000240 88 52 19 be 2e e8 27 3e c5 36 b0 3d a4 43 60 3e
       -0.1497289 0.16397163 0.086041965 0.21900803
000250 ac 6e a7 bb 4e bd 39 3e 93 1e 97 3d 36 ff a2 bd
       -0.0051096287 0.1813862 0.073788784 -0.07958834
000260 0c b5 f8 bc 7b 33 b0 be 9f de 95 ba ce 32 f9 bd
       -0.030359767 -0.34414276 -0.0011434144 -0.12167893
000270 28 89 fd bd d0 95 0c be b9 ab b9 bd 0c 8d 92 be
       -0.12379676 -0.13729024 -0.090659566 -0.28623235
000280 11 84 a6 3c 39 84 38 bc a7 8e c5 bd 5b 2a 9b 3e
       0.020326646 -0.011261993 -0.096463494 0.30305752
000290 b8 d8 66 3e ca a7 de 3d 7d 5c 0a be ad b8 85 3d
       0.22543609 0.10871847 -0.13511844 0.06529365
0002a0 bc 29 78 be 44 7c 76 3e 8a e3 a8 3e 2d e2 6e bd
       -0.2423467 0.24070841 0.329861 -0.058321167
0002b0 35 57 8e 3e 07 35 a3 3e 92 26 28 bb 3e 80 23 be
       0.2780091 0.31876394 -0.0025657755 -0.1596689
0002c0 e8 64 93 b9 4b 6d 6b 3d 25 f8 a9 be 5f 22 55 bc
       -0.00028113206 0.057477277 -0.33197132 -0.013008683
0002d0 86 5a 00 be 60 26 7f 3e a4 ba 12 3c 80 91 7e 3e
       -0.12534532 0.24916983 0.008955631 0.24860191
0002e0 4a b7 ac 3e e2 d5 ca bd 8e 2a cb 3d b9 4f 05 bc
       0.33733588 -0.09904076 0.09920226 -0.008136683
0002f0 34 86 47 be e5 74 35 be 13 f7 d4 3c 17 f1 bc 3d
       -0.19484788 -0.17720373 0.02599672 0.09225672
000300 3c 12 37 bd 8f a6 91 3d 17 57 71 3e 54 6b 1b 3e
       -0.044695124 0.07111847 0.23568378 0.15177661
000310 18 6a 02 3e 86 a2 d0 3d 74 24 82 be 46 7b 59 be
       0.12735784 0.10187249 -0.25418437 -0.21238431
000320 49 a2 88 be 43 f4 6c 3e 65 80 96 be ec 01 86 be
       -0.26686314 0.23140053 -0.29394832 -0.2617334
000330 fd e9 6d 3e 7f d4 57 3e 2b d7 ac be d5 b0 52 3e
       0.2323379 0.21077155 -0.3375791 0.20575269
000340 b4 4c c7 bd a9 e7 84 3d 92 2a 69 be ee 5d 52 bd
       -0.09731427 0.06489498 -0.22770146 -0.05135911
000350 00 15 3d 3d 96 66 8e 3e f9 03 48 3e 38 61 2f be
       0.046162605 0.27812642 0.19532765 -0.1712693
000360 44 1a 74 be c6 a5 5b bc 5f 8b e0 3d 59 17 4f 3e
       -0.23838145 -0.013406223 0.10964083 0.2022375
000370 8c 51 b5 be 58 b5 5b bc db a7 89 3c 8d a2 1e be
       -0.35413778 -0.013409935 0.016803673 -0.15491696
000380 45 2b 86 3e f9 36 fe bd 8c 0f b5 be e4 b8 6d be
       0.26204887 -0.12412829 -0.35363424 -0.23215061
000390 0d d8 a4 3c 3b 5b 91 be 0b 2d 72 3d 88 66 ac 3e
       0.020122552 -0.28389916 0.059124988 0.33671975
0003a0 68 c8 13 bc cc 43 ea bd 6c e1 a2 3e 6e 94 80 3e
       -0.009019949 -0.114387125 0.31812608 0.25113243
0003b0 8c 7b 6d 3e f1 e4 a0 3c fa 9e bc bb 62 02 83 be
       0.2319166 0.019640418 -0.005756256 -0.25587755
0003c0 13 0d 5a 3d 98 a4 b3 3e 01 cb 32 3d 77 b5 9a be
       0.053235125 0.35086513 0.04365063 -0.30216572
0003d0 a1 c7 40 3e ce 45 a3 3e 7b b9 a1 3e c6 19 3b 3b
       0.18826152 0.31889194 0.31586823 0.0028549298
0003e0 6e 6a af 3d 6c 51 a6 3d 1b 6b 15 be e7 17 00 bd
       0.08565222 0.08120999 -0.14591639 -0.031272795
0003f0 ac 62 9d 3e 7c ba 73 3d 85 e1 b0 3e 40 d5 4f be
       0.30739343 0.059504017 0.34547058 -0.20296192

bias f4 [32]
000000 ac 4b 8e bd 73 9d d9 ba 4d 02 55 be e9 bb 84 3e
       -0.06948027 -0.001660271 -0.20801659 0.25924614
000010 78 c6 7b 3e 6c 7e 3d be 51 f4 a4 3e c3 eb ab 3e
       0.24587429 -0.18505257 0.3221765 0.3357831
000020 db c9 5c be a6 d4 56 bc 78 da aa 3e 53 47 4c be
       -0.21561377 -0.013112223 0.33369803 -0.19949083
000030 b4 a8 20 bd 60 2e 87 be 6a 48 89 3e 1f 58 2e 3d
       -0.039223388 -0.2640257 0.2681306 0.042564508
000040 c6 cd 1d 3e f9 9c 89 3e 10 9b 6e bd bc c9 b2 be
       0.15410528 0.26877573 -0.058253348 -0.34919536
000050 ab 26 d6 3c d5 77 25 bd aa f1 10 3e 53 d1 3b 3e
       0.026141485 -0.040397484 0.14154688 0.1834157
000060 09 65 31 be 29 a5 0c be f0 c8 6c 3e 37 e7 ed 3d
       -0.17323698 -0.13734879 0.23123527 0.11616366
000070 9f 43 81 3d de c6 19 3e 09 ee 29 3e 5e 81 6d be
       0.06311726 0.15017268 0.1659471 -0.23193881

weight f4 [32, 32]
000000 01 13 6f 3c fb 59 a0 3c 18 5e 35 be 2f e4 3f 3d
       0.014591933 0.019574156 -0.17711675 0.046848472
000010 d7 7c 6c bb 26 75 0f 3e 5d 10 35 be 5b a8 2b 3e
       -0.0036085153 0.14009532 -0.17682023 0.16763441
000020 de 71 db bd 80 5b db 3d c6 93 05 3e 6e cf c4 bc
       -0.10715078 0.107108116 0.13044652 -0.024024691
000030 a0 61 a3 bd 7d 9d 10 bd 89 ff d4 bd 12 24 a9 3c
       -0.07977605 -0.035306443 -0.10400302 0.020647082
000040 b9 be a4 3d 40 e1 5c 3d 58 76 d4 bd 0e d4 c6 3d
       0.0804419 0.053925753 -0.10374135 0.09708415
000050 36 91 23 3e 5a f1 57 bd fd 43 c6 3d b6 dc 3f bc
       0.15973362 -0.052720405 0.096809365 -0.011710336
000060 88 d7 8d 3d 76 48 f8 bd 65 4e 15 be f4 c7 29 bc
       0.06925875 -0.12123196 -0.14580686 -0.010362614
000070 5a 58 16 be 22 d1 7f 3d 68 bd 30 3e 62 1c b8 bc
       -0.14682141 0.062455304 0.17259753 -0.022474471
000080 d9 34 b9 3b 89 53 9f 3c 6b b9 aa bd be d5 5d b9
       0.005652052 0.019449012 -0.08336147 -0.00021155828
000090 24 82 33 3d 28 39 07 3e 0f 9c 09 be c7 5e e7 b9
       0.043825284 0.13205397 -0.13438438 -0.00044130368
0000a0 62 2a 1c be ef 3b 94 bc d3 ec a6 bb 0f d5 bc bd
       -0.15250543 -0.018094985 -0.0050941496 -0.09220325
0000b0 92 12 ce 3d e0 d1 df 3d 29 0f 84 bd a0 57 c6 bc
       0.10062136 0.10928702 -0.06448204 -0.024211705
0000c0 72 11 7b bd ad aa 7e bc 97 d5 66 3d f3 86 27 3e
       -0.061295934 -0.015543622 0.05635604 0.16360073
0000d0 6c 99 26 be b6 bd 8b 3d 37 35 bc bd 0a 5a 23 be
       -0.16269463 0.06823294 -0.091898374 -0.15952316
0000e0 5b ae 05 3e 96 de 30 bd 8d 72 b6 bd b2 6d 2f 3d
       0.13054793 -0.043181024 -0.089085676 0.042829223
0000f0 42 43 04 bd e7 93 2b be 4c b7 b9 bd 33 7e 37 bd
       -0.032290705 -0.16755639 -0.09068164 -0.044798087
000100 c3 2e b3 bc 40 09 e6 bd ce e1 31 be 75 f6 c8 3d
       -0.021872884 -0.11232233 -0.17371294 0.09812633
000110 68 52 19 be 9a 3b 07 bd 2a c0 0b 3e cd ca 89 bd
       -0.14972842 -0.033015825 0.13647524 -0.06728134
000120 43 e3 d6 bd 20 1f 59 3d 00 06 1d 3e 74 8f f8 3b
       -0.104925655 0.0530082 0.1533432 0.0075854603
000130 d5 b2 37 3a fd bd 92 3d 9f 45 be 3c 9b a9 fb 3c
       0.0007007544 0.07165144 0.023226557 0.030720523
000140 30 10 d8 3d e7 51 c3 3d 15 8e 02 be d8 12 8e bd
       0.105499625 0.09537106 -0.12749512 -0.06937188
000150 58 a4 f2 3d b7 ac f1 3c 2b 1a cc 3c 65 4f 46 3e
       0.11847752 0.029501302 0.024914822 0.19366224
000160 81 c3 e8 3d a4 e1 3b 3d 56 0a 20 3e bf 9f 21 be
       0.113654144 0.045869485 0.15628943 -0.15783595
000170 d7 1c d0 3c 4b 92 4f 3d 1f ed 00 bd f9 9f ec bd
       0.025404377 0.050676625 -0.031476136 -0.1155395
000180 9f 24 3f 3d e2 4f 0f be 17 50 a8 bd d4 5a 07 3e
       0.046665784 -0.13995317 -0.08218401 0.13218242
000190 85 69 8c bd d9 9f e2 bc 9a ec 9d 3d 86 1a 2c bd
       -0.06856064 -0.027664112 0.07711144 -0.042017482
0001a0 be 70 3b 3c 4c 67 3d be ae 0d d0 3d ad 5f 44 be
       0.011440454 -0.18496436 0.10158859 -0.19177122
0001b0 ec 89 46 3c 23 72 1f be 8a 87 19 be 5e 79 18 3e
       0.012117844 -0.15570883 -0.1499311 0.14890048
0001c0 4a 17 dd bd b8 53 e8 bc d1 5d 13 3c 0a 65 29 3e
       -0.10795458 -0.028360233 0.008994536 0.1654245
0001d0 b9 bd 72 3d d5 17 af 3d ee d2 7c bd d8 a3 ba bd
       0.059262965 0.085494675 -0.061724596 -0.09113282
0001e0 8d 94 01 3e 46 71 9d 3d a9 c8 6a 3d d2 87 fe bd
       0.12654324 0.07687621 0.05732027 -0.124282494
0001f0 70 40 11 be cd 6f 12 3d b1 b3 0b be ea ed 1a 3e
       -0.14184737 0.035751153 -0.13642766 0.1512982
000200 75 b0 0a 3e 37 5d af bd 23 86 df bd 02 42 31 3e
       0.13543876 -0.08562701 -0.109142564 0.17310336
000210 c5 a2 bf bd 17 62 2e be fb 4f 04 be d2 ab 01 3d
       -0.09357218 -0.17029606 -0.12921135 0.031658
000220 1f b2 45 3d 45 b9 01 3e 2d f9 0c 3e e3 b7 e5 3d
       0.048265573 0.12668331 0.13766928 0.11216714
000230 14 d8 0b 3d 8e 0f 08 3e a5 0c 90 bd 42 d4 10 bd
       0.034141615 0.13287184 -0.07033662 -0.035358675
000240 de 09 2b 3e ca 9a 18 bd ef 91 b6 3d 00 03 1e 3d
       0.16702983 -0.037256993 0.089145534 0.03857708
000250 3c 7c 63 3d 92 bd 35 bd 9a 08 2c be a7 ea 22 3e
       0.0555384 -0.04437024 -0.16800156 0.15909825
000260 e3 95 12 3e 4e 16 22 be d3 d7 cc bd a2 b5 fb bb
       0.1431499 -0.15828821 -0.10002103 -0.0076815644
000270 99 9b bf 3d 08 95 ef bc bb 4b 9a bd 9c aa e0 3d
       0.0935585 -0.029245868 -0.07533976 0.10970041
000280 81 9b b2 bd 33 73 34 3e 1a 87 a2 3b 4c 95 ae 3d
       -0.08721066 0.1762207 0.004959953 0.0852457
000290 18 a2 3b 3d 3d 0e 64 3d 60 3e 10 3e bf 9d 81 bc
       0.04580888 0.05567764 0.14086294 -0.01582229
0002a0 52 e8 c3 3d dd 01 3d 3d 08 7f b4 bd 4d 7b a0 3d
       0.09565796 0.046144355 -0.08813292 0.07836018
0002b0 59 09 fd bd 44 e9 e5 3d 0a 72 40 bd 60 0a 4a 3d
       -0.123552985 0.112261325 -0.046983756 0.0493263
0002c0 24 60 19 bd 36 d9 ff 3c 90 c0 2e bd 8d 5e 82 3d
       -0.037445202 0.031231504 -0.04266411 0.063656904
0002d0 63 d4 bb 3d 32 a4 17 be ec 8f 39 3e 16 ad 35 be
       0.09171369 -0.1480873 0.18121308 -0.17741808
0002e0 4a d8 93 bd 5e 95 bd 3d 12 a8 41 3e a9 6c 90 3d
       -0.07218988 0.09257005 0.1891177 0.07051975
0002f0 e5 f0 e0 bd ea f0 18 3d 6f 7e ae bd d4 07 ef 3d
       -0.10983447 0.03733913 -0.08520209 0.11671415
000300 df 77 89 3c f4 58 3a 3c 13 64 0d be 5c 21 ad 3d
       0.016780792 0.011373747 -0.13807707 0.084536284
000310 5e 8e 25 3e 9b 49 e1 bd 74 6b 5b 3d 97 b3 93 bd
       0.1616759 -0.11000367 0.053569272 -0.072119884
000320 b2 1e 39 bd 76 c3 25 3e c6 12 30 be b5 3f 2b bd
       -0.04519529 0.16187844 -0.17194661 -0.041808803
000330 2a 34 4c 3d c5 87 bb 3d 82 de 8c bd d1 6f b4 bd
       0.049854435 0.09156755 -0.068783775 -0.0881039
000340 9b db 0b 3d 5e 96 30 be ab 01 98 3c 9e fc d6 bd
       0.03414498 -0.1724486 0.018555483 -0.10497402
000350 33 fe 17 bd fb 48 1c 3e 04 ae 21 be 67 59 c9 bd
       -0.037107658 0.15262215 -0.15789038 -0.09831505
000360 ea 78 10 be c0 92 e3 3d 0f 2a 0b 3e 84 7a e9 bd
       -0.14108625 0.11111975 0.13590263 -0.11400321
000370 fa 25 eb 3d 11 8a dd 3d 4f b1 28 be b1 2a 85 3d
       0.11481853 0.1081735 -0.16473888 0.06502283
000380 b7 89 91 3d 79 5c 09 bd 94 f5 05 3e 0b 49 96 bc
       0.07106345 -0.033535454 0.13081962 -0.018345376
000390 d5 97 97 bc 86 b9 a7 3d 8e 8b 11 be 82 28 37 be
       -0.018505016 0.08189683 -0.14213392 -0.17886546
0003a0 5b 9c 3c 3d dc 4d a4 3c 4e d7 89 3c eb 53 c5 bd
       0.04604755 0.020056657 0.016826298 -0.09635147
0003b0 d5 d9 0d 3e 74 08 f3 bd f1 b8 b6 bd 44 54 1f be
       0.13852628 -0.11866847 -0.089219935 -0.15559489
0003c0 3b cc 35 be 66 52 45 3d d8 72 86 bd 9a fc cd 3d
       -0.17753689 0.048174284 -0.065648735 0.100579455
0003d0 1e 0b 32 3e 4c e5 81 3d a1 c1 23 3e 25 5d 02 be
       0.17387053 0.06342563 0.15991832 -0.12730844
0003e0 e0 8e c7 3d d8 74 d7 3d a4 a5 86 bd ac 59 44 bc
       0.09744048 0.10520333 -0.06574562 -0.01198427
0003f0 ba 73 e6 bd 03 ed 95 3c 5c 9b 24 be 83 96 dd bd
       -0.11252542 0.018301493 -0.1607489 -0.108197235

bias f4 [32]
000000 13 7d 09 be 85 8e 26 be 87 7d 1f 3e 18 b1 10 3e
       -0.13426618 -0.16265304 0.15575229 0.14130056
000010 1c 71 1d 3e 12 9f a4 3d 12 e1 91 3d 52 ba b4 3d
       0.15375179 0.08038153 0.07123007 0.088246
000020 66 aa 07 3e ed cf f6 3c cb cd 04 3d 8a a2 09 3e
       0.13248596 0.030128444 0.032422822 0.1344091
000030 e7 3a 9c 3d 21 63 ef bd 29 14 e6 3d 5f 00 29 3e
       0.07628422 -0.11688829 0.11234314 0.16504048
000040 a4 a7 a4 bd f0 f7 1b be 04 5a 13 bd ba bd ea bd
       -0.080397874 -0.152313 -0.035974517 -0.11461969
000050 04 d6 21 3e b3 94 47 bd d6 df b9 bd 44 3b ee 3d
       0.15804297 -0.048725795 -0.090758964 0.11632398
000060 1c 66 57 3d bc e7 5e 3d 54 70 2e 3e 05 44 43 be
       0.052587613 0.054420218 0.17035037 -0.19068916
000070 ec 3f cf 3d 48 8e 78 bd 55 41 4e 3d 9b 2d 82 bd
       0.10119614 -0.060682565 0.050355274 -0.06356355

weight f4 [32, 32]
000000 f5 f2 25 3e fc 30 e4 3d bf 7b cd 3d 7d 86 d6 bd
       0.16205962 0.111421555 0.10033368 -0.1047487
000010 9d 01 d7 bd f5 66 46 3d a9 66 91 3c 10 36 fb 3d
       -0.104983546 0.04843803 0.017749147 0.12266171
000020 54 a7 2a 3e 1f 1c 1d 3e 8d f9 85 3d 68 23 11 be
       0.16665393 0.15342759 0.06541739 -0.14173663
000030 ef 53 d1 3c 40 8e 9f 3c ac 12 c3 bd 34 a1 14 bd
       0.025552718 0.01947701 -0.09525046 -0.036286548
000040 65 b2 1f 3c eb fd e4 bd ca e8 04 3d 88 8e 1e be
       0.009747122 -0.111812435 0.032448567 -0.15484059
000050 b0 5f d4 3d 0b aa a5 bd f3 c9 99 3d ad e1 0f bd
       0.103698134 -0.08089074 0.07509222 -0.03512733
000060 fe 05 db bd e5 b7 6c 3d cf 84 f7 bd e2 82 fa 3d
       -0.10694502 0.057792563 -0.12085878 0.12231995
000070 9c 51 86 3c 77 56 52 3d 1f fa d1 3d 43 c2 05 3e
       0.016396336 0.05135199 0.10252785 0.13062386
000080 c6 ff 12 3e e4 35 c0 3d 9c fe 19 3b 8f 2d 9d 3c
       0.14355382 0.09385279 0.0023497706 0.019186763
000090 9a 25 1c be 90 73 93 3d c9 1f a7 bc 35 e0 15 3e
       -0.15248719 0.07199776 -0.020400899 0.1463631
0000a0 7d a3 d5 3d a7 ed 50 bd 6e e0 e1 bd 3f 42 08 3e
       0.104315735 -0.051007893 -0.11029135 0.13306521
0000b0 06 8b 62 3c c3 1f b5 bd 90 9f 0d be 77 f6 1b be
       0.013827091 -0.08843949 -0.138304 -0.15230738
0000c0 94 87 d1 3d 30 fc 2d 3d 10 40 d3 3c 55 28 8f 3d
       0.102309376 0.042476833 0.025787383 0.069901146
0000d0 8e e0 f1 bd 7a 86 14 3e 3a 40 84 3d 66 44 ae 3d
       -0.118104085 0.14504424 0.06457563 0.0850914
0000e0 64 87 c6 bc 9d 80 36 be 6b 56 73 3c 5a 30 30 3c
       -0.024234481 -0.178225 0.014852147 0.010753715
0000f0 32 80 65 3d de 33 93 3d 9c 8d 7f bd 2f 1b 11 3e
       0.05603046 0.07187627 -0.06239091 0.14170526
000100 7a c9 09 bc 2d a9 1f be 50 71 c4 bd f9 c5 2a 3d
       -0.008409852 -0.15591879 -0.09591925 0.041692708
000110 e3 26 02 3e 23 ea d2 bd 3f c4 99 bd 06 f5 4e bc
       0.12710147 -0.10298564 -0.07508134 -0.01263166
000120 29 b1 26 be bc 0a 70 bd f5 41 dc bd db a7 1b 3e
       -0.16278519 -0.058603987 -0.10754768 0.1520075
000130 38 fb d8 bd 4c 67 8b bb cc eb 0d 3e 24 1d 04 bd
       -0.10594791 -0.0042542573 0.1385948 -0.032254353
000140 bc ad 0d 3e 49 d9 b0 bd 1d 0e 27 bc 03 fd d8 3c
       0.13835806 -0.08635194 -0.010196236 0.026487833
000150 dc 3d fb bd ea ac e1 3d 2e 4b 95 39 1e cb 43 be
       -0.12267658 0.11019309 0.00028475508 -0.19120452
000160 c5 26 93 3d 65 b0 84 bd a8 3f b7 bd 6d 9e 98 3d
       0.07185129 -0.06478957 -0.08947688 0.07452092
000170 fe 78 f1 3c 9c 54 dc bd ee c6 8b 3d 3f 84 de 3c
       0.029476639 -0.107583255 0.06825052 0.02716267
000180 5d 95 62 bd 6f 2b fa 3d 5d 45 2e 3c de ba 9b 3d
       -0.055318225 0.122153156 0.010636655 0.076040015
000190 71 5c 49 bd 67 41 ac 3d 70 23 3d 3d b0 12 07 3e
       -0.049160425 0.08410912 0.046176374 0.13190722
0001a0 a0 d4 19 be 26 d7 13 bd 44 03 d0 3d 69 ef c6 bd
       -0.15022516 -0.036093853 0.10156873 -0.097136326
0001b0 e8 6b 00 be 25 89 dc 3d c3 ed c1 3d bc 8a 1d 3e
       -0.12541163 0.10768346 0.094691776 0.15384954
0001c0 b8 ba 83 3d 0f c8 32 bd f8 c4 08 be 98 35 03 be
       0.06432098 -0.043647822 -0.13356388 -0.12813413
0001d0 4a 4e 84 3d ec 35 f7 bc 2e 91 2e 3e ca 0c 00 3e
       0.06460245 -0.03017708 0.17047569 0.12504879
0001e0 53 bb eb 3b 4c 83 32 3e b2 3b bf 3c ab 1c 2a 3d
       0.0071939616 0.17432898 0.023343895 0.041531246
0001f0 bf aa 41 3e 0c ea 35 bc 78 6b 3f 3d 87 69 eb bb
       0.1891279 -0.011103164 0.04673335 -0.0071842107
000200 00 46 33 3e 0f cd 9a 3d 63 ef 5b bd 1f b2 1d be
       0.17507172 0.07558643 -0.053695094 -0.15399979
000210 8d b4 c1 3c 72 ec e5 3c 9a 24 98 3d 71 ad a1 3d
       0.023645664 0.028066847 0.07428856 0.078944094
000220 e4 2e 28 be c7 1c 18 be ab 1a 46 bd 33 b2 41 be
       -0.16424137 -0.14854728 -0.048365276 -0.18915634
000230 c2 9d ce 3b ae 2a d1 3d 15 0a 2c 3e 75 2f 76 bc
       0.0063054273 0.10213219 0.16800721 -0.015025963
000240 32 da 07 be ca dd f2 3d c1 c7 fb bd b8 d2 d0 3d
       -0.13266829 0.11858709 -0.122939594 0.101964414
000250 7b 7c 81 bd 9a c2 b1 bd 48 c3 de 3d 47 df 61 3d
       -0.06322571 -0.086796954 0.10877091 0.055144574
000260 b6 22 3e bd 03 db d7 3d 1d b5 21 be 69 51 54 bd
       -0.04641982 0.1053982 -0.15791745 -0.05183545
000270 8f 69 c7 bd 50 33 ee bd f8 b3 23 be d3 c6 e8 bd
       -0.097369306 -0.11630881 -0.15986621 -0.11366048
000280 35 18 a0 3d b5 f3 b9 bd a9 03 1b 3e 97 93 25 bd
       0.07817117 -0.090796866 0.15138115 -0.040423956
000290 23 28 22 3d fa 54 00 3e c4 fd 3d 3d b6 6a ec bd
       0.03958906 0.12532416 0.046384588 -0.11543791
0002a0 07 04 a5 bc 8d e5 c9 bc 31 4e 8b bd fb 92 a1 ba
       -0.020143522 -0.024645591 -0.06802023 -0.0012327129
0002b0 9a 93 04 be cc f2 74 3c 85 31 ec bd 85 00 fe 3d
       -0.1294693 0.014950465 -0.115328826 0.12402443
0002c0 0b 6b aa bc e5 30 1b be da 39 04 be 65 1f 0d be
       -0.020802995 -0.1515537 -0.12912694 -0.13781507
0002d0 2e 8a f0 3c be 5f 71 3c a8 44 aa bd a9 b3 ca bd
       0.029362764 0.014732299 -0.083138764 -0.09897549
0002e0 3d 70 0d be a4 73 c9 bd ab 1b 79 bd d4 15 cd bd
       -0.13812347 -0.0983651 -0.0608174 -0.10013929
0002f0 1d df 95 3d 8c 0e a5 3d c9 b5 7b bd 8c 30 17 3c
       0.07317946 0.08059415 -0.06145266 0.009227883
000300 01 55 66 bd 27 b2 4f bd 26 6b 23 bc 31 47 3b bd
       -0.05623341 -0.05070701 -0.009974277 -0.04572219
000310 3c 84 08 3e 2e e1 fa 3c 4e a0 b8 3d 1f 62 11 3e
       0.13331693 0.030624952 0.09014951 0.14197586
000320 fd 8f 37 3c f7 14 b9 3c 35 c2 67 3d f1 1f 21 3e
       0.011203763 0.022593005 0.056581695 0.15734841
000330 83 3f 11 be 0d 22 c0 3c e3 a7 3d 3d 27 04 97 3d
       -0.14184384 0.023453737 0.046302687 0.07373839
000340 cc a9 8a 3c c1 20 16 3e 0c c0 20 3e 3b e1 34 be
       0.016926669 0.14660932 0.1569826 -0.17664044
000350 ec f8 e1 bd aa 6f b8 3d f7 1c 81 3d 77 f1 e2 3d
       -0.11033806 0.09005673 0.06304353 0.11081212
000360 fc 3d 01 3e 25 63 2e 3e ca cc a0 3d 21 21 a8 3c
       0.12621301 0.17030008 0.078515604 0.02052361
000370 20 9b 30 3e f5 6a 74 bc 99 17 36 bd e5 84 fb bd
       0.17246675 -0.014918079 -0.0444561 -0.12281207
000380 35 9a 3e 3e ad 89 f9 bd c4 b1 f1 b9 0c 24 3e 3e
       0.18613513 -0.12184463 -0.00046099548 0.18568438
000390 8a bb 13 be 73 54 f8 3d f2 86 af bc b9 57 a8 3d
       -0.14427009 0.121254824 -0.021426652 0.08219857
0003a0 c5 f1 df 3d ee 1f f1 3d 69 d7 b6 3d d9 5a c2 3a
       0.10934786 0.11773668 0.08927805 0.00148281
0003b0 14 ba d0 bd 15 6a f6 3d 1d fa 88 3d ff d3 96 3c
       -0.101917416 0.12031952 0.0668833 0.018411634
0003c0 33 6d 45 3d 80 dc 25 3d c6 65 14 be 99 83 29 be
       0.048199844 0.04049349 -0.14491948 -0.16554107
0003d0 60 fa 29 be b8 a8 c3 3a 30 cc f7 bd d4 47 18 3d
       -0.16599417 0.0014927601 -0.120994925 0.037177876
0003e0 bf 47 f7 bd 0e 22 cf 3d 5c 26 bf 3d 80 75 7e bd
       -0.12074231 0.10113917 0.09333488 -0.062123775
0003f0 14 1a 1e 3d 71 b1 c2 bc 94 2b 1d bd ae d3 e8 3d
       0.03859909 -0.023766251 -0.038371637 0.113685

bias f4 [32]
000000 46 8c 13 3b 9a f5 63 bd 61 75 9b 3d f7 f3 07 3e
       0.002251403 -0.055654146 0.075907476 0.13276659
000010 38 7d 02 be b0 9f fc bd ba f5 07 3e 1f 4a e0 3c
       -0.1274308 -0.123351455 0.13277331 0.027379094
000020 a9 b5 bc 3d 60 27 00 be b4 76 1e be 7a 98 01 3e
       0.092143364 -0.1251502 -0.15474969 0.12655821
000030 99 ff 17 3c 41 42 48 3c 97 8d 5c bd f1 18 e5 3d
       0.009277248 0.012222827 -0.053845968 0.11186398
000040 34 25 32 3d 28 ff 39 be a3 22 c9 3d 69 4a 50 3c
       0.04349251 -0.1816374 0.098210596 0.012713053
000050 e1 85 94 bd b1 b2 0b 3e 5e 2a 99 3d 18 9a 87 3d
       -0.07252098 0.13642384 0.07478784 0.06621188
000060 8e b9 11 be 42 68 e4 3d a3 05 0f be 31 cc 88 bd
       -0.1423094 0.11152698 -0.13966994 -0.066795714
000070 f4 e0 4a 3d a4 c6 be bd ba 5b a5 3d 7b 84 ae 3d
       0.04953094 -0.093152314 0.08074136 0.085213624

weight f4 [32, 32]
000000 bc 4e 6b 3d 15 47 22 3e e9 74 b3 bb 52 f8 a6 bc
       0.057448134 0.15847428 -0.0054765833 -0.02038208
000010 82 a7 17 3e 57 ef e7 3c 64 29 a4 bd 6d 03 af bc
       0.14809993 0.028312368 -0.08015707 -0.021363938
000020 ed ce 77 3d b6 71 e6 3c 2b 34 2a bc 2b e9 ca 3d
       0.060500074 0.028130393 -0.010388414 0.099077545
000030 b4 4d 1b be c6 b2 b4 bd d8 c1 4a be 9d 77 d1 3a
       -0.1516636 -0.08823161 -0.19800508 0.0015981082
000040 52 a1 96 3d 91 e1 64 3d bc b1 06 3d 33 7e 20 3d
       0.07354988 0.05587918 0.032884344 0.039182853
000050 80 e1 a7 3c 67 38 92 3d 5d cb 10 bd 0f 2b 17 3e
       0.020493269 0.07139664 -0.035350192 0.1476252
000060 27 7d 1c bd ae 8b 3c 3d a5 0f 4d 3e 2f 17 21 3d
       -0.038205292 0.046031646 0.20025499 0.03932875
000070 e4 e4 95 bd d4 e4 1a bd 14 2f 13 be 96 41 0c be
       -0.07319048 -0.037815884 -0.14373428 -0.13696894
000080 fb be 64 3c eb 24 0e 3e d5 56 21 bd bc 41 0d bc
       0.013961549 0.1388127 -0.03938945 -0.008621629
000090 34 8a b0 3c 50 07 c3 bd 4d 22 a0 bd 2c 24 f9 bd
       0.021550275 -0.09522879 -0.07819042 -0.12165102
0000a0 a3 83 81 bc 3f 7e 64 3d 17 02 01 3e 44 c3 3a be
       -0.01580984 0.05578446 0.12598453 -0.1823855
0000b0 f2 1e a1 3d 6f af 12 be a2 5a bc 3d 65 ec 01 be
       0.078672305 -0.14324735 0.09196974 -0.12687834
0000c0 b3 c4 de bd 37 33 17 be 44 e6 11 3e 7b 99 24 be
       -0.10877361 -0.1476563 0.14247996 -0.16074173
0000d0 7a 27 e8 3d 62 e1 19 3e 68 74 fc bd de fc f9 3d
       0.113356546 0.15027383 -0.1232689 0.12206434
0000e0 50 9c 25 3e 79 aa 24 be 23 f8 e8 bd 59 1d 06 3e
       0.1617291 -0.16080655 -0.11375453 0.13097133
0000f0 04 3a da bd d2 04 dd 3d 36 7e de bd 72 f0 b8 bc
       -0.10655597 0.10791935 -0.108639166 -0.02257559
000100 77 dd 07 be 16 72 27 3d 74 5e bd bd eb 39 dc bd
       -0.13268076 0.040880285 -0.09246531 -0.107532345
000110 f1 6d 58 3c 84 91 58 bc 74 18 4e bc 1e b9 eb bd
       0.013209806 -0.013218287 -0.012579072 -0.11509918
000120 a3 55 e7 3d 37 39 05 3e 31 ef b2 3d 3b 64 1a be
       0.11295631 0.13010107 0.087370284 -0.15077297
000130 90 18 04 be 33 8b b2 bd a0 17 67 3d d2 35 d4 3b
       -0.12899995 -0.087179564 0.056419015 0.0064761424
000140 96 89 94 3c 52 9b 19 3d ba 03 e8 3d 64 33 e6 3d
       0.018132012 0.03750164 0.11328836 0.11240271
000150 80 9b 2f 3d f6 fe ad bd 19 12 5d bc f0 52 27 bd
       0.042872906 -0.084958956 -0.013493084 -0.04085058
000160 b2 ec 05 be 23 37 39 3c 71 d7 38 be 66 79 07 3e
       -0.13078573 0.0113046495 -0.18050934 0.13229904
000170 75 cc f5 3d b0 64 bf 3c f3 b0 e9 bd 91 85 68 bd
       0.12001888 0.023363441 -0.114107035 -0.056768004
000180 e7 37 3a 3d 55 d3 e2 3d 62 ba 12 3e 5c 92 32 3d
       0.04546347 0.11075465 0.14328912 0.04359661
000190 c0 5b 82 3d d7 5e 5d bd c9 96 0a be 1f e5 ec bd
       0.06365156 -0.054045524 -0.13534082 -0.11567139
0001a0 02 10 8a bd 2e 73 30 3b a6 ad 77 bc 34 74 d6 3d
       -0.067413345 0.0026924121 -0.015117085 0.10471383
0001b0 21 e3 13 3e 2e 58 ff bd bc 2f 7c 3d 8a c2 84 bd
       0.14442112 -0.12467991 0.06156896 -0.06482418
0001c0 05 d9 90 3d 0e ec 35 be fd 28 82 bd ce 79 c4 3d
       0.07072643 -0.17765829 -0.06355474 0.09593545
0001d0 bc 9f 3f bd 1c 3c e3 bd ec 48 f8 3d bc 65 d6 bd
       -0.046783194 -0.11095449 0.12123284 -0.10468623
0001e0 4d 46 f9 bd 40 d3 9e bb 30 15 8c 3d 28 d0 fa bd
       -0.12171612 -0.0048469603 0.06839979 -0.12246734
0001f0 b7 d4 dc 3d 93 c6 30 be 0e 57 08 3e 57 a0 fc bd
       0.1078276 -0.1726325 0.13314459 -0.1233527
000200 98 68 cd 3b d9 f9 b9 bd 28 77 11 be 67 f3 3e 3e
       0.006268572 -0.09080858 -0.14205611 0.18647538
000210 22 97 a0 3d b5 51 05 be d5 2a 13 be 96 31 42 3c
       0.07841326 -0.1301945 -0.14371808 0.0118526425
000220 63 29 fa 3d 9b c9 f1 3d 87 08 f7 3b 80 2a 15 3d
       0.12214925 0.11806031 0.0075388583 0.036417484
000230 ee 28 ee bd 6a ec e6 3d 7f 6e d8 bc b0 bb 09 be
       -0.116289005 0.11275561 -0.026419876 -0.13450503
000240 e8 96 04 be 05 44 de bc cd 1c c3 bd 48 2d 5e bd
       -0.12948191 -0.027132044 -0.09526978 -0.054242402
000250 72 4e 24 3e 1e b4 a5 3c 34 2e a6 bd cd 00 10 3e
       0.1604555 0.020227488 -0.08114281 0.14062805
000260 32 b7 2c 3e 9a 01 51 3c 9e ff 23 3c 77 77 01 3d
       0.16866758 0.0127567295 0.010009674 0.03160807
000270 41 21 d1 bc d6 03 1c 3d 59 ab 79 3d f5 67 f9 3d
       -0.025528552 0.038089596 0.060954425 0.12178031
000280 cf 96 d9 3d ed 6d 5e 3d 7d 5e 04 bc d8 a2 0f 3e
       0.106244676 0.054304052 -0.008079168 0.14026964
000290 67 33 c3 3d b2 54 86 3d c9 5a fd 3d 10 a9 52 3d
       0.095312886 0.06559123 0.123708315 0.05143076
0002a0 4e 56 3f bd 36 67 8f 3d 36 fd a7 bd a3 0f f2 3d
       -0.046713166 0.07002108 -0.08202593 0.11819389
0002b0 29 29 51 bd e5 a5 bf 3c 9f 14 0f 3d 51 21 09 be
       -0.051064644 0.023394534 0.034931775 -0.13391615
0002c0 f7 3a ed bd a0 81 0d 3e 88 bb 2b be 39 8b 2e bd
       -0.11583512 0.1381898 -0.16770756 -0.04261324
0002d0 9f 69 dc 3d a9 a7 a5 3d a4 3d 2b 3e 75 4e 27 be
       0.10762333 0.08088619 0.16722733 -0.16338523
0002e0 1c 7f 7b 3d 57 6e b6 bd 63 b1 be 3d e5 7c 06 3e
       0.061400518 -0.089077644 0.093111776 0.13133581
0002f0 fb 1a 01 3e 76 98 27 be 76 27 63 bd f1 e8 f3 3d
       0.12607948 -0.16366753 -0.055457555 0.119096644
000300 5e 29 27 3d e7 2b 21 be 5a be f5 3d 1f f0 ed 3d
       0.040810935 -0.15739404 0.11999197 0.11618065
000310 da e5 c1 bd bc 1e 71 bd ec 08 fe bd f8 fa 1a be
       -0.09467669 -0.0588672 -0.124040455 -0.151348
000320 12 d5 8d bd 1b b1 59 bd ea ea 5f bc 1d 35 b1 3d
       -0.069254056 -0.053147417 -0.013666848 0.08652709
000330 b3 33 26 3e 0c e6 60 3d bd 3e 18 3e 26 a9 fc 3d
       0.16230659 0.05490689 0.14867683 0.1233695
000340 ec e1 19 3d c8 d2 cf bd 3d 99 98 3d ba 51 4a 3d
       0.03756897 -0.10147625 0.07451103 0.049394347
000350 7d 23 27 be df e2 54 bd f7 53 92 bd 20 17 aa 3d
       -0.16322131 -0.051974174 -0.07144921 0.08305192
000360 59 77 aa bd b5 ff e4 3d 55 bd cd bc 38 be f8 bc
       -0.08323545 0.11181585 -0.025114695 -0.03036414
000370 56 be 81 3d 4a 33 f1 3d b7 f2 79 3d b5 a9 c8 3c
       0.06335132 0.11777361 0.061022487 0.024494985
000380 5d 66 a4 bc c0 d5 32 bd e8 c6 cc 3d 80 b0 36 bd
       -0.020068342 -0.04366088 0.09998876 -0.044601917
000390 ba 32 f0 3d ce 01 cb 3d ca 38 31 be fd 73 6a 3c
       0.11728425 0.099124536 -0.1730682 0.01430988
0003a0 c5 20 db bc 7c 92 21 3d b3 ce 02 3e 13 a4 31 3b
       -0.026749024 0.03944634 0.12774162 0.0027105852
0003b0 80 c9 9b bd d6 b7 82 ba 35 00 17 bd 25 c3 fc 3d
       -0.076067924 -0.0009973 -0.03686543 0.12341908
0003c0 ca d8 c0 3d 88 d0 0b bc dd b9 14 be 85 8c 0c 3d
       0.09416349 -0.008533604 -0.14524026 0.034313697
0003d0 ac 5c 2f 3e 8a e9 84 bc f2 d8 24 3d 67 c1 e6 bd
       0.17125195 -0.016224641 0.040245958 -0.11267357
0003e0 66 7a 29 3d ae 51 1c 3e c0 08 9d bc 74 97 06 bd
       0.041376494 0.15265533 -0.019169211 -0.03285928
0003f0 2e 93 15 3d fa cf 17 be 88 13 bc 3b 30 6a 64 bd
       0.036517315 -0.1482543 0.005739633 -0.05576533

bias f4 [32]
000000 5e 95 8e bd cd 1c b5 3d aa 15 7c 3d a6 ea 85 bd
       -0.06962083 0.08843384 0.061544098 -0.06538896
000010 d7 47 0d be f5 0d cf bd 5c b3 30 be 96 2e ab 3b
       -0.13796936 -0.10110084 -0.1725592 0.0052240593
000020 8f 75 d2 3d b0 be fb bc e3 ab ec 3d be 1a 3b bd
       0.10276329 -0.030730575 0.11556222 -0.0456798
000030 43 57 95 3c a6 3a c8 bd 45 dd 86 bd 26 f2 06 3e
       0.018230086 -0.09776811 -0.065851726 0.1317831
000040 3b cf 16 3e 42 76 4a 3d c8 ec 5a bc fe e8 d3 bc
       0.1472749 0.049429186 -0.013362117 -0.025867935
000050 00 fd 02 be 88 37 c8 bc 81 34 a6 bd ed 8d 97 3d
       -0.12791824 -0.024440542 -0.08115483 0.07400117
000060 ac b5 22 be ef b6 38 3d 5e b7 c0 3c 3a 6f 15 be
       -0.15889615 0.045096334 0.023524936 -0.14593211
000070 ec 06 8c bd 0a bd e4 3d 7f 00 55 bd dc 4b 95 3d
       -0.06837258 0.11168869 -0.052002426 0.0728986

weight f4 [32, 32]
000000 6e c5 a2 3d 99 f5 9c bd ba 98 d3 3c 66 d3 11 bc
       0.07947813 -0.076640315 0.025829662 -0.008900499
000010 1a ab 2c bd ff ef a7 bd 4f 7b a9 3c 19 0c 17 3c
       -0.042155363 -0.082000725 0.020688681 0.009219193
000020 39 bd 0a be 18 69 c0 3d 13 80 e6 3d 69 ff 47 bb
       -0.13548745 0.09395045 0.11254897 -0.0030517227
000030 d4 b9 b4 bb 3a 34 a2 3c 91 3a 7c bb a9 16 15 be
       -0.0055153165 0.019800294 -0.0038487057 -0.14559425
000040 e7 e4 1c 3d 87 d8 8c bd c5 8b c7 bd 73 5c e4 3d
       0.038304236 -0.06877237 -0.09743456 0.11150446
000050 3c 77 c4 3d fd 75 52 3e 87 b3 bf bd aa a5 07 3e
       0.09593055 0.20552821 -0.09360414 0.1324679
000060 16 ac 44 be 89 5d 05 be 0d d2 73 bc 05 f9 16 3e
       -0.1920627 -0.13023962 -0.014881623 0.14743431
000070 ae cb 65 be fa 83 b6 3d fa fa b1 3b ca 19 e7 3c
       -0.22440979 0.08911891 0.00543153 0.02821054
000080 71 d9 10 bc 16 c3 49 3e 5e 01 30 3d a7 88 0c 3d
       -0.008840905 0.19703326 0.042970054 0.03431001
000090 f3 44 3c bd 6a b5 02 be e4 e6 17 3e 6a 1c 33 bd
       -0.045964193 -0.12764516 0.14834172 -0.04372827
0000a0 bb 20 0a bd 3d eb 10 3d 08 20 12 be 3a 6a b8 3d
       -0.03372262 0.03538059 -0.14270031 0.09004636
0000b0 8c b9 d8 3d e8 02 1c 3e b0 f7 88 3c b6 46 97 bd
       0.10582265 0.15235484 0.01671967 -0.07386534
0000c0 18 a4 00 3e 31 18 99 3d 0e 56 1f 3e d8 91 04 be
       0.12562597 0.07475317 0.15560171 -0.1294626
0000d0 82 1f bc bd 28 02 41 be 9f bb fb bd ec 61 0e 3e
       -0.09185697 -0.18848479 -0.12291645 0.13904542
0000e0 0a 29 1a be bc 2d ac 3d f6 0d 2e 3b 54 31 0b 3e
       -0.15054718 0.08407161 0.0026558614 0.13593036
0000f0 00 29 51 3e 65 ce 5b 3d 5b bf 57 bd 52 bb d0 3d
       0.20425797 0.05366363 -0.052672725 0.101919785
000100 80 4b ba 3d b3 59 7e bd eb 80 21 be 3b f2 ce 3c
       0.09096432 -0.062097263 -0.15771835 0.025261989
000110 40 31 5c bd 57 7f a0 bd b0 a1 6b 3c 36 79 0a 3e
       -0.053757906 -0.07836788 0.014381811 0.13522801
000120 b9 db 28 be b3 2c ca 3d 00 64 86 bc 3d 2a 12 bc
       -0.16490068 0.09871807 -0.016405106 -0.008921203
000130 57 a5 31 3e 7f 9d 82 34 02 97 96 bd 9e 63 6d bd
       0.17348228 2.432898e-07 -0.07353021 -0.05795633
000140 c1 40 33 bd aa c9 eb bd 3e e9 05 be 83 ef 9e 3d
       -0.043762926 -0.11513074 -0.13077256 0.07760527
000150 b1 c2 19 be 00 2d 33 bd e1 3e f3 3d 5a 61 02 bc
       -0.15015675 -0.043744087 0.118772276 -0.007957781
000160 4d 56 28 bd f2 be 58 bd 25 51 71 bd b0 66 02 be
       -0.041097928 -0.052916475 -0.058915276 -0.12734485
000170 85 ea 2d be 2c be 92 bc 6b 56 fd 3c 63 b5 03 3e
       -0.16983993 -0.017912947 0.030924996 0.12862162
000180 f3 52 38 bd 4c 0e ce bd 1d 94 e6 3d e7 9e 36 be
       -0.04500098 -0.10061321 0.11258719 -0.17834054
000190 52 e3 01 3d 4e b2 49 3d 83 8a 1a 3c 97 81 a3 3d
       0.03171093 0.04924231 0.009432438 0.07983702
0001a0 64 4c 29 be 30 f6 ac bd 62 76 8b 3d 08 c2 1b 3e
       -0.16533047 -0.08445394 0.06809689 0.15210736
0001b0 c9 28 d4 3d 73 4a 7a 3d ec 2f 2d be f9 f0 f8 ba
       0.10359342 0.061106157 -0.16912812 -0.0018992714
0001c0 3e 5b fa bd ae 37 2d be e2 aa 4b bd 5f ba 7f bd
       -0.12224434 -0.16915771 -0.049723513 -0.062433597
0001d0 6b 05 12 3e da 1e 29 be f6 e3 f8 3d 97 9e 4a 3d
       0.1425988 -0.16515675 0.12152855 0.04946765
0001e0 fc 07 10 be 9d e6 03 bd 18 15 a4 bd de c9 1d 3d
       -0.14065546 -0.03220235 -0.08011836 0.038522594
0001f0 d3 53 b5 3d 59 4e d7 bd 50 81 20 3e 4b 3d ea bd
       0.08853879 -0.105129905 0.15674329 -0.11437472
000200 05 ce 51 bd 93 13 95 bb d2 88 ad bd 4e 2b 4a bd
       -0.051221866 -0.0045494526 -0.08473362 -0.049357705
000210 8d c8 01 be 13 9c e4 bc 82 51 57 3d 5f 18 31 be
       -0.1267416 -0.027906453 0.052567966 -0.17294453
000220 01 31 fb 3d ee 14 f1 bb f2 b1 18 3e c0 bc dc 39
       0.12265206 -0.0073572313 0.14911631 0.000421023
000230 6a 1c c9 bd 39 5f 2b bd 2f 13 1d bd 80 66 75 3b
       -0.09819873 -0.04183886 -0.038348373 0.0037445128
000240 e7 5c 6c 3d 8a bd 85 bd da 42 9c bd 6d 87 3a 3d
       0.057705786 -0.06530292 -0.076299384 0.04553931
000250 83 91 31 3e 6b 66 13 bd aa 36 8c 3d 54 5a 14 be
       0.17340665 -0.035986345 0.06846364 -0.14487582
000260 3b db 0d be 2f 80 41 be c3 9f 48 bd ab 2f cf 3d
       -0.13853161 -0.18896554 -0.048980486 0.10116514
000270 8d 3f 4b 3e dd 61 23 3e 16 4b 21 3d 1c 73 db bd
       0.19848461 0.159553 0.03937825 -0.10715315
000280 c5 d0 7a 3b 7e 3b 98 3d 80 ee 98 3d 98 4a d0 bc
       0.003827141 0.07433222 0.07467365 -0.025426194
000290 70 81 4e bc aa 3d 0b be 5e 0c 16 3d 25 b3 20 3d
       -0.0126041025 -0.13597742 0.036632888 0.039233346
0002a0 c8 99 d7 bd 6f e5 d1 3c aa 1f 3e 3d 37 21 dc bd
       -0.10527378 0.025622098 0.046416916 -0.10748523
0002b0 ec 9c 45 3e 64 40 f2 bd 2f c0 d3 3d f2 32 b4 bd
       0.19298142 -0.11828688 0.103393905 -0.087987795
0002c0 54 7a fc bd d7 4d 13 bd 05 bc 8a bc 0a 73 8e bc
       -0.1232802 -0.035962906 -0.016935358 -0.01738884
0002d0 f3 43 d5 3d 46 fc 24 be 37 48 eb bd 0d 03 95 bc
       0.10413351 -0.1611186 -0.11488383 -0.018189931
0002e0 3d 26 e2 bd 23 36 94 bd be 28 36 be e1 d2 88 3d
       -0.110424496 -0.07236888 -0.1778898 0.06680847
0002f0 7a 15 c5 bd 09 9e f7 3d f9 ac 0b 3e 92 13 c8 bd
       -0.09623237 0.1209069 0.13640203 -0.09769358
000300 9b 69 fd 3d ab 12 e8 ba 5c 46 4c 3e 37 c0 79 3d
       0.12373658 -0.0017705759 0.19948715 0.060974326
000310 df 71 af 3d 5e 91 8e bd db ef 93 3d ab d7 b3 bc
       0.08566641 -0.0696132 0.07223483 -0.021953424
000320 85 6a 1b 3d d2 90 96 3c e9 8f 0e be b2 b5 15 3e
       0.03794338 0.018379603 -0.13922085 0.14620093
000330 cd 6a 1c be 96 c5 30 3e 45 c6 05 be 13 20 94 3d
       -0.15275116 0.17262873 -0.13063915 0.0723268
000340 39 1c 0e 3e 9f ba 32 be 50 5a b9 bd c8 ab 0e 3e
       0.13877954 -0.17454003 -0.09050429 0.13932717
000350 22 33 e1 bd 73 a3 cd 3d cc 61 f0 3d e3 66 08 be
       -0.10996081 0.10040941 0.11737403 -0.13320498
000360 ce 9a f8 bd 74 0b 31 be b4 eb 8d bc 65 48 79 bd
       -0.12138902 -0.17289525 -0.017324306 -0.060860056
000370 95 9f 11 3e a0 66 16 be b7 8e 22 be f4 04 43 3c
       0.14221032 -0.14687586 -0.15874754 0.011903036
000380 4f 6a 9d bd 15 bf 22 3e f5 44 41 3e 09 b8 e6 3c
       -0.076862924 0.15893205 0.18873961 0.028163927
000390 7e e0 7d 3d 0e a2 06 3e 1c 4c 8b 3d b8 d9 e1 3d
       0.06198167 0.13147756 0.06801626 0.11027855
0003a0 db 35 0e 3e fc 47 3b be 10 37 cf 3d af 1b 97 3d
       0.13887732 -0.18289179 0.10117924 0.07378327
0003b0 c4 4d a2 bc 72 c2 9b 3d 7c de 06 3e 1a 6a 95 bc
       -0.019812472 0.07605447 0.13170809 -0.01823907
0003c0 6f bb f3 bd 70 48 91 bc 7f ef 23 3e a6 1a 9f 3d
       -0.119009845 -0.017734736 0.1600933 0.07768755
0003d0 a0 b4 5a bd b3 7d 38 bd 5c f2 50 3d 1a be bd bc
       -0.053394914 -0.04504175 0.051012382 -0.023161937
0003e0 9b 87 98 3c 47 a6 44 3d 1d c6 6d 3d ad ee 47 bd
       0.01861935 0.048010137 0.058050264 -0.048811603
0003f0 d4 64 ec bd 58 71 88 bd 1c 44 3f 3e 43 cc a0 ba
       -0.11542669 -0.066622436 0.18678325 -0.0012267906

bias f4 [32]
000000 ba a5 06 be 1a 22 f8 3c ed 91 1e be 57 de 23 3d
       -0.13149157 0.030289698 -0.15485354 0.04000696
000010 69 66 f2 3d fa 58 31 3d ab e4 b6 bd 02 06 75 bd
       0.118359394 0.043297745 -0.08930334 -0.059820183
000020 06 de a7 3d f5 82 a4 3d 17 3d c0 bd 76 68 1f 3e
       0.081966445 0.080327906 -0.09386652 0.15567192
000030 49 c7 87 bd 7b 71 c9 3c e6 bd f0 3d bd 2e 26 3e
       -0.066298075 0.024590245 0.1175497 0.16228767
000040 0d 92 ee bd 7b 2a 00 be 33 ff 9e 3d cd 42 27 3c
       -0.11648951 -0.12516205 0.07763519 0.010208798
000050 c3 e5 f9 3d 09 7e a5 bc 55 5b 64 3d cb 1d 15 3e
       0.12202027 -0.0202017 0.055751164 0.14562146
000060 b4 ca 1c 3e 80 0d c6 3d f2 98 c6 3c 8b c5 b5 3d
       0.153117 0.09670544 0.024242852 0.08875569
000070 20 c5 a2 3c 8a 60 ed bd 9b ab 9c 3d 39 92 32 3d
       0.019869387 -0.11590679 0.07649919 0.04359648

weight f4 [32, 32]
000000 f2 6e 95 3d 54 5a 69 bd 7a 2c 88 3d e3 34 3d be
       0.07296552 -0.05697091 0.06649108 -0.18477206
000010 6e ca 06 be b7 84 dc bd c5 88 40 be 83 d4 86 bd
       -0.13163158 -0.10767501 -0.18802173 -0.06583502
000020 1c 63 ef 3d 40 1a 05 3e b6 9f 68 3d 06 dd 19 3d
       0.116888255 0.12998295 0.056792937 0.0375643
000030 6d fc 8c bd ff 77 70 3d 30 3a 85 bd c5 0b 1b be
       -0.06884084 0.058708187 -0.06505239 -0.15141208
000040 e8 60 08 3b 60 4d 2f 3e f4 b3 b6 3d 1e 3f 7b 3d
       0.0020809714 0.1711936 0.08921042 0.06133949
000050 40 3e 29 bd 30 19 e0 3d 48 23 22 3e 83 6c 81 3d
       -0.04131913 0.10942304 0.15833771 0.06319525
000060 81 93 19 3e 1e 8b db 3c 50 2c a0 3d 3b 66 19 bb
       0.14997675 0.026799735 0.07820952 -0.0023406881
000070 96 db 86 bd 18 18 f6 3d 34 46 fb 3d 93 c6 e4 bd
       -0.065848514 0.12016314 0.122692496 -0.111706875
000080 fc 8f 4d bd f4 12 b1 3d ea b0 8b 3c 54 1e 53 3e
       -0.050186142 0.08646193 0.017052133 0.20617038
000090 7d c1 ce 3c 0b 5a be bd bc aa 2a 3e df 84 4b 3e
       0.025238747 -0.09294518 0.16666692 0.19874905
0000a0 17 e8 1f bc 2a b3 84 3d 27 4f 57 3e 94 0b 0f 3c
       -0.009759924 0.06479485 0.21026288 0.008730788
0000b0 43 f8 17 3c e9 0d 4a 3e 49 d5 45 3e b6 02 cb 3c
       0.009275499 0.19731869 0.19319643 0.024781566
0000c0 d7 49 d2 bd dd ac 0c be 10 eb 7f bd 29 d6 0f be
       -0.1026799 -0.13737817 -0.062480032 -0.1404654
0000d0 b0 62 d3 bd 45 d2 c0 3c 4d aa dc 3c a2 c6 dc 3d
       -0.103215575 0.023537764 0.026936674 0.10780074
0000e0 51 04 8e bc 6b 89 33 3c 65 5d 2b 3e 93 ef 9c 3c
       -0.017336043 0.010958056 0.16734846 0.019157207
0000f0 7a 48 2a 3b 50 5a c8 3c e8 f4 1a 3e a2 28 3a be
       0.002598314 0.024457127 0.15132487 -0.18179563
000100 41 ad f9 3d 44 83 12 3e 4c 0d f8 3d e0 a8 84 3d
       0.12191249 0.14307886 0.12111911 0.06477523
000110 01 03 73 bd 34 e9 26 be 41 06 1e bd e9 c4 29 3e
       -0.059329037 -0.16299897 -0.038580183 0.16579022
000120 76 5d 05 be c1 f9 59 3d 43 0c 92 bd 6d 58 c0 bb
       -0.13023934 0.0532167 -0.07131245 -0.005869916
000130 a4 5f e5 bc 50 09 eb bd ea 71 0d be f6 ec f5 bd
       -0.027999707 -0.114763856 -0.13812986 -0.12008087
000140 ef bb b1 bc 1e 6a 4d 3c 00 9a 1f 3d e7 fc f2 3d
       -0.021696059 0.012537507 0.038965225 0.118646435
000150 cb 03 1b 3d d1 2e 3c be 9f a1 0f be ea 5a c5 bd
       0.037845414 -0.18377234 -0.14026497 -0.09636481
000160 d7 73 11 be e7 f4 37 3d 78 d6 da bc 70 75 1e 3e
       -0.14204346 0.04491129 -0.026713595 0.15474486
000170 ba 0a 27 bb fd 74 c2 3d be a9 c4 bd f1 b7 1d 3e
       -0.0025488571 0.0949497 -0.09602688 0.154022
000180 8c c7 ef bc e9 ab 0b 3e be 89 02 bd 42 d9 ed bd
       -0.029269956 0.13639797 -0.031869642 -0.11613704
000190 23 ca 21 3d ba bb 3d be aa 8d a5 3d 63 f3 cd bd
       0.039499413 -0.18528643 0.08083661 -0.10056188
0001a0 7f 0d d0 bb 70 d4 df bc d4 62 6a bd ca 0d 0d 3e
       -0.006349265 -0.027322978 -0.057223156 0.13774791
0001b0 79 b0 23 3e 6b 4e 83 3d dc 34 56 bd c2 4f 84 bd
       0.15985288 0.064114414 -0.052296504 -0.06460525
0001c0 e1 28 31 3e f9 4a d9 bc ca 2c 01 be 0f 07 20 3e
       0.1730075 -0.026525008 -0.12614742 0.15627693
0001d0 69 3b ab bd 81 cc be 3c 1e c2 16 bd 3b 46 02 3e
       -0.08360941 0.023290874 -0.03680622 0.12722103
0001e0 67 a4 bb bd 20 71 89 bd c5 75 3c be 3e 8c 4f 3b
       -0.09162217 -0.0671103 -0.184043 0.0031669284
0001f0 8f f1 fe bd a9 35 06 3e d8 ce 11 3e 99 62 07 3e
       -0.124484174 0.13106407 0.14239061 0.13221206
000200 77 ec 29 3e 37 00 db bd 85 3d 65 3b 6e c0 3c bc
       0.1659411 -0.106934 0.0034979295 -0.011520488
000210 3b 52 c5 bd 48 a3 d7 bc 2d 85 17 bd a3 a7 36 be
       -0.09634825 -0.026322976 -0.03699224 -0.17837386
000220 12 fb 36 3d 6e c4 6d bd 0d 01 a4 bc af 42 11 3c
       0.044673033 -0.058048658 -0.020020032 0.008865996
000230 d3 19 f9 bc 3b 32 08 3d 2e 97 8e 3d c0 3c 46 3e
       -0.030407822 0.03325103 0.06962429 0.19359112
000240 06 47 e5 bd 90 92 05 3e d1 06 9f 3d f3 37 2c 3e
       -0.11195187 0.1304419 0.07764972 0.16818218
000250 4c 8d 26 3e 20 61 b1 3d 28 ba 23 3d 4c 6c ad 3d
       0.16264838 0.08661103 0.039972454 0.084679216
000260 e4 ed 57 bd 7d 0e 92 bd 46 cc 0f be 14 09 0e bd
       -0.052717105 -0.0713167 -0.14042768 -0.034676626
000270 43 d7 42 3e 26 3f 83 bd ee bc d3 bd f7 fc 0b 3e
       0.19027428 -0.06408529 -0.1033877 0.13670717
000280 4c 30 6f 3d fa db 04 3e 1b f2 ef bd 27 11 87 3d
       0.05839567 0.1297454 -0.117161 0.065950684
000290 1d 78 c1 bc 05 5f ed bd 22 fb eb 3d 32 d9 0f bd
       -0.023616845 -0.11590389 0.11522509 -0.035119243
0002a0 96 6f e9 bd e5 e5 02 3d d8 5a 67 bd 0a a1 6a 3c
       -0.113982365 0.031957526 -0.05648312 0.014320621
0002b0 0e a1 13 3e 82 35 df 3d be 67 89 bb 79 74 f7 3d
       0.14416906 0.10898878 -0.0041932752 0.12082762
0002c0 3e 4b 22 be 18 04 c7 bd 0c 08 bc 3c f1 52 2d 3e
       -0.15849015 -0.09717578 0.022953056 0.16926171
0002d0 e8 1d 32 3d b5 40 10 bd 53 e7 28 3d d2 99 8e bc
       0.043485552 -0.03521796 0.041236233 -0.017407332
0002e0 9a 71 b0 ba 39 a5 eb bd 9c 20 f9 3d d3 d8 4d be
       -0.001346159 -0.11506123 0.12164423 -0.20102243
0002f0 55 32 c0 3d 65 14 07 be 96 ab e0 bd 56 6a 73 bd
       0.093846 -0.13191374 -0.109702274 -0.05942758
000300 5d 79 06 be 19 10 e4 bd 26 06 8f 3d 97 80 3e be
       -0.13132234 -0.11135883 0.069835946 -0.1860374
000310 ae 65 1d 3e d3 7e e7 3c e0 6b 11 3e dc dc 5e bd
       0.15370819 0.028258717 0.14201307 -0.054409847
000320 24 1d 4e bd 05 9c df bd 1a 16 0c bc 3c 3b ea 3c
       -0.05032076 -0.1091843 -0.008550191 0.028592698
000330 3b a0 6a 3d 72 72 3b be e5 80 12 3d fe 76 f7 3c
       0.057281714 -0.18305376 0.035767455 0.030208107
000340 4e de a5 3d ac 49 76 bd d0 cb 1c be 26 47 25 be
       0.08099042 -0.060128853 -0.15312123 -0.16140422
000350 3a 73 87 3d 8b d6 cd bd 9c 9b 08 be 05 b0 c6 bd
       0.066137746 -0.100506864 -0.1334061 -0.09701542
000360 0c 1b d6 3c a3 33 54 bd 6a 5f 19 3d 3b b2 29 bd
       0.026135944 -0.051807057 0.03744451 -0.04142974
000370 e3 c9 07 be 72 bc 06 be 57 3a d0 3d e7 80 b7 3d
       -0.13260607 -0.13157824 0.101673774 0.08960133
000380 53 8b fb 3d 0b cf e1 bd db c9 45 bd 7c f1 d7 bd
       0.12282433 -0.110258184 -0.048288208 -0.10544106
000390 af c7 5d 3c c3 15 26 be 74 fd 24 be a4 9d 31 be
       0.013536378 -0.16219239 -0.1611231 -0.17345291
0003a0 15 f3 dd bd af dc f1 bd 73 13 ca bd 88 bf 41 3e
       -0.1083738 -0.1180967 -0.09866991 0.1892072
0003b0 c6 74 8d 3b 2f 02 3e 3e d9 8c fd bc 76 57 55 3d
       0.004316899 0.1855552 -0.03095095 0.052085362
0003c0 d8 33 27 3e 63 bb ed bd 1e 97 a9 3d 9c 2c 50 3e
       0.1632837 -0.11608007 0.082807764 0.20329517
0003d0 cf 3d 95 bd 19 a9 d1 bd ea 46 53 bd 35 3d 41 3e
       -0.0728718 -0.10237331 -0.0515813 0.18871005
0003e0 37 18 4c 3e 04 a1 03 3e c7 ea c4 bd 10 10 13 bd
       0.19931112 0.12854391 -0.09615093 -0.03590399
0003f0 55 e4 f7 bd 5d 96 8f 3d ca 9a a6 3d 43 65 24 3d
       -0.12104098 0.070111014 0.081349924 0.040135633

bias f4 [32]
000000 a4 da 9e 3d ef 90 e6 bd df f9 19 be fd 1f da bc
       0.07756546 -0.11258113 -0.15036725 -0.026626581
000010 b6 46 24 bd e5 11 dd bd 54 c4 fb bd 98 bb bf 3d
       -0.040106498 -0.10794429 -0.12293306 0.093619525
000020 63 94 2e 3d b3 8f c7 3d 84 78 bf bd 7a 1d 1f be
       0.04262198 0.09744205 -0.093491584 -0.15538588
000030 4a 1a f2 bb 58 fa 53 3d 48 84 fd 3a b3 d7 bc bd
       -0.007388388 0.05175242 0.0019341791 -0.09220829
000040 16 d2 77 bd 3f bc c1 3d f0 1b 11 bd 71 39 2b 3e
       -0.060503088 0.09459733 -0.035427034 0.16721131
000050 03 84 ee bc 1e 01 0f be 8e 00 c1 bd 7d b3 c3 3d
       -0.029115682 -0.1396527 -0.09423934 0.09555719
000060 2a db 3e 3e 54 d2 7c bd 25 dd 7e 3d f4 8b 2a bd
       0.18638292 -0.061724022 0.06222262 -0.041637376
000070 8d 6f d9 bc 9c dd 94 3d 7f 99 cd bd c6 5d 3e bd
       -0.02654245 0.07268831 -0.10039043 -0.046476148

weight f4 [32]
000000 26 00 81 3f 10 85 7f 3f a6 ef 7d 3f 7d 09 80 3f
       1.007817 0.9981241 0.991938 1.0002896
000010 27 59 7f 3f c6 36 84 3f d4 55 80 3f 48 36 7e 3f
       0.9974541 1.0329216 1.0026193 0.99301577
000020 b8 fe 7e 3f a2 b8 7e 3f 88 d8 7e 3f f5 6b 83 3f
       0.9960742 0.9950048 0.9954915 1.0267321
000030 0b 28 80 3f 07 96 7c 3f 4a 98 7f 3f 4c 75 7e 3f
       1.001222 0.98666424 0.9984175 0.9939773
000040 75 32 7d 3f 55 5b 7d 3f ca b3 80 3f c5 63 81 3f
       0.98905116 0.98967487 1.0054867 1.0108572
000050 20 18 7f 3f 5a 67 81 3f 31 10 80 3f de 17 82 3f
       0.99646187 1.0109665 1.0004941 1.0163534
000060 fd 07 7d 3f 6a c7 7f 3f 0e a3 7f 3f b6 66 82 3f
       0.98840314 0.99913657 0.99858177 1.0187595
000070 b2 0f 82 3f 04 b7 80 3f 52 31 81 3f 84 4d 7c 3f
       1.016104 1.0055852 1.0093176 0.9855578

bias f4 [32]
000000 ee 3a 27 3c 89 2c a6 3a 56 16 1e 3b bc 76 70 3b
       0.010206921 0.0012678067 0.00241222 0.0036691865
000010 8b c5 8b 3b 77 65 9b 3a a7 e7 59 bb cb 48 85 3c
       0.0042654923 0.00118558 -0.0033249648 0.016270062
000020 c3 77 ad 3b e5 64 b1 3b 00 00 bb 3b a0 b4 98 ba
       0.0052938177 0.005413639 0.005706787 -0.001165051
000030 d4 0f 8c b9 59 0d 80 bb 39 16 3a 39 3e 41 10 3a
       -0.00026714674 -0.003907841 0.00017746621 0.0005502886
000040 89 39 2b bb 67 8c 1c 3c 99 33 a9 bb c1 ba 5c 3b
       -0.0026126823 0.009554959 -0.0051636216 0.003368065
000050 3a 87 d0 bb 8a a5 3e bc d2 37 d2 ba 17 6d 5f 3b
       -0.0063637765 -0.011636147 -0.0016038364 0.0034092122
000060 54 b8 00 ba 08 c7 df 38 7c 21 e4 3a 42 09 91 bc
       -0.00049102795 0.00010670541 0.0017404999 -0.01770461
000070 a0 e8 7a bb 43 3f 27 3a 62 7f 9e bb 0e ad 71 3c
       -0.0038285628 0.0006379971 -0.0048369626 0.014750732

weight f4 [32]
000000 27 96 83 3f 9f eb 80 3f 52 8a 85 3f f4 5f 82 3f
       1.0280198 1.0071906 1.0432837 1.0185533
000010 cd d9 80 3f 60 14 87 3f 77 61 86 3f 8f 24 81 3f
       1.0066468 1.0553093 1.0498494 1.0089282
000020 ed 6e 81 3f be 5f 83 3f 09 ab 81 3f 34 7a 82 3f
       1.0111977 1.0263593 1.0130321 1.0193543
000030 a3 12 83 3f c9 26 82 3f 5d 26 7c 3f 9b 1c 86 3f
       1.0240062 1.0168086 0.9849604 1.047748
000040 c8 85 81 3f a2 5f 85 3f cf 6b 84 3f 35 2d 80 3f
       1.0118952 1.041981 1.03454 1.0013796
000050 c5 f5 80 3f 29 87 83 3f 48 64 82 3f 3b dc 7f 3f
       1.0075003 1.0275623 1.0186853 0.9994542
000060 49 10 86 3f 9f 65 81 3f 55 82 82 3f 0a f6 86 3f
       1.047372 1.0109137 1.0196024 1.0543835
000070 6b 92 86 3f 19 c2 81 3f 95 f1 81 3f d6 82 80 3f
       1.0513433 1.0137359 1.015185 1.0039928
