artery_model_last.pt (torch, 35103 bytes, 20 tensors)

convs.0.nn.0.weight f4 [32, 7]
00000000: 1706 c43c b9c3 3b3e ee0e 83bc a00d 0bbc
00000010: d68f 53bc 313d 473e 5f47 4c3d 2f9e 9fbe
00000020: 4790 8abe 924f d43c fb17 d9bc 9525 c13e
00000030: aabe b2bd b19a 893e e316 9fbe a56a b4be
00000040: 852e 34bd f255 72be d64f f4bd 2be5 eb3c
00000050: 3b5e abbe 692a 843e 27b3 50be 5059 953e
00000060: 6112 0a3e e22f 8bbd 1667 aebe 6cc5 843d
00000070: a549 5dbe 715d ab3e 73b3 a0be 02e6 cbbd
00000080: cc34 46be 77c9 74be 8f7c 52be 6a6b cabc
00000090: 7bfe e03c 1b29 5f3d 05b7 4c3e 37df 27be
000000a0: a69f 73be 9a42 bdbd 47d3 ba3e 47c7 47bd
000000b0: 86bd a4be 3eb9 a63e 5542 d83d 5abe 9a3d
000000c0: 6798 453d 9534 873e 3283 13be b432 953e
000000d0: b70f ad3e e33c bbbd 5911 763e 27aa 6e3e
000000e0: 1e19 af3e 1114 a8bd 45e9 63be bee9 0ebe
000000f0: c2fa 8abe 7a11 113c f42e bc3e 9786 b73e
00000100: 4fcc 8c3e df5a 203d 924b e43b d117 7f3e
00000110: ac72 703e 5833 4abd dc7a cbbd de6a 1c3e
00000120: 7f96 4abc ae55 88be 4d67 32be ab62 a53e
00000130: c389 a83e 4bb4 17be c203 9bbd e0f5 47be
00000140: be77 fcbd 01c4 ab3e 10cf a7be 691c 3a3e
00000150: 8172 b1be 6182 36be 8441 9ebd 5a14 e83c
00000160: 7bea 63bd 5914 29be 590e 32be 2301 68be
00000170: 3106 8bbe d02f 6dbe 8885 b93e 33ea 35be
00000180: 5279 a0be 7f8f 873e 2847 183e b029 883e
00000190: 3d10 c9be 9653 b7be a683 84be 277c 4abe
000001a0: 4a67 00bc 0b46 213e aefe 5f3e 46ce 9fbe
000001b0: cbc9 133e 23d5 68be 6d48 a43d 12bc 083e
000001c0: a5b0 6c3d 45ea 013e 14f2 5d3b 8290 753e
000001d0: c26c ce3d 2607 b53e c89c 933d 8fe3 4bbe
000001e0: 217b 7a3e 8b11 fc3c aee4 b23e 6266 3abd
000001f0: 5a84 c13e 90dc 49be d27f 2b3e fc54 92be
00000200: 672b 7b3e ab1b 993d 382a 4c3e 9e54 b2be
00000210: 478f c2be 4744 443e c9f4 27be fe66 0e3e
00000220: bf20 5ebe cd06 ecbd 2193 523b c0a6 5c3e
00000230: 598c 583e 5a2b f2bc 89bb b7bd 78c4 e8bc
00000240: dc9b 4a3e dba8 a1be 1a71 cfbd 318d bfbe
00000250: aab3 363d c801 7fbd c7d0 6c3e d977 903e
00000260: 92a0 adbe 4ef4 29be f543 a4bd 36e6 ac3b
00000270: e263 92bd 6477 78be d6a1 03be 4da1 4b3b
00000280: ccb1 9b3e ae6f c1bd 0423 7d3e 92cb 99be
00000290: 0cca 783c 70b3 98be b083 b6be 2582 2d3d
000002a0: 19f6 28be 7281 8d3e 7f4a 9e3e 30ae c7be
000002b0: f219 ebbc 8936 6abd ce46 44be 45b6 87be
000002c0: 6d7f 29be d1be 1b3e 8834 d23d d201 633e
000002d0: 5d9b 32bd 5c5b 353e ae1c 993d dde0 abbd
000002e0: adcb efbc 5a0a a5be e3d9 3a3a 72f2 f8bd
000002f0: 496b 10be 683a 25be e21b 9cbd 0773 8bbe
00000300: 5d4b 003d 7a07 28bb ee29 babd 480d a73e
00000310: a838 7d3e d6e9 e03d f7eb 05be 72fb 323d
00000320: f818 88be e356 873e 3369 b73e 7c92 6abd
00000330: bf23 973e 8c62 bc3e e077 11bd 35bc 10be
00000340: 4c34 753c 7226 bd3d 15be acbe 1f24 1bbd
00000350: 3d75 13be 701a 803e cf2b cabc 9288 823e
00000360: fc27 b23e a10b e2bd 4587 9a3d f6af 11bd
00000370: 9818 2bbe 24be 5ebe 65c0 c13b 6d87 e93d
0.023928685 0.18336381 -0.01599833 -0.008487135 -0.012912711 0.19456936 0.049872752 -0.31175372
-0.270632 0.025916848 -0.026500693 0.37723985 -0.087277725 0.26875833 -0.3107215 -0.35237613
-0.043989677 -0.23665598 -0.1192929 0.0287958 -0.3347033 0.25813606 -0.20380841 0.29169703
0.13483573 -0.06796242 -0.34063023 0.06482968 -0.21610124 0.33469728 -0.3138691 -0.0995598
-0.19356078 -0.23904978 -0.20555328 -0.024709422 0.027465096 0.05448256 0.19991691 -0.16393743
-0.2379137 -0.09241219 0.36489317 -0.04877403 -0.32175845 0.32563204 0.10559527 0.07555838
0.048241045 0.26407304 -0.14405516 0.29140246 0.33801052 -0.091424726 0.24030055 0.23307095
0.3419885 -0.08206952 -0.22256954 -0.13956353 -0.27144438 0.008854264 0.36754572 0.3584487
0.27499625 0.03914916 0.0069670165 0.24911429 0.23481244 -0.04936537 -0.09935543 0.15275142
-0.012364983 -0.26627868 -0.17422219 0.3230184 0.32917604 -0.1481487 -0.07569076 -0.19527388
-0.123275265 0.33547977 -0.32775164 0.181749 -0.34657672 -0.17823173 -0.0772734 0.028330017
-0.05564354 -0.16511668 -0.17388286 -0.22656684 -0.2715316 -0.2316277 0.3623469 -0.17765121
-0.3134256 0.26476666 0.14870894 0.26594305 -0.392702 -0.35805959 -0.2588169 -0.19773923
-0.007837126 0.15749376 0.21874496 -0.31212062 0.14432447 -0.22737555 0.080216266 0.13352993
0.05778565 0.12687023 0.0033866214 0.23980907 0.10079338 0.35357016 0.07207638 -0.19911025
0.24461032 0.030770084 0.34940094 -0.045507796 0.3779629 -0.19713044 0.16747978 -0.28580463
0.24528275 0.0747598 0.1993798 -0.34830183 -0.37999937 0.1916667 -0.16401972 0.13906476
-0.21692179 -0.11524735 0.0032131153 0.21547985 0.21147288 -0.029561687 -0.08971316 -0.028413996
0.19786018 -0.3157414 -0.10128994 -0.37412408 0.044604935 -0.062257558 0.23126517 0.28216437
-0.33911568 -0.16597101 -0.08020774 0.0052764667 -0.071479574 -0.24264294 -0.12854704 0.0031071485
0.30409086 -0.09445129 0.24720389 -0.30038124 0.0151848905 -0.298244 -0.35647345 0.042360444
-0.16500129 0.2763782 0.3091621 -0.39000082 -0.028698895 -0.057180915 -0.19167635 -0.26506248
-0.16552515 0.1520951 0.10263926 0.22168663 -0.043605197 0.17710632 0.07476173 -0.08392499
-0.029271925 -0.3223446 0.00071278046 -0.12155618 -0.14103426 -0.16135561 -0.07622506 -0.27236196
0.031321872 -0.0025639222 -0.09090029 0.3262732 0.24728644 0.10982101 -0.13078295 0.04369683
-0.2658155 0.26433477 0.35822448 -0.057268605 0.2951946 0.36793935 -0.035514712 -0.14134295
0.014966082 0.092358485 -0.3373877 -0.037876245 -0.14400192 0.2502017 -0.024679093 0.2549482
0.3479613 -0.11037374 0.07545332 -0.0355682 -0.167086 -0.2175222 0.005912828 0.114027835

convs.0.nn.0.bias f4 [32]
00000000: 96ee a4bd 69c9 a33d bd6f 683e 1968 243e
00000010: 4492 2e3e 30b4 c63d c5cc 8dbe 8bfd 63be
00000020: 4bc4 96be b03c 7d3e 0844 a8be a416 95be
00000030: 6263 823e bd60 653e f021 b2be b8ba 563e
00000040: 5eca 83bd bc56 9f3d b50b 81be 93e0 64bd
00000050: 3e41 b23d cc7c 893e fd75 7c3e 25ce 55be
00000060: 8b16 80be c9d6 edbc c50a 033e 192b 613e
00000070: 4bda c3be 3df6 01bd a4dc 0fb9 09b6 3cbe
-0.08053319 0.079974 0.22698875 0.16055335 0.17047983 0.09702337 -0.2769529 -0.22264688
-0.29446635 0.24730182 -0.32864404 -0.29118836 0.25466448 0.22400184 -0.34791517 0.20969665
-0.06435083 0.07780215 -0.25204244 -0.055878233 0.0870385 0.26853025 0.24654384 -0.20879419
-0.250172 -0.029033082 0.12797077 0.21989097 -0.38252482 -0.03172897 -0.00013719738 -0.18428816

convs.0.nn.2.weight f4 [32, 32]
00000000: 512e 103e 3f49 46bd 3c57 1ebe 456d d8bd
00000010: 5d5e 593c f500 0abe df4f dd3c f48e 353e
00000020: 94c5 86ba 2c40 64bd ccbe 393e e336 ed3d
00000030: 3ea8 053e a580 ec3c 740a 173c 2313 0ebe
00000040: 5030 1a3c 7b55 333e 7781 c23b 3dec 1ebe
00000050: 3003 9b3d f7ae 1f3e 3c3e 353e 078b 653c
00000060: e43d 253d 70e6 f73c 5670 b9bd d774 d1bb
00000070: d8e4 133e d560 d43c 8baa 3b3e 49db cebd
00000080: 0862 a6bc a8e8 b03b c991 bfbd 0ff9 113e
00000090: b242 f13d f03f dbbd 1ed4 163e 905e 2d3e
000000a0: ba24 e3bd e2a5 51b9 8376 313e 86f6 fbbd
000000b0: b333 ebbc 20d7 01be d95b fd3d 8d3b ca3c
000000c0: 1572 a23d a0da 053e 509c b1bc f6f2 30be
000000d0: 1f2b 213c 68ea 13bc cb0f 893d 9ec1 9c3d
000000e0: 7022 a1bd 492a 81bd 20bf d83d 55ea 573d
000000f0: e816 203d 630b b53d d6b9 a93d b216 07be
00000100: efcf 1c3c 34e1 2c3c 7f77 27be 3111 343d
00000110: 28c9 4dbc 3c45 003e 6cfe 3bbe 0e45 313e
00000120: 9f23 d4bd 9144 d03d 8eb9 023e 8eb8 6fbd
00000130: f4fb d5bd cac4 03bd 4872 e4bd 07da 773c
00000140: 18e8 8f3d 7f62 e93c caaa c7bd 6f35 c93d
00000150: a15c 1d3e 920b 89bd c3ca c23d b7f0 5dbc
00000160: 4595 a13d 9513 fcbd ee39 24be c655 36bc
00000170: 3336 19be 6643 9b3d 9135 1e3e 5ee0 0fbd
00000180: 73df 0fbc 433a e23c a90a a4bd 290d 9fba
00000190: 9bc0 0f3d 7d7b 0d3e 4bc5 15be c95d bf3b
000001a0: 0b4e 12be ca6a 97bc 1d7d 89bc ab31 b0bd
000001b0: 0593 db3d a678 f93d 825e 95bd 93f7 fdbc
000001c0: 313c 85bd 660f a6bb efc5 843d ed3d 2f3e
000001d0: 0be0 2bbe 84d1 883d d1fa e7bd 7949 1cbe
000001e0: 95c1 0a3e 9364 4dbd 53fa ccbd 3ad4 293d
000001f0: b7cc 18bd dfbc 23be 15a0 c9bd dc6c abbd
00000200: 8b2f e5bb 7161 ecbd 4dd1 33be 86e8 cc3d
00000210: 345e 1cbe 335f f8bb 1b4c 063e 5f30 80bd
00000220: a15d 0ebe f63a 4d3d 928f 213e f7bd e3bc
00000230: b0e6 21bc 3f09 963d 9baf 883c eb90 d33c
00000240: caba c93d 665a bb3d c192 00be c08c 91bd
00000250: 726e ed3d 6885 073d 8ce6 fc3c 3f40 293e
00000260: 5bad 003e bcc0 9e3d 21c3 1f3e 54f9 26be
00000270: c393 9f3c d26d 823d 014d f8bc 3241 a9bd
00000280: b06a 2e3d f883 1cbe cb76 a3bd 3828 fd3d
00000290: b06d 3bbd c1ec 23bd 8767 cd3d a4b4 66bd
000002a0: d29d 313d 7371 3abe e8bb e83d ccf4 0dbe
000002b0: 6b13 d53c 5b54 26be d31b 0fbe f7f7 203e
000002c0: 5d8f cebd 8183 9f3b c842 0bbb 53c7 1e3e
000002d0: cb61 6e3d 01f4 af3d 2d94 84bd 85eb 4cbd
000002e0: 6100 fd3d 32a0 613d 79e0 4d3d 9a84 efbd
000002f0: cd76 04be ab39 d03c ccc6 f8bd d4ee 063e
00000300: 9602 143e 4912 96bd 52e1 d6bd d851 363e
00000310: f5e5 d0bd efc9 1abe 407b 11be 33af 1b3d
00000320: 26ad 8a3c 4515 e73d 5af0 0f3e ef08 633d
00000330: fca8 d63c 0b09 223e 9551 9cbd 2f9c 19bd
00000340: c874 163e 7ecd 85bd 0dda cc3d df94 253d
00000350: 924f 633d c113 3fbd 68ca 11be 9695 013e
00000360: 1781 1a3e bc51 0bbe 5961 bdbd bd82 3b3b
00000370: 6917 af3d 60d6 6fbc 6b35 a5bd 319a 0d3e
00000380: 389f afbd b9e2 183e e2bf 8139 c90f bb3d
00000390: 4181 1c3d a76c f53c 2e15 ff3d e474 5ebc
000003a0: 95e1 023e 8d19 6e3d 4731 c0bd ddb3 c53d
000003b0: 810e 04be c7d9 c33d 5494 10bd 304d 5c3d
000003c0: 1f56 a6bc 15cd 183d b31a 66bd 1a39 8b3d
000003d0: 5af6 a13d 0866 2ebe b51f 273e 826d 10be
000003e0: 661f 95bd 18c6 7e3d f38a 253e 27e7 773d
000003f0: 0f1f c4bd eaa2 183d 86ab d8bd a457 b33d
0.14080168 -0.048409697 -0.15462965 -0.105677165 0.013267127 -0.13476928 0.027015625 0.17730314
-0.0010282272 -0.05572526 0.1813919 0.115827344 0.1305246 0.028869936 0.009218801 -0.13874488
0.009410933 0.17513077 0.0059358436 -0.15519805 0.07568967 0.15594088 0.17699522 0.0140101975
0.040342227 0.030261248 -0.090546295 -0.006392102 0.14442766 0.02592508 0.18326776 -0.10100419
-0.020310417 0.0053988285 -0.09353978 0.14255165 0.11780299 -0.107055545 0.14729354 0.16930604
-0.110909894 -0.0001999359 0.17330365 -0.1230288 -0.028711176 -0.1267972 0.12371034 0.0246866
0.07931916 0.1307168 -0.02168098 -0.17280182 0.009836941 -0.009028055 0.066924654 0.07654117
-0.078678966 -0.063068934 0.10583329 0.05271371 0.039084345 0.088400625 0.082873985 -0.13192251
0.00957106 0.0105517395 -0.16354178 0.043961708 -0.012560166 0.12526411 -0.18358773 0.17311499
-0.10358357 0.10169328 0.12766096 -0.058525614 -0.10448447 -0.032170095 -0.1115461 0.015127665
0.0702669 0.02848935 -0.09749372 0.09824645 0.15367366 -0.0669166 0.0951133 -0.01354616
0.07889799 -0.123084225 -0.16037723 -0.011128848 -0.14962082 0.075812146 0.15450121 -0.035126083
-0.008781302 0.027615672 -0.08009846 -0.0012134659 0.035095792 0.13816638 -0.14626043 0.0058400375
-0.14287584 -0.018483538 -0.016783291 -0.086032234 0.10721401 0.12181215 -0.072934166 -0.031001842
-0.06505621 -0.0050677536 0.06483065 0.17113467 -0.16784684 0.06680587 -0.11327136 -0.15262403
0.13550408 -0.050144743 -0.10008683 0.04146216 -0.037304606 -0.15990017 -0.09844986 -0.08370373
-0.006994193 -0.11542023 -0.1756031 0.10005288 -0.1527031 -0.007579708 0.1311497 -0.06259226
-0.13902904 0.050105058 0.15777424 -0.027800543 -0.00988166 0.07325982 0.016685298 0.025825938
0.0985008 0.091481015 -0.12555982 -0.07106924 0.115933314 0.03308621 0.030871652 0.16528414
0.1256613 0.07751605 0.1560178 -0.16306049 0.019479638 0.06368603 -0.030310156 -0.08264388
0.042582214 -0.15284717 -0.07981642 0.12361187 -0.045758903 -0.040020708 0.10029512 -0.056324616
0.0433634 -0.1820734 0.11363965 -0.13862914 0.026010236 -0.16243117 -0.13975458 0.15719591
-0.10085938 0.0048679714 -0.0021249522 0.15505724 0.05819873 0.08591462 -0.06473575 -0.050029296
0.12353588 0.055084415 0.050262902 -0.116952136 -0.12935944 0.025418123 -0.121472925 0.13177043
0.14454111 -0.07327706 -0.10492195 0.17804658 -0.10200111 -0.15116094 -0.14207172 0.03800888
0.016928267 0.11283354 0.1405653 0.05542844 0.026203625 0.15823762 -0.07632748 -0.037502464
0.14692986 -0.06533335 0.100025274 0.040425178 0.055495806 -0.0466497 -0.14237368 0.12654719
0.15088306 -0.13605398 -0.09247083 0.0028611862 0.08549387 -0.014638513 -0.08066829 0.1382835
-0.085752904 0.14930238 0.0002474776 0.0913387 0.038209204 0.029959036 0.124552116 -0.013577674
0.12781365 0.058129836 -0.09384399 0.09653447 -0.12896158 0.09563022 -0.035297707 0.05378455
-0.020304738 0.037304956 -0.056177806 0.06798001 0.07908316 -0.1703111 0.16320689 -0.14104274
-0.072813794 0.062200636 0.16166286 0.06052318 -0.095762365 0.037264742 -0.105795905 0.087569505

convs.0.nn.2.bias f4 [32]
00000000: 1ce4 dc3d c1fa e8bc 919e 30be fe10 dcbc
00000010: 463d 883c e5ce 1a3d 8e18 5c3d ccd9 e3bc
00000020: 8544 72bc ab27 4fbd ca9d 763d df16 323d
00000030: 3da1 963d 5094 d3bc 1209 15bb 8c71 e43d
00000040: 1b63 9c3c b546 18be 3043 743d d5a5 223e
00000050: 942f e8bc 1f0b e83d dcc8 12be 63f6 febc
00000060: 5b0c d83d e53a c6bd 13d5 e8bc 06b2 c5bb
00000070: fffe 19bd fcbf 41bd 3012 183e b46d 0bbd
0.10785696 -0.028439881 -0.17247988 -0.026863571 0.01663078 0.037794966 0.053734355 -0.027813815
-0.014786844 -0.05057494 0.060209073 0.043478843 0.073549725 -0.025827557 -0.0022741002 0.1115447
0.019090226 -0.14870723 0.059634387 0.15883572 -0.028343 0.11330246 -0.14334434 -0.031123346
0.105492316 -0.09679202 -0.028421914 -0.006033185 -0.0375967 -0.04730223 0.14850688 -0.034040168

convs.1.nn.0.weight f4 [32, 32]
00000000: 60d4 243e cf9f a0bd fc00 e4bd ec3c 903d
00000010: f156 d7bc 0f69 e1bd 7ea1 33be 08d9 013e
00000020: 7ced debd 5165 273e 3c71 e2bd 154f ce3d
00000030: 3f4a 96bd c808 f83d a9ed 393e ec5d 0e3e
00000040: 12c4 9dbd 8fc2 19bd 16eb 03be 358b a0bc
00000050: f48e 033d d3ad ec3d 7d4b 96bd 1454 f53d
00000060: 31e2 20bd c18e 603c eba2 dbbd a0bf 3b3d
00000070: 38d1 163d beb9 013e 4978 fb3d 08fb 213e
00000080: 3e46 d93d 9030 a2bb d52a ca3d 40af 043e
00000090: 3784 f23d 0dbc dc3d 4864 75bd 8e48 613c
000000a0: 1702 8cbd f342 be3d ded8 14bd e593 39be
000000b0: 62e9 96bd 0d36 07be 25ad fd3c 845a 073e
000000c0: 13ae 70bc 51f7 9ebd 50e9 55bd 8a51 17be
000000d0: e11d aa3d 9dc0 e53d 7e41 00be 6cd0 083e
000000e0: eec7 7a3d 9c16 1fbe 2f15 d23d 747c 83bc
000000f0: aac2 c5bd 1732 a33d dd93 cdbd 571d df3c
00000100: c911 273e 2c0f ea3d ea65 003e a140 b8bd
00000110: 0d1c d2bd ff77 763d 194d 8d3b 583c 053e
00000120: 3c22 143e 1eee 123e de27 703d 2451 e5bd
00000130: f559 363c 0480 cd3c 3cee d5bd 7fd7 91bc
00000140: fff9 d93c cedc f6bd 0cda 4cbb 79df 1fbe
00000150: 8873 a23d 2694 c5bd 4a0e 8f3d 7432 31bc
00000160: b395 d4bd 0b72 583d f258 02be 1a4e c93d
00000170: 1730 893c ba32 2a3d 2eb1 ca3d 1942 f83d
00000180: d85a 053e 43d1 003e bab8 cdbc 2d45 2c3c
00000190: 38fa 29be 99dd 333d 0ee9 f1b8 938b 0a3e
000001a0: 4b0e f53d 4e12 07bd 5355 aebd a726 003e
000001b0: 5455 ea3c 95f8 a4bd 2104 dfbd e4ff 2abe
000001c0: ba01 b33d df9d 913d 6b3b 4a3d c8f3 c73d
000001d0: d23d dbbd 8d57 313e 48a9 cb3d 1f27 9b3d
000001e0: 2a4f cbbc 5ed3 19be 9529 473d 1882 e93c
000001f0: 91d1 073d 5272 bc3d 9dfa b5bd e428 253e
00000200: e4df b23b 640f 1fbe d51d 97bd a776 4d3d
00000210: 670c f83d cc24 9bbd 7fbf 9fbd a802 85bc
00000220: 3cae 31be 4a9c 71bd 82c1 d5bd 7228 1f3e
00000230: 5d72 e5bd 774c aebc 9c08 0c3e 8414 1cbd
00000240: 7973 163e d435 b6bd 8eb9 8cbc 343d 2b3c
00000250: 29b6 0fbe 0d7a d33d b479 f03a a072 30be
00000260: fd16 883d ee6c 87bd ec82 bcbd 68aa 8e3d
00000270: 5efa 493d 2d31 d8bd 813d 763d fd59 cb3c
00000280: 5aaf 40bd a3aa e03d 4098 bfbb 6d5d b53d
00000290: 7afe 06bd 072e 803d 8a6c 043d 9553 033e
000002a0: 9240 26be 40f5 e2bc ad42 da3d 1e37 8ebd
000002b0: 8481 0bbe 1047 e03d 731f d13d 3ab6 193e
000002c0: 0db0 a33d fdc6 10bd 1725 06be 69c8 d0bd
000002d0: 329e 2f3d 0f25 17bd c13e 373e 97b7 d83d
000002e0: 08a6 c73c 8a4c 323e 3a16 c43c a03f 493d
000002f0: 0a8e 3d3e 316f 20bc a002 833d b0f2 973a
00000300: 6c84 273e 7aee a83d 3b30 ddbc 556f 1dbe
00000310: bc3c af3c 281f 20bb 5317 a33d 3295 783d
00000320: a897 22be ec82 0ebe 32d8 2ebd 216f 1bbe
00000330: 52e7 243c 4a73 c03d ad12 2e3e 5312 c5bb
00000340: 85cb 0abe 5190 ec3d dd9c 0bbe 5efc fb3d
00000350: 78b2 98bd ae21 a7bd c915 e73d c772 793d
00000360: 6107 58bd f149 df3d 8449 1dbe 2753 41bd
00000370: 23c6 c2bd 2ae0 05be 43db 37be b35b e8bd
00000380: c132 6c3d 3ead d6bd cff6 0c3e 261e c1bc
00000390: 9f8a 0d3d 34b0 133e d266 ce3c 0cce f4bd
000003a0: 00e7 1cbd 07e4 8ebc ad36 86bd 23d5 203d
000003b0: 6732 16be a70c 2f3d df4a ddbd ba9b fb3d
000003c0: ca4c 03bc c795 11be d268 f4bd 1844 13be
000003d0: 69db f93b 9996 2e3c 964c 9fbd 79ca b3bd
000003e0: 5b06 f9bd 7ead d2bd 912a 68bd 6e73 ccbd
000003f0: 3f2f 9c3d e537 a73d 697d 69bd d232 a13c
0.1609664 -0.07842981 -0.11133 0.0704287 -0.026286574 -0.110063665 -0.17542073 0.12680447
-0.1088514 0.16347243 -0.11056754 0.100736775 -0.0733838 0.1211105 0.18157066 0.13903016
-0.07703413 -0.03753906 -0.12882647 -0.01959763 0.032118753 0.11556592 -0.07338617 0.11978927
-0.039278213 0.01370591 -0.107244335 0.045837045 0.03682062 0.12668511 0.12278802 0.15818417
0.10609101 -0.0049496368 0.09871451 0.12957478 0.11841624 0.10778055 -0.05991009 0.013750209
-0.06836336 0.09290113 -0.036339633 -0.18122824 -0.07368733 -0.13204212 0.03096635 0.13218123
-0.01468994 -0.077620156 -0.052224457 -0.14777198 0.0830648 0.11218379 -0.12524983 0.13360757
0.061225824 -0.15535969 0.10257947 -0.016050555 -0.0965627 0.07968538 -0.10037968 0.02723567
0.16315378 0.11428675 0.12538877 -0.08996702 -0.102592565 0.06017303 0.0043121693 0.130113
0.14466184 0.14348647 0.05863177 -0.11197117 0.011129846 0.025085457 -0.1044583 -0.017802952
0.026608465 -0.12053834 -0.0031257896 -0.15612592 0.07932192 -0.09647398 0.06985147 -0.010815252
-0.10380115 0.052843135 -0.12729242 0.0982935 0.016746564 0.041552283 0.098970756 0.12121982
0.13022935 0.12579827 -0.025112499 0.01051454 -0.16599357 0.043912504 -0.00011535185 0.13529806
0.11965617 -0.03297644 -0.08512368 0.12514745 0.02860514 -0.08055226 -0.108894594 -0.16699177
0.08740564 0.0711019 0.04937307 0.097632945 -0.10705151 0.17318554 0.09944397 0.07575821
-0.024818022 -0.15022036 0.04862364 0.028504416 0.033158842 0.09201492 -0.08885691 0.1612888
0.0054588187 -0.15533215 -0.07378737 0.050161984 0.121117406 -0.07575378 -0.07800197 -0.016236618
-0.17351621 -0.05898694 -0.10437299 0.15542772 -0.11203454 -0.021276696 0.13675159 -0.038105503
0.14692487 -0.08896986 -0.017178323 0.010451604 -0.14034332 0.10326014 0.0018346817 -0.17231226
0.0664501 -0.066125736 -0.09204659 0.06966096 0.049311034 -0.105562545 0.06011725 0.024823183
-0.04704223 0.10970046 -0.005847007 0.0885571 -0.03295753 0.06258779 0.032330073 0.12824853
-0.16235569 -0.027704835 0.10657249 -0.069441065 -0.13623625 0.10951054 0.102110766 0.1501092
0.079925634 -0.03534602 -0.13100086 -0.10194475 0.042875476 -0.036900576 0.17895032 0.10581892
0.024371162 0.1741201 0.02393638 0.049132943 0.18511215 -0.009792135 0.06396985 0.0011592712
0.16359109 0.08248611 -0.027000537 -0.15374501 0.021391265 -0.0024432633 0.07963433 0.06068916
-0.15878165 -0.1391713 -0.04268665 -0.15179111 0.010064917 0.0939699 0.16999312 -0.0060141473
-0.13554199 0.11550964 -0.13634057 0.123039946 -0.07455915 -0.08160721 0.11283452 0.060900476
-0.052741412 0.10902775 -0.15360075 -0.04719844 -0.09510448 -0.13073793 -0.17954735 -0.11345615
0.05766559 -0.10482262 0.13766025 -0.023573946 0.034556028 0.14422685 0.025195513 -0.11953363
-0.038306236 -0.017442716 -0.06553397 0.039265763 -0.14667664 0.042736676 -0.10805296 0.12285562
-0.008013913 -0.14217292 -0.119340554 -0.14381444 0.0076250327 0.0106560225 -0.077782795 -0.08778853
-0.12159415 -0.10286997 -0.05668122 -0.09982954 0.07626199 0.08164958 -0.057004366 0.019677553

convs.1.nn.0.bias f4 [32]
00000000: 6bdc 39bd e0d3 823d bfd5 e33c d8df 063d
00000010: 4988 083e 484c dfbd 8dfe 62bc d9f4 0b3e
00000020: 7893 e3bc e081 8a3c 99a0 ce3d 54ee 8cbb
00000030: 9da0 bebc 397c c33d 8375 933d 5358 3dbe
00000040: 6d12 a13d a0ef d9bc 7393 0a3d 7c45 323c
00000050: 6803 eb3d 1e0e 2cbe fcc9 813d a787 cf3d
00000060: c41d fdbd b06c 79bc fdc2 a93d 6779 0b3d
00000070: b108 ef3d 29d3 0c3e 86ac 153e bd0b 323e
-0.045376223 0.06388068 0.027811883 0.032928318 0.13333239 -0.10903221 -0.013854635 0.1366762
-0.02778028 0.016907632 0.10089225 -0.004300872 -0.023269946 0.09545178 0.07200148 -0.18490724
0.078648426 -0.02660352 0.033832025 0.010880824 0.11475259 -0.1680226 0.063373536 0.101332955
-0.12359193 -0.015223667 0.08289144 0.034051325 0.1167158 0.13752426 0.14616594 0.1738729

convs.1.nn.2.weight f4 [32, 32]
00000000: 3b19 2c3e d215 9fbc 1651 22bd 3b60 f9bd
00000010: 640e 1ebd 9134 3f3d 1b3f c63d 66b5 ab3c
00000020: 94e9 ce3d 4cf2 2c3e a4b6 f93d d9c4 0b3d
00000030: 6ec5 85ba 5a0f 02be 6b62 dc3d 8092 8ebd
00000040: b973 993b 5c54 193e 7c66 253e 2be9 d9bb
00000050: ded4 fa3d 15fe 0e3e fe6d d4bd 3c50 2bbd
00000060: 69d4 933d 9a9e f93d 61f7 0cbe 82c4 b2bd
00000070: bfde 123e 2926 123e dbe9 92bd 1588 ca3d
00000080: 9910 133d ce32 a6bd 9ca1 943d 2a8c 0b3e
00000090: b736 ecbd d802 f8bd 908a f73d a332 3abb
000000a0: 4a65 b93d e179 15be fd4a 19be 9651 ef3d
000000b0: 2fd2 a53a 296e 0abc 10f5 b2bd cf25 cc3d
000000c0: 072b ce3c 53b2 3fbe ac70 c03d 075b 443c
000000d0: 3ecc a4bd 11e7 ed3d 04b8 923d bafc 863d
000000e0: c638 0cbe 26bc c83d 83ec 12be e871 79bd
000000f0: 70f6 6a3d 0f9d cbbd 738c c23d 7b1b bb3d
00000100: ac95 0f3d 0990 043e 8483 983c 60f7 48bd
00000110: c0fb f03d cc81 3f3c 9dee b3bd cc52 83bd
00000120: 3094 833d f562 8abc 2166 60bc f504 953d
00000130: 8984 24be f6f3 38bd f0c2 1fbe f409 7e3c
00000140: d596 8f3d f029 123d 2b93 353d c91b 843d
00000150: 67a5 683d 1c66 703d 8bc4 6abd 04d3 373e
00000160: 4c2e 81bd 4f03 863d 61d3 3b3e 76a1 583d
00000170: d13b bdbd 2c67 24bd 457e 13be 44f1 c4bd
00000180: 867f 6b3c 6bf1 153e aed8 dbbc b9ff 20bb
00000190: 0502 623c 8965 bcbd 6a2e a1bd b3cb 0bbe
000001a0: 9d41 36bc d4ec 5e3d 3161 063e 1209 33be
000001b0: a39f c63d 2daa 0abe bdd1 aa3d a105 f7bd
000001c0: 4024 d2bd a1e9 0ebe fe9b 1b3e 37f3 05be
000001d0: acdb fa3d 921a 183e f66f ddbd 1bea 083e
000001e0: 6c89 283e 7637 2cbe 9bf6 e9bd 77db 0c3e
000001f0: 7d29 c9bd 4b32 e33d 130a cfbd d86f d7bc
00000200: ddbb d2bd 2938 253d 745f c1bd c582 acbd
00000210: 08a1 103d c118 63bc 0fa7 c73a 041d a1bd
00000220: 16f6 cf3d 5095 363e 55ec f13d 17f6 0cbe
00000230: e203 06be 813d f9bd 4855 933c ad80 dcbc
00000240: c3ee 0b3d af28 913d 3c0d e83d 26da d03d
00000250: d478 673d 99c0 6bbd c0ac 3fbc a5b2 6bbd
00000260: e85f e7bd a670 04bd 62d6 1cbe c284 f43d
00000270: 7aeb 0e3e 45ca d53c 1559 d4bd 7d60 2fbd
00000280: 6174 403d 950d 173e dc04 183e 56d6 763d
00000290: c28e a53d 16e8 28bd 64dd debd c29a a5bd
000002a0: 64c2 87bd 75de f93c 17a7 783c 7998 f03d
000002b0: 8292 2b3e b449 d5bd 4578 c43d c46a 4dbd
000002c0: 8854 d43d dcd9 1fbe a7d0 62bd bba4 e53d
000002d0: c484 0ebd f928 b4bd 0335 0c3e b949 efbd
000002e0: 6389 e4bd 9caa 0bbc d4f4 c23d 4853 ffbd
000002f0: 4bcd 023e c592 24be fa1d 113e 2225 07be
00000300: 32b6 283c 3877 edbd d94a 0abe 36db 363e
00000310: c953 923d c35e 15be 3282 1fbe 9e5e ffbb
00000320: dbdf f43d de79 c53d 7a8b e13b 05ed b93c
00000330: ab38 0ebe c54d cf3d 8048 adbc 9747 0fbe
00000340: e248 0bbe 30d8 20bd 4f11 bcbd 6257 7cbd
00000350: bccc 373e 0040 413c 7eb2 b4bd 6ca1 173e
00000360: f8d8 223e a077 d63b 6381 173c 1fd1 283d
00000370: 0c2d 2bbd 942c 0c3d 4683 7f3d 40c8 143e
00000380: 1858 a13d 5d02 da3c 0a77 8fbc f1d7 073e
00000390: 7364 893d 2594 593d de40 f03d 556b 063d
000003a0: 7e31 40bd ab57 333d 644d b8bd 2127 dc3d
000003b0: d53f 4ebd 7e1e 353d 5cb0 6a3d fbd6 0cbe
000003c0: 09f8 15be b3c3 f63d 3242 3fbe 0bbd 68bd
000003d0: be02 ca3d 1552 383d 2aba 283e b6a5 31be
000003e0: 71a2 643d 948f 84bd cb5d 8e3d c601 f63d
000003f0: cc80 f73d 525b 33be 4fbb 8bbd 404d f03d
0.168065 -0.019419584 -0.03962811 -0.12176558 -0.038587943 0.04668099 0.09680005 0.020960521
0.10103145 0.16889304 0.12193039 0.034123275 -0.0010205933 -0.12701169 0.10760959 -0.069615364
0.0046829847 0.14973587 0.16152376 -0.0066501102 0.122476324 0.13964112 -0.10372542 -0.041824564
0.072182484 0.12188454 -0.13766243 -0.08728887 0.14342783 0.1427237 -0.07173511 0.09889237
0.0359045 -0.08115159 0.07257387 0.13627687 -0.115338735 -0.121099174 0.120869756 -0.002841153
0.090525225 -0.14597274 -0.14970012 0.11685483 0.001265114 -0.008449116 -0.08738148 0.09968149
0.025167001 -0.18720369 0.093964905 0.011984593 -0.080467686 0.11616338 0.071640044 0.065911725
-0.13693532 0.098015115 -0.14348035 -0.060899645 0.057363927 -0.09942066 0.09499445 0.09136101
0.035054848 0.1294557 0.018617399 -0.04906404 0.117667675 0.011688661 -0.08785746 -0.064122766
0.06424749 -0.01689289 -0.013696224 0.07276336 -0.16066183 -0.045154534 -0.15601707 0.015505303
0.07011191 0.035684526 0.044329803 0.06450612 0.056798365 0.05869113 -0.057316344 0.1795159
-0.063076586 0.065436 0.18342353 0.052888356 -0.09239925 -0.040137455 -0.14403637 -0.0961633
0.014373666 0.14642875 -0.02683672 -0.0024566485 0.013794427 -0.09199054 -0.07870181 -0.13651924
-0.011124042 0.054425076 0.13123013 -0.17483929 0.09698417 -0.1354148 0.08340786 -0.120616205
-0.102608204 -0.1395631 0.15196225 -0.1308106 0.1224893 0.14853886 -0.108123705 0.13370554
0.16458672 -0.16818032 -0.114239894 0.13755594 -0.098223664 0.11093577 -0.101093434 -0.026298448
-0.10289738 0.04033676 -0.09442034 -0.0842338 0.03530982 -0.013860882 0.0015232282 -0.078668624
0.10154359 0.17830396 0.11812655 -0.13765751 -0.13087419 -0.12169934 0.017985001 -0.026916826
0.034163248 0.07087838 0.11330649 0.101978585 0.056511715 -0.057556722 -0.011698902 -0.057543416
-0.112975895 -0.032333992 -0.15316156 0.11939384 0.13957015 0.026097426 -0.103685535 -0.042816628
0.046985988 0.14751275 0.14845604 0.060263 0.080838695 -0.04123696 -0.10882071 -0.08086158
-0.06628874 0.030501584 0.015176556 0.11747832 0.16755107 -0.104144484 0.09593252 -0.050150648
0.103676856 -0.1561045 -0.055374768 0.112130605 -0.034794584 -0.087968774 0.13692097 -0.11683983
-0.11159017 -0.008524563 0.095193535 -0.124670565 0.12773626 -0.16071613 0.14171591 -0.13197759
0.010297345 -0.11595005 -0.13505115 0.1785706 0.07144887 -0.1458693 -0.1557701 -0.0077932617
0.119567595 0.09642385 0.006883082 0.022696028 -0.13888805 0.10122255 -0.021152735 -0.13992153
-0.13602021 -0.039268672 -0.09182989 -0.061606772 0.17949194 0.011795044 -0.08823107 0.14807671
0.1590308 0.006545022 0.009247157 0.04121506 -0.041791007 0.0342222 0.06238105 0.14529514
0.07878131 0.026612455 -0.017512817 0.13265969 0.06708612 0.053119797 0.117311224 0.032817204
-0.0469222 0.04378478 -0.08999136 0.10749651 -0.050353844 0.044218533 0.057297096 -0.13753884
-0.14645399 0.120490454 -0.18677595 -0.05682091 0.09863804 0.045000155 0.16477266 -0.1734837
0.05581898 -0.06472698 0.06951483 0.12012057 0.12085113 -0.17515305 -0.06822836 0.11733484

convs.1.nn.2.bias f4 [32]
00000000: 726c 75bb df14 09be 50df 543d ba98 08bb
00000010: 69cb 183d 5af0 e5bd d9ab 6d3c a466 f9bd
00000020: b855 293e af54 05be 2b46 14be 8b82 9f3d
00000030: 8a9e 273c 9b50 38bd 15ef ba3d 4ae0 f53d
00000040: d426 173e ec1a 84bc fda4 0fbc 9bbf dd3d
00000050: c4ae 303e 18f4 f7bc 1b85 aebc 6c20 78bc
00000060: 00cc 603c fb77 f5bd ab50 1f3e 9eb1 8e3b
00000070: 3a9b 8b3d 2ecd 243e 4f39 b73d 29b8 9cbd
-0.0037448672 -0.13386868 0.05197078 -0.0020842985 0.037303362 -0.11227484 0.014506304 -0.1217778
0.16536605 -0.13020585 -0.14479892 0.07788571 0.01023067 -0.044998746 0.091276325 0.1200567
0.14760906 -0.016126119 -0.008767364 0.108275615 0.17254168 -0.03026776 -0.021303704 -0.015144449
0.013720512 -0.11985775 0.15558116 0.0043546697 0.068167165 0.16093895 0.089464776 -0.07652313

convs.2.nn.0.weight f4 [32, 32]
00000000: 33b6 1fbe 7807 57bc 81ea 413e 9e20 333e
00000010: 9f15 51bd 8091 d3bb 456b f0bd 4a37 2fbb
00000020: e26a ba3d 1170 813c 71a0 82bd 3ab4 3cbe
00000030: 66de e83a d86c 19be ed5b 8c3d ab79 1abe
00000040: 326c dc3d 218f 29be 50c9 de3c a642 713d
00000050: 7724 2a3e 79c7 1a3e 11c2 06bc 359b fa3d
00000060: c9c6 05bd 4d44 ce3d 77eb 053e b38b adbd
00000070: b25c ae3d 2cc1 05bd bc4a 963d ae30 183e
00000080: 6f61 34be c646 e8bd 583a 1ebe b08d 01be
00000090: 9998 fd3d 2cbc a03d e994 d8bd 67e7 853d
000000a0: 967b 0a3e 0788 e4bd 7911 8f3d d65d a0bd
000000b0: 9ead 183d fabb 1ebe 9e00 a4bd 1504 1a3d
000000c0: e40e 0dbe 9c6d a1bd 797e b73d 7768 c1bd
000000d0: be83 0a3e 8ed3 463d e96b 8f3d 40c7 9d3d
000000e0: 9ce7 81bd 86f0 12be 806f 11be 5b88 0ebe
000000f0: e312 b7bd 76e8 3f3d f89b 0bbe 9976 ecbd
00000100: db89 693d 8f98 8abc 574b c93d e00c 2e3d
00000110: 330f 26bc d654 19be 4154 ba3d dac7 353d
00000120: 84db 89bd 37a1 3d3d b473 143e 84c9 1ebc
00000130: a00a 933c 2e27 34bc 2b10 8f3d 0d9a e9bd
00000140: d79c 1f3d 8a37 febd 33d2 0fbe f3e9 113e
00000150: 4a6b 153e de42 223e 102b f1bd d485 193e
00000160: 0b97 0bbe 2b3f b8bd 4b63 c93c 6813 ce3d
00000170: 7d62 30be 3a68 153e 6f36 91bc b847 6d3d
00000180: 11e8 c7ba 7e56 283e bdf1 c3bb b4db 843c
00000190: dd20 57bd 3d9d aebd 4789 c93d 201e 52bd
000001a0: e7b6 8dbd 4674 813d 133a 1dbe 23dd cf3d
000001b0: 286c fa3d 93af 1d3e 0414 dbbc 5597 c8bd
000001c0: cc41 063e 7487 e93d 4042 273e c60e 0bbe
000001d0: d78e f6bd 1288 27be c46e e5bd 31ae 113e
000001e0: 723c 33be edc6 a53d b471 c4bc fea5 283e
000001f0: 7e15 2c3e 9f7d ab3c d7b3 2dbd 60ac d23d
00000200: 1972 cb3d 9f63 84bd 3344 26be 24bc 483c
00000210: 3573 84bd 7b00 c5bd 09e7 433c d9a3 e03d
00000220: 3e28 36be 174c b63d 65a4 25bc d83d 86bc
00000230: c051 1f3e 3675 89bb 1270 c6bd 8514 e8bc
00000240: a462 eabc a76c 0dbe 4a6a 01be 7649 843d
00000250: fee3 1abe a911 64bd 41db 013e b79a e4bb
00000260: 95eb 50bd 8d20 78bd 39e4 56bd f537 0cbe
00000270: 6592 14be 406a a8bc 047a 3b3d c24d e33d
00000280: 48d0 afbb 6535 fdbd f0f7 763d 3f6e 37be
00000290: 39db 0b3d d1fd bb3d fa16 3bbd 5f16 a03d
000002a0: fc09 2dbe f29c 9fbd 96eb ba3d 4d01 343e
000002b0: 184e f73d 97cf 093d 7343 36be 3049 c9bc
000002c0: 07dd 03be 7424 0bbe a5d4 92bd 66fc 73bd
000002d0: ed35 153e e1ba 29be fd41 f13d 29ad a03d
000002e0: 001a f3bd 35a8 86bc 1a73 00be c3cc a83c
000002f0: 3259 673d 3ca8 d4bd c497 263e 4d99 e0bd
00000300: b29b 1dbd fad1 af3a 3f44 dbbd a00a b9bc
00000310: 03bb e9bd 2ee3 223c 4b6e 0f3d fc72 20be
00000320: 4d63 333e 802c 903b 7a96 243e 871b 773b
00000330: 9f63 98bd 5fa6 84bd 13b9 fc3b fd37 3fbd
00000340: d8e5 1c3d 1a2c 0ebd ad67 bbbd 24e2 693d
00000350: 6aed 3c3e cd59 d1bc 6033 2d3d f64e 00be
00000360: 8d29 d5bd 146f 40be f5bf b7bd 8b47 b93d
00000370: da25 1d3e cf71 493e 0a7a 0ebc bff1 babd
00000380: 77bc eebb e962 963d e1ba e13d 09f1 13bd
00000390: ce43 2fbd 54bd 2dbe 2799 a73d b7b5 1c3c
000003a0: f1b2 bfbd d811 4c3c 3694 133d da16 15be
000003b0: ae15 243e cab3 e3bd 749f dd3d a437 76bd
000003c0: da1c e9bd 656f 7abd 4bae 07bc a14f 49bd
000003d0: d5f9 d73d 06eb 2dbe d872 dfbd d20d 01bd
000003e0: d478 04be a05f d0bd 8a88 2dbe 1ffa 9a3d
000003f0: cc3d 9ebd 626d fd3d 37b6 0d3e aa4e 03be
-0.15596847 -0.013124339 0.18937112 0.17492911 -0.05104601 -0.006456554 -0.1173921 -0.0026735836
0.091024175 0.015800508 -0.06378258 -0.18428126 0.0017766475 -0.14982927 0.06853471 -0.15085475
0.10762824 -0.16558506 0.027195603 0.05890145 0.16615473 0.15115155 -0.00822498 0.12236635
-0.03266028 0.10071621 0.13078104 -0.08473911 0.08513774 -0.032654926 0.07338473 0.1486232
-0.17615293 -0.11341624 -0.15451944 -0.12651706 0.12382621 0.07848391 -0.10575277 0.06538277
0.13523707 -0.11158758 0.069857545 -0.07830398 0.03727495 -0.15501395 -0.0800793 0.03760155
-0.13775212 -0.078822345 0.089596696 -0.09443753 0.13526818 0.048541598 0.07003004 0.077040195
-0.06343004 -0.14349565 -0.1420269 -0.13919203 -0.08939149 0.04685255 -0.13633716 -0.11546058
0.057016235 -0.016918449 0.09828823 0.042492747 -0.01013546 -0.14973769 0.090981014 0.044380046
-0.067313224 0.046296325 0.14497262 -0.0096916 0.017949402 -0.010995669 0.06985506 -0.11406336
0.038967934 -0.12412937 -0.14045028 0.14249401 0.14591709 0.1584582 -0.11775792 0.14992458
-0.13631837 -0.08996423 0.02458348 0.10062295 -0.1722507 0.1459054 -0.017726151 0.057929724
-0.0015251656 0.16439244 -0.005979745 0.016218044 -0.052521575 -0.085260846 0.09840637 -0.05129826
-0.069196515 0.063210055 -0.15354185 0.101496 0.122276604 0.15399007 -0.026742943 -0.09794489
0.13111037 0.11402789 0.16333866 -0.13579854 -0.12038963 -0.163605 -0.112027675 0.14226605
-0.17503527 0.08094583 -0.02398 0.16469571 0.16805074 0.020933924 -0.042407837 0.10286784
0.09933872 -0.06464314 -0.16236953 0.0122518875 -0.064672865 -0.09619232 0.011956939 0.109687515
-0.17788789 0.08901232 -0.0101099955 -0.016386911 0.15558529 -0.004194881 -0.096893445 -0.028330097
-0.028611489 -0.13810979 -0.12638202 0.06459324 -0.15126035 -0.055680905 0.12681295 -0.0069764513
-0.05100592 -0.060577918 -0.052463744 -0.13693221 -0.1450897 -0.020558476 0.04577066 0.110988155
-0.005365405 -0.123637 0.060295045 -0.1791315 0.034144614 0.09179271 -0.04567621 0.07816767
-0.1689834 -0.07793607 0.09126966 0.17578621 0.12075442 0.03364524 -0.17799167 -0.024571031
-0.12877284 -0.13588125 -0.07169465 -0.059566878 0.14571352 -0.16575195 0.117801644 0.07845528
-0.118701935 -0.01643763 -0.12543908 0.02060545 0.056481548 -0.10383651 0.16268831 -0.1096674
-0.03847856 0.0013414018 -0.10706376 -0.022588074 -0.11412623 0.009941859 0.035017293 -0.15668863
0.17518349 0.004399836 0.16073027 0.0037705617 -0.07440876 -0.06477045 0.0077124923 -0.046684254
0.038305134 -0.034710027 -0.09150634 0.05710043 0.18449941 -0.025555516 0.042285323 -0.12530121
-0.10408316 -0.18792373 -0.0897216 0.09046849 0.1534647 0.19672321 -0.008696089 -0.09128141
-0.0072856504 0.07343084 0.110219724 -0.03611854 -0.042789273 -0.16966754 0.08183508 0.009564809
-0.09360302 0.012455426 0.036030017 -0.14559498 0.16023895 -0.111182764 0.10821429 -0.060111657
-0.11382456 -0.06114139 -0.008281301 -0.049148206 0.105456986 -0.16984186 -0.109105766 -0.03150732
-0.12936717 -0.10174489 -0.16946617 0.07567238 -0.077266306 0.12374379 0.1383904 -0.12822977

convs.2.nn.0.bias f4 [32]
00000000: ed77 8dbd c8c5 0d3e 8442 f8bd 45ea c2bc
00000010: 39d1 333e 6c81 f73d 6270 9dbd 64b2 3bbd
00000020: 5fd0 533b a9a2 25be 6173 2fbe 355e f73d
00000030: 1c3e 223e 8beb 93bc 5796 12be 4956 c33d
00000040: 4999 c73d fe96 893d 1251 653d 18a2 bb3d
00000050: 14e9 b4bd feab 253e 9d47 acbc 104a 6c3b
00000060: a0a9 00bd 0d6d 993d 7829 c9bd 8c3b ea3d
00000070: 6ec7 a1bd 1bbb 40be feca 73bd c813 dc3d
-0.0690764 0.13844979 -0.12122062 -0.023793349 0.17560281 0.12085232 -0.07687451 -0.045824423
0.0032320244 -0.16175331 -0.17133857 0.120785154 0.15844005 -0.018056652 -0.14315163 0.09537942
0.09746034 0.067182526 0.055985518 0.09161776 -0.088335186 0.16178891 -0.021030242 0.0036054887
-0.031411767 0.07491503 -0.09822363 0.11437139 -0.07899366 -0.18821375 -0.05951976 0.107459605

convs.2.nn.2.weight f4 [32, 32]
00000000: a670 0e3e 97d3 1cbe bb23 363e 7db6 29be
00000010: 90c5 133e dc34 9dbc 1ad7 febd 8c4d 09be
00000020: 60b8 b63d b6fa 453d f94b ce3d edd7 2dbe
00000030: 535a 65bd cc44 213e 7e24 073e 8c69 293d
00000040: 72d8 f1bd 3d1c 0abe 009c 98bd aa6e c23d
00000050: b269 363e f1fe 543c 750f 1cbd e8e4 ae3d
00000060: 5d90 24be 390e fa3d 99c4 1bbe 9e0c e0bd
00000070: 2f26 aabd 69de bfbc ce2a 953d 4a62 273e
00000080: 3020 33be 0c18 3f3d 6ca6 14be 17aa f33c
00000090: e966 f83d 4cb4 973d 873e c3bd e3f8 7ebd
000000a0: fa00 a53d caef a13d 26ff f1bd 7f34 013e
000000b0: 60d2 9bbd 6c23 0fbc cd67 c83d f551 133e
000000c0: dcd7 14be fce1 05be 923b c13d dee7 e23b
000000d0: 0d62 d13d fe7f 46bd 18bf 5a3d 9eb3 043e
000000e0: 956f 103e ae62 cc3d ed9b 933c 0c34 c23d
000000f0: bdf3 0cbb eb46 11be 40ce 4a3d 1e49 c43c
00000100: d120 233d cb3e 36bd 7985 963d 4d6b 28be
00000110: 7b8c d2bd edca a2bd 28df 2bbe 4a56 13bd
00000120: 77f4 e33d 60ac 113e fd95 9f3d 3854 f13b
00000130: 5960 2bbd f00e ad3d ee5a 93bc e9c8 26be
00000140: 1a7a bebc b7f6 2c3e 93c0 d53d ceb2 8f3d
00000150: 005f 3cbd 1ddc d03d 42ca 1f3e 9e9a 6e3d
00000160: cc69 243e 091b 053d 8e8a d53d a5ae 5cbc
00000170: 5b85 cabd 66d9 853d 8b2b b93d ec5c 1ebe
00000180: 7598 30bd 75bb 503d b337 c439 64cd 2e3e
00000190: c687 323c a861 d1bd 628c 023e 3b71 283e
000001a0: 6c5d 87bc 06a1 133d 8a0f 303e 359d 75bc
000001b0: bd6e 11bd 2775 183e 2858 153e 01ac 183c
000001c0: d846 00be 979d 10be a522 a4bd 74a8 0fbe
000001d0: 0d45 05be c951 06bc 64b0 0ebc c3ea a93d
000001e0: 7fb3 15bd 4d93 29bb f747 163e c6b6 4f3d
000001f0: 1eeb a1bc 8987 0c3d b77d 133e 2729 32be
00000200: 7114 3b3e 1ef3 273e d650 103e f334 9a3d
00000210: 44d8 8cbd be34 2ebe 392d a1bc c156 2a3e
00000220: eeb4 ffbd 4ac8 aa3d cb02 65bd d049 073d
00000230: ef8a 19bc b748 c1bd 35d9 29be 777f 9cbd
00000240: 2a76 f23c 7b94 0e3d 6566 4b3d c552 033e
00000250: afc5 6f3d f53d 41be cbb3 e8bd 9344 6fbd
00000260: 5bfd 00be 1f93 5f3d 12a2 f2bc 5a5b 283e
00000270: e75e 673d ec2c 103e 232e adbd cdb4 4a3e
00000280: 56d4 2dbd 60fc 0f3e 7e0e 1bbc 340d cebd
00000290: 1da3 8d3b a625 2fbe 39c3 ca3d 038c 3dbd
000002a0: 1ecb 62bd e556 b5b9 cfa4 46bd 3b9c 063e
000002b0: ef8d 473e 954e 7f3d 0c99 a3ba abb1 bbbd
000002c0: fb96 1b3e dc97 36bd 88bd 07be a9fe ea3d
000002d0: 8621 eebd 4188 87bc 4376 86bc c68b d63d
000002e0: 5260 febd 01f1 cbbd dc90 2abe 0a1c 1ebd
000002f0: 19a8 09be 5b2a fa3d 6eca c93d 4a05 f13d
00000300: edc1 fb3d 6f4c eebd f658 3639 f704 41bc
00000310: bedc fabd 29dc e7bc 31b4 20bd cc5d 32be
00000320: de20 8b3c ca18 85bd 46d3 93bc 24c2 45bc
00000330: 9ef4 b7bc 7424 fe3c 09e3 c13d a4d9 263e
00000340: 14a1 1dbe 410b cf3d 2668 873d 9081 093e
00000350: f1a2 0d3e 61c1 aa3d 55b0 2c3d aac1 6e3d
00000360: 98e0 9bbd 03f8 cbbd 62cd 08be 80ac a0bd
00000370: 14c1 233e f951 d7bd 79e4 04be f36b c63d
00000380: 6fbe d73d cf3c f53d fa32 c4bd 6937 2a3d
00000390: 3813 95bd 5e45 14be fa18 de3d a44c 33bd
000003a0: f2e1 d2bd 95c9 423b 59e3 a6bd d2c6 653d
000003b0: b7b8 053e 1ad5 6f3d 0476 44bd ba2b 053e
000003c0: 3aef eebd b09e 9cbd 173e 153c 12bd 2b3e
000003d0: c8b2 ef3c eced 82bd c239 1d3d 3416 2ebc
000003e0: 1d72 87bc 3c2c 09be 2c6b aa3d fb5c 37be
000003f0: dac9 0e3e 3b0d 69bd c550 c7bd 4243 6b3c
0.1391016 -0.1531509 0.17787068 -0.1657352 0.14430833 -0.019190244 -0.12443371 -0.13408488
0.089218855 0.0483348 0.100730844 -0.169769 -0.055994343 0.157489 0.13197514 0.041360423
-0.11808862 -0.13487335 -0.0745163 0.09493764 0.17813757 0.013000236 -0.03810068 0.08539754
-0.16070695 0.12209744 -0.15211715 -0.109399065 -0.08308064 -0.023421483 0.07283555 0.16346088
-0.17492747 0.046653792 -0.1451661 0.029744191 0.121290036 0.07407436 -0.095334105 -0.062249076
0.08056827 0.07907064 -0.11816244 0.12617682 -0.07608485 -0.008736473 0.097854234 0.14386733
-0.14535469 -0.13074487 0.0943519 0.0069246134 0.1022378 -0.048461907 0.053404897 0.12959144
0.14105065 0.09979759 0.018018687 0.094825834 -0.0021507584 -0.1418721 0.0495131 0.023960646
0.039826218 -0.044493478 0.07349677 -0.16447182 -0.10280701 -0.07948861 -0.16784346 -0.035970964
0.11130612 0.14225912 0.0779228 0.007364776 -0.04183993 0.08450115 -0.017987695 -0.16287579
-0.023251582 0.16890989 0.10437121 0.07016526 -0.045989037 0.10198233 0.15604499 0.058252923
0.16055983 0.032496486 0.10426818 -0.013469373 -0.09888717 0.06535606 0.09041508 -0.15465134
-0.043114144 0.050960023 0.00037425532 0.17070538 0.010896629 -0.102237046 0.12748864 0.16449444
-0.01652404 0.036042236 0.17193428 -0.014991094 -0.035506 0.1488844 0.1458441 0.009318353
-0.12527025 -0.14122616 -0.080144204 -0.14029104 -0.13014622 -0.00819821 -0.008709047 0.0829673
-0.036548134 -0.0025875152 0.1467589 0.050711416 -0.019765433 0.034308944 0.14403425 -0.17398511
0.18269517 0.16401336 0.14093336 0.075296305 -0.06877187 -0.17012307 -0.019674884 0.16634656
-0.124856815 0.08338983 -0.055910867 0.033029377 -0.009371503 -0.094376974 -0.16586764 -0.076414995
0.02959736 0.03480957 0.049658198 0.12824543 0.058538135 -0.18871291 -0.11362418 -0.058415007
-0.12596647 0.054583665 -0.029618297 0.16441098 0.05648699 0.14079636 -0.084560655 0.19795533
-0.042438827 0.14061117 -0.009463904 -0.10061112 0.004322423 -0.17104205 0.09900517 -0.046276104
-0.05536949 -0.00034587752 -0.048497017 0.13145535 0.19487737 0.0623308 -0.0012481525 -0.09164747
0.15194313 -0.044578418 -0.13255894 0.11474354 -0.11627488 -0.016544463 -0.016413813 0.104758784
-0.124207154 -0.09958077 -0.16656822 -0.03860096 -0.1344303 0.1221511 0.098530635 0.11768587
0.12292848 -0.11635672 0.00017390013 -0.011780969 -0.122491345 -0.028303223 -0.039234344 -0.17418593
0.016983446 -0.06498869 -0.018045079 -0.0120702125 -0.02245551 0.031023242 0.09467132 0.16293961
-0.15393478 0.101095684 0.066116616 0.1342833 0.13831688 0.08337665 0.04216035 0.05829016
-0.07611197 -0.09959414 -0.13359597 -0.07845402 0.15991622 -0.10513682 -0.1297778 0.096885584
0.10534369 0.11974489 -0.095800355 0.04155675 -0.07279056 -0.14479586 0.10844608 -0.043774262
-0.10297002 0.0029722203 -0.08148832 0.056097813 0.13058744 0.05855284 -0.04796411 0.13004962
-0.116667226 -0.07647455 0.009109042 0.16771343 0.029260054 -0.06393036 0.03838516 -0.010625411
-0.016533906 -0.1339578 0.08321223 -0.17906563 0.13944188 -0.056897383 -0.097322024 0.014359297

convs.2.nn.2.bias f4 [32]
00000000: ed6a 7b3c 4a7b 95bb b584 8c3d f4ed 0c3e
00000010: 6f48 10be 971d 8e3d 675d ea3b 145c 0e3e
00000020: 7c35 d8bc 914a 683c b8f9 1f3e 3ee9 64bd
00000030: c7bf 0fbe ee24 12be 73f9 d0bd deb4 27bc
00000040: ad83 19be ef6e 99bd c7e0 ce3c b0ee 233e
00000050: 1224 0c3c 5132 023e d072 c63d 779a 50bd
00000060: 0a13 e13d 82e3 82bd 6f96 a43c c3d4 e3bc
00000070: 0bcb f13c c7a1 47bd 662e 8d3d 847b 9e3d
0.015345317 -0.0045618163 0.06861249 0.13762647 -0.14090131 0.069392376 0.0071522477 0.13902313
-0.02639269 0.014177934 0.15622604 -0.0558865 -0.14038001 -0.142719 -0.10203829 -0.010235993
-0.14991637 -0.07491862 0.025253667 0.16009021 0.008553522 0.12714507 0.096898675 -0.05092856
0.109899595 -0.0639105 0.020091264 -0.027811414 0.029515764 -0.048738267 0.068936154 0.077384025

lns.0.weight f4 [32]
00000000: 24d0 7f3f 2c2c 803f f38a 843f 0bc9 823f
00000010: 4298 803f 5cc5 7f3f d4f8 803f 24e6 7a3f
00000020: 1848 7c3f 219f 7e3f 07ef 7e3f fb41 803f
00000030: 6f53 7e3f 1ba1 803f a612 7d3f 718c 7c3f
00000040: dee2 803f 1dbe 783f 02c8 823f 06ee 7e3f
00000050: 0364 803f d989 803f 813f 803f b5a8 803f
00000060: e543 803f 91a2 7b3f 0bbf 7c3f 2d96 7d3f
00000070: 2650 823f 4eac 803f 74ee 833f 705d 803f
0.9992697 1.001348 1.0354904 1.0217603 1.0046465 0.9991052 1.0075936 0.98007417
0.98547506 0.9946156 0.99583477 1.0020136 0.9934606 1.0049165 0.9885658 0.98651797
1.0069234 0.9716509 1.0217288 0.99581945 1.0030521 1.0042068 1.001938 1.0051485
1.002072 0.9829493 0.9872901 0.99057275 1.0180709 1.0052583 1.0307145 1.0028515

lns.0.bias f4 [32]
00000000: 51a6 d4b9 dfd6 b03b 6a56 07bc 1377 87bc
00000010: 71e8 813b d972 02bb d870 ae3b 2ce8 783b
00000020: 4c26 2bbb da92 7c3b 7381 a23b 1eb3 37bb
00000030: 37fd 203a 91b4 87bc 206f 313c b7ad f9bb
00000040: 913e cbbb d7ce cf3c 3c36 12bc 41e1 923b
00000050: 5ef8 80bb 7c56 41bc ae7b fbbb 2c44 083b
00000060: 7101 0bbc ed7b cab8 98ff 803c be2e 10bc
00000070: afe5 b1bc dde4 b6bb c2ce 29bb b538 82b9
-0.00040559706 0.0053967084 -0.008260349 -0.016536271 0.0039644768 -0.001990488 0.0053235106 0.0037980182
-0.0026115356 0.0038539679 0.004959279 -0.0028030346 0.00061412476 -0.016565593 0.010829717 -0.0076195854
-0.006202527 0.025367184 -0.008924063 0.0044824188 -0.0039358577 -0.011800405 -0.007674656 0.0020792587
-0.00848423 -9.6551936e-05 0.015746877 -0.008800207 -0.021715967 -0.005581482 -0.002591059 -0.00024837782

lns.1.weight f4 [32]
00000000: c4a4 813f 9f5a 803f fad3 813f 7c20 7f3f
00000010: 7c0c 813f c2d0 813f 9b08 833f 0bb4 803f
00000020: d3bd 833f 3440 803f d69a 803f 41a4 813f
00000030: 3b5a 7f3f 6b7d 833f f878 843f 705a 7f3f
00000040: 738d 7e3f cb93 803f 5576 7f3f d8fa 7f3f
00000050: d384 813f 1d69 813f 72ff 803f ab36 813f
00000060: aeed 7e3f 961c 823f fd59 813f ef0e 7e3f
00000070: fea6 813f 6756 833f 52c4 823f 2d65 823f
1.0128407 1.0027655 1.0142815 0.9965894 1.0081935 1.0141833 1.0237001 1.0054945
1.0292305 1.0019593 1.0047252 1.0128251 0.99747056 1.027265 1.0349417 0.9974737
0.99434584 1.0045103 0.99789935 0.9999213 1.011866 1.0110203 1.0077956 1.0094808
0.9958142 1.0164974 1.0105587 0.99241537 1.0129087 1.0260743 1.0216162 1.0187126

lns.1.bias f4 [32]
00000000: 8907 fe3b 452a 62bc ac05 423c cb76 103c
00000010: 28d1 cbbb 0c2b 013b dfb1 aaba 7cb3 16bc
00000020: 6428 11bc 351c 80bb 5571 873c 204b 3f3b
00000030: 455e c03b ee21 debc 2604 1bbc 47ce f0bb
00000040: 2a18 863a f6cf 03bc e289 25ba 263d cfba
00000050: e08d f53a cb57 35bc f716 513c 9434 fb3b
00000060: 6f95 7cbc a87d 87bc c33c 67bc 8e63 0d3c
00000070: 50e2 023c 9eb3 9dba 4f45 2c3c 24ca 9dbc
0.007752363 -0.013804023 0.011842173 0.008817385 -0.0062200017 0.0019709496 -0.001302298 -0.009198066
-0.0088597275 -0.0039096125 0.016533533 0.0029189065 0.005870613 -0.027115788 -0.009461438 -0.007348809
0.001023059 -0.008045187 -0.00063147966 -0.001581107 0.0018734299 -0.011068295 0.012761823 0.00766618
-0.015416487 -0.01653941 -0.014113608 0.008629693 0.007988527 -0.001203168 0.010514571 -0.019261427
