artery_model.pt (torch, 44184 bytes, 20 tensors)

weight f4 [32, 7]
0.01636238 0.17936356 -0.040139712 -0.004275425 -0.012120071 0.21613437 0.049611963 -0.33884028
-0.2756069 0.023553425 -0.03603365 0.3709718 -0.05287767 0.28616464 -0.31960103 -0.36472556
-0.04633238 -0.22596702 -0.10763046 0.06914917 -0.32198474 0.26854384 -0.21693851 0.3047159
0.14143296 -0.06878738 -0.3368324 0.043111667 -0.2193095 0.31937507 -0.3186905 -0.09297094
-0.21882762 -0.23351036 -0.19496953 -0.03984177 0.019521886 0.05101103 0.18977776 -0.15867734
-0.2170553 -0.069448374 0.34136754 -0.06484704 -0.31544605 0.28630492 0.07391724 0.054565806
0.069034375 0.29073387 -0.14283335 0.29682618 0.3735749 -0.074490495 0.20491955 0.1959678
0.3457484 -0.10773298 -0.22013095 -0.12973544 -0.26681376 -0.020872368 0.35350353 0.33683187
0.26485726 0.00024299376 0.01857857 0.21318856 0.25095242 -0.025344407 -0.0920437 0.1602806
0.009285315 -0.249683 -0.17177135 0.29105127 0.32898077 -0.14730868 -0.072812274 -0.18919784
-0.10810161 0.3504765 -0.30682048 0.18837124 -0.34366933 -0.18724157 -0.09053014 0.01099776
-0.058545846 -0.14557405 -0.15995708 -0.24495538 -0.27910498 -0.260116 0.3748452 -0.19411592
-0.30097455 0.26256505 0.18625037 0.30341625 -0.34017995 -0.36573467 -0.22631337 -0.16026409
0.021770734 0.13951556 0.19501635 -0.33722198 0.15317053 -0.24430479 0.04803775 0.11012841
0.04368596 0.15523718 -0.0123217795 0.25878477 0.07482504 0.37100738 0.106228665 -0.21164544
0.24357378 0.045372304 0.39491764 -0.047563873 0.32729498 -0.21808292 0.17229903 -0.28757697
0.26659614 0.08933269 0.20112093 -0.32553673 -0.36315283 0.16934249 -0.15739243 0.16591682
-0.19932264 -0.11512098 0.003147074 0.22700243 0.2226754 -0.030342491 -0.0937855 -0.022001356
0.19817594 -0.35623625 -0.1299213 -0.36919248 0.037399475 -0.06620955 0.19187067 0.29192814
-0.32373074 -0.18408735 -0.057721175 0.0015528483 -0.078366056 -0.23726693 -0.14733692 -0.022799818
0.29873794 -0.10793473 0.22639614 -0.33050856 0.045385074 -0.3194729 -0.39273652 0.015272211
-0.18500988 0.25145933 0.29006597 -0.3763704 -0.029733323 -0.091102846 -0.2213272 -0.27538475
-0.18069379 0.17191854 0.06670365 0.22657613 0.02030391 0.20765416 0.079757996 -0.09006444
-0.027497977 -0.35364816 -0.015365491 -0.12065781 -0.108494155 -0.13784918 -0.03655696 -0.23292188
0.057568062 0.025790747 -0.09313512 0.33101457 0.24361771 0.09378002 -0.1388739 0.051303048
-0.2746196 0.24633718 0.34206587 -0.061323464 0.29422936 0.3688822 0.0032569487 -0.14856996
-0.021650858 0.040476184 -0.35807344 -0.003025973 -0.13823335 0.25182515 -0.0075471774 0.24575976
0.32844207 -0.128597 0.07923485 -0.051235095 -0.15460083 -0.22064053 0.021869296 0.114054084
00000000: 660a 863c 15ab 373e 8a69 24bd dd18 8cbb
00000010: 4393 46bc 5452 5d3e ea35 4b3d 797c adbe
00000020: 591c 8dbe 1df3 c03c 0598 13bd 04f0 bd3e
00000030: 4196 58bd 2c84 923e bfa2 a3be 4fbd babe
00000040: 06c7 3dbd e663 67be 5c6d dcbd 149e 8d3d
00000050: 2fdb a4be 947e 893e 2125 5ebe b903 9c3e
00000060: cdd3 103e 66e0 8cbd 4c75 acbe dc95 303d
00000070: ab92 60be 2185 a33e 672b a3be 8c67 bebd
00000080: 5914 60be 571d 6fbe 18a6 47be 2031 23bd
00000090: 5dec 9f3c f1f0 503d 1a55 423e 507c 22be
000000a0: bf43 5ebe f33a 8ebd bac7 ae3e 86ce 84bd
000000b0: 2582 a1be 8f96 923e ec61 973d 6580 5f3d
000000c0: e561 8d3d 12db 943e e842 12be 9af9 973e
000000d0: 3645 bf3e 798e 98bd 6ed6 513e c8ab 483e
000000e0: ef05 b13e 1ca3 dcbd 026a 61be 5ed9 04be
000000f0: d09b 88be 87fc aabc 6afe b43e 3a75 ac3e
00000100: 5f9b 873e 24cc 7e39 1632 983c 1a4e 5a3e
00000110: d67c 803e 139f cfbc 6881 bcbd 9920 243e
00000120: 6f21 183c e6ac 7fbe d4e4 2fbe ac04 953e
00000130: 2b70 a83e 16d8 16be 9a1e 95bd 14bd 41be
00000140: 6064 ddbd a871 b33e 9317 9dbe 64e4 403e
00000150: 6df5 afbe 41bc 3fbe de67 b9bd f32f 343c
00000160: c5cd 6fbd 5d11 15be cacb 23be 95d5 7abe
00000170: d9e6 8ebe ed2d 85be b6eb bf3e 53c6 46be
00000180: 5619 9abe ed6e 863e 6bb8 3e3e 6059 9b3e
00000190: 112c aebe 9341 bbbe b1be 67be 451c 24be
000001a0: 8a58 b23c 2bdd 0e3e 5eb2 473e 5ca8 acbe
000001b0: bcd8 1c3e 092b 7abe 3bc3 443d 018b e13d
000001c0: 0df0 323d 7ff6 1e3e 4ae1 49bc 707f 843e
000001d0: df3d 993d aef4 bd3e 6a8e d93d 95b9 58be
000001e0: 686b 793e 4fd8 393d a532 ca3e 56d2 42bd
000001f0: 3593 a73e 2151 5fbe 286f 303e 4a3d 93be
00000200: 4a7f 883e 0ff4 b63d a5f2 4d3e c0ac a6be
00000210: 2bef b9be 1e68 2d3e 7b2b 21be 19e6 293e
00000220: 3c1b 4cbe 8cc4 ebbd 243f 4e3b 5373 683e
00000230: 0505 643e d190 f8bc 9d12 c0bd 303c b4bc
00000240: a2ee 4a3e 9964 b6be 170a 05be cc06 bdbe
00000250: 3130 193d df98 87bd bf79 443e 9b77 953e
00000260: 09c0 a5be 6581 3cbe 0a6d 6cbd f188 cb3a
00000270: 627e a0bd 1af6 72be 7ddf 16be afc6 babc
00000280: 2ef4 983e e20c ddbd 64d4 673e 6b38 a9be
00000290: b3e5 393d f491 a3be c314 c9be 4c38 7a3c
000002a0: 3b73 3dbe 47bf 803e 8783 943e 9fb3 c0be
000002b0: 4c93 f3bc 2194 babd 99a3 62be 3bff 8cbe
000002c0: cb07 39be 6a0b 303e ec9b 883d 9303 683e
000002d0: 6354 a63c 4ba3 543e 2958 a33d b573 b8bd
000002e0: 7043 e1bc 5f11 b5be 8abf 7bbc 711b f7bd
000002f0: 2f32 debd 5628 0dbe c0bc 15bd 1383 6ebe
00000300: 7dcc 6b3d 1e47 d33c a0bd bebd be7a a93e
00000310: ec76 793e bd0f c03d f634 0ebe 2523 523d
00000320: f19a 8cbe d03f 7c3e 4223 af3e 502e 7bbd
00000330: 3ba5 963e 21de bc3e 8872 553b b922 18be
00000340: 245d b1bc 5bca 253d 6755 b7be 674f 46bb
00000350: 0b8d 0dbe 3aef 803e 504e f7bb 72a8 7b3e
00000360: 8f29 a83e efae 03be e245 a23d e4db 51bd
00000370: ae4f 1ebe 97ef 61be 3d27 b33c 3095 e93d

bias f4 [32]
-0.07957696 0.074186906 0.23906519 0.15937029 0.145607 0.10234687 -0.3084973 -0.20647529
-0.2908977 0.21204497 -0.32658762 -0.27617905 0.25199023 0.2078636 -0.316422 0.19255932
-0.089711025 0.07517989 -0.25009948 -0.055509683 0.0868145 0.2780761 0.22707592 -0.23050582
-0.25159886 -0.02335176 0.112055585 0.2439788 -0.39090526 -0.039573506 0.013183047 -0.18690307
00000000: 3ff9 a2bd 4eef 973d 81cd 743e f731 233e
00000010: 001a 153e 3c9b d13d 5cf3 9dbe 426e 53be
00000020: 8bf0 94be 5122 593e 7e36 a7be 5767 8dbe
00000030: dd04 813e 32da 543e 1002 a2be 452e 453e
00000040: 6aba b7bd eaf7 993d 0a0d 80be 1f5e 63bd
00000050: cdcb b13d fe5f 8e3e 9786 683e b809 6cbe
00000060: 91d1 80be 314c bfbc 667d e53d 94d5 793e
00000070: bc24 c8be d417 22bd b5fd 573c 8563 3fbe

weight f4 [32, 32]
0.1242843 -0.06145586 -0.15302515 -0.12003437 0.023815587 -0.12406377 0.038397364 0.15655541
0.029325677 -0.058108386 0.17828499 0.12905774 0.13259444 0.03129707 0.013606777 -0.13483119
0.0017114385 0.14650436 -0.0051286137 -0.16081448 0.08623853 0.14185384 0.16745116 0.025529778
0.0068183118 0.008348287 -0.07398185 -0.009370495 0.16086 -0.0068349373 0.18087737 -0.102579944
-0.017633982 0.0008109015 -0.115040116 0.15045595 0.10918357 -0.09003239 0.13905594 0.17735976
-0.11672231 0.0017463955 0.1712859 -0.1381549 -0.037737697 -0.13298704 0.095999256 -0.0040326416
0.081517205 0.155793 -0.016539512 -0.18337113 0.012144659 -0.007099848 0.040552657 0.072437525
-0.058431365 -0.060886607 0.13013613 0.028812928 0.021724315 0.10311224 0.07133077 -0.13476187
0.0037088161 0.0149528785 -0.15962192 0.030009406 0.012954883 0.1549407 -0.17325819 0.15789852
-0.07897676 0.09336043 0.14037909 -0.0327264 -0.07908503 -0.019179607 -0.11482966 0.025121622
0.06287444 0.036121134 -0.108521126 0.09185803 0.15058793 -0.060613964 0.09423762 -0.0025457698
0.069153644 -0.12683953 -0.15511759 -0.002898571 -0.14174408 0.05773478 0.17586756 -0.024319604
0.0127142165 0.028622845 -0.10223715 0.0052952217 0.045278452 0.12855864 -0.12430224 0.0145211965
-0.15031925 0.0006630627 -0.022151133 -0.058053665 0.090613045 0.106297426 -0.06814776 -0.015516588
-0.039003197 0.0018377864 0.07142582 0.18678093 -0.14138977 0.07891723 -0.11980986 -0.15799068
0.134935 -0.053668074 -0.08105467 0.03994435 -0.048250936 -0.1582391 -0.10999671 -0.09158758
-0.013511208 -0.1380249 -0.16999014 0.10207276 -0.15533167 -0.0026070806 0.13178718 -0.05855236
-0.11115049 0.04311195 0.16395278 -0.048603777 -0.011578967 0.08274155 0.0076483567 0.0013065863
0.08988545 0.09677957 -0.12829559 -0.07577023 0.11147601 0.014254092 0.030487338 0.17480026
0.12919456 0.058425862 0.17801528 -0.1666232 0.031708393 0.06177326 -0.03246119 -0.07571524
-0.0026381682 -0.129298 -0.06825342 0.15637016 -0.08502163 -0.07655149 0.09676104 -0.016485011
0.02648556 -0.17463228 0.08284276 -0.12062176 0.02185115 -0.17529196 -0.16228017 0.14571843
-0.108926035 -0.04958271 0.0290804 0.20081858 0.0733253 0.079325 -0.09271748 -0.07368791
0.10639639 0.0741593 0.077805884 -0.14263503 -0.1480737 0.019951591 -0.14558338 0.11138422
0.12554334 -0.08223313 -0.093822725 0.16915175 -0.09455543 -0.114662424 -0.14495605 0.026123254
0.05298931 0.09547774 0.15735923 0.05463304 0.044896033 0.17836599 -0.10257188 -0.057720665
0.1285621 -0.07148407 0.090746194 0.045262747 0.044258785 -0.058102574 -0.14722812 0.14126596
0.14388947 -0.14903018 -0.0638555 0.007627674 0.08514172 -0.036604702 -0.060443223 0.1542818
-0.08600204 0.16109255 -0.001292241 0.104768075 0.029753735 0.041757382 0.10551814 0.0015114406
0.115523994 0.060765453 -0.09834139 0.09945845 -0.130662 0.08452572 -0.056408543 0.029095346
-0.018316759 0.05233996 -0.044820752 0.06450134 0.07906075 -0.15993921 0.15092854 -0.14955826
-0.057774674 0.07845434 0.15874457 0.053254314 -0.10896715 0.05013364 -0.11178068 0.08094051
00000000: c488 fe3d 24b9 7bbd a0b2 1cbe 94d4 f5bd
00000010: e818 c33c 2515 febd 8e46 1d3d 1050 203e
00000020: 673c f03c 0f03 6ebd 5790 363e b627 043e
00000030: d6c6 073e 5b31 003d f6ee 5e3c 3011 0abe
00000040: 5952 e03a 3d05 163e ee0d a8bb 8dac 24be
00000050: d49d b03d 2242 113e 5178 2b3e d323 d13c
00000060: 256c df3b 41c7 083c cc83 97bd b486 19bc
00000070: 7cb8 243e 9cf7 dfbb eb37 393e 6f15 d2bd
00000080: 2475 90bc ae92 543a 279a ebbd 2011 1a3e
00000090: a39b df3d e762 b8bd ae64 0e3e cc9d 353e
000000a0: 1b0c efbd 4fe7 e43a 9265 2f3e 7a78 0dbe
000000b0: d892 1abd c12d 08be 429b c43d 4024 84bb
000000c0: 7ef2 a63d 3388 1f3e df7d 87bc a4c5 3bbe
000000d0: 64fa 463c d7a5 e8bb 8b1a 263d 205a 943d
000000e0: ba55 6fbd 3c64 79bd 6842 053e 1709 ec3c
000000f0: 31f7 b13c 832c d33d de15 923d 04ff 09be
00000100: 9c0f 733b ebfc 743c ee73 23be 49d6 f53c
00000110: b840 543c c6a8 1e3e 986a 31be 26b0 213e
00000120: 91be a1bd c133 bf3d 89bf 0f3e 1e0c 06bd
00000130: 55f7 a1bd 8d1e 9dbc d02b ebbd dccb cd3c
00000140: 50c4 803d c1f3 133d 5340 debd 1020 bc3d
00000150: b933 1a3e 5946 78bd a7ff c03d eed6 26bb
00000160: 6da0 8d3d 39e2 01be 25d7 1ebe f4f5 3dbb
00000170: 5c25 11be 4e7b 6c3d a016 343e e839 c7bc
00000180: 4a4f 503c 757a ea3c b661 d1bd 8a83 ad3b
00000190: e675 393d e0a4 033e 2c92 febd 50ea 6d3c
000001a0: 4aed 19be 62d1 2d3a 4b76 b5bc aec9 6dbd
000001b0: 5593 b93d 77b2 d93d 0e91 8bbd 4a39 7ebc
000001c0: d1c1 1fbd e1e1 f03a b347 923d 8043 3f3e
000001d0: 7bc8 10be 5b9f a13d df5e f5bd 4fc8 21be
000001e0: 672c 0a3e 0ed3 5bbd feff a5bd b09c 233d
000001f0: c6a2 45bd 6e09 22be f545 e1bd 4592 bbbd
00000200: 1d5e 5dbc 6656 0dbe e511 2ebe 860b d13d
00000210: 440f 1fbe 8edb 2abb 38f3 063e 99d4 6fbd
00000220: dea2 e3bd 2896 303d 3de3 273e c114 47bd
00000230: b5b5 3dbc 6774 a93d 119f fa3b c341 ab3a
00000240: dd15 b83d 5e34 c63d eb5f 03be 6c2d 9bbd
00000250: 894d e43d ff89 693c 95c0 f93c d7fe 323e
00000260: 944b 043e f54f 6f3d a349 363e 469f 2abe
00000270: a9e0 013d f505 7d3d 06f6 04bd 9710 9bbd
00000280: 1ee5 2cbb b266 04be 73c8 8bbd 801f 203e
00000290: d21f aebd 07c7 9cbd a72a c63d 930b 87bc
000002a0: 3ff8 d83c ced2 32be 77a9 a93d 8b08 f7bd
000002b0: 2f01 b33c bc7f 33be c62c 26be 3637 153e
000002c0: 9d14 dfbd 3d17 4bbd 053a ee3c 63a3 4d3e
000002d0: 932b 963d 2575 a23d aae2 bdbd b0e9 96bd
000002e0: 5ae6 d93d d5e0 973d b158 9f3d eb0e 12be
000002f0: a2a0 17be 8571 a33c cf13 15be 691d e43d
00000300: 6f8e 003e d869 a8bd 2126 c0bd 1e36 2d3e
00000310: 47a6 c1bd 22d4 eabd 5c6f 14be 6f00 d63c
00000320: 520b 593d d589 c33d c722 213e e5c6 5f3d
00000330: e7e4 373d 93a5 363e 3511 d2bd 816c 6cbd
00000340: c8a5 033e 3d66 92bd 24d9 b93d 6e65 393d
00000350: b348 353d f7fc 6dbd f8c2 16be 06a8 103e
00000360: c357 133e 5e9b 18be acc6 82bd 91f1 f93b
00000370: c85e ae3d d0ee 15bd 5093 77bd 0cfc 1d3e
00000380: d621 b0bd 72f5 243e 6a60 a9ba a590 d63d
00000390: 1bbe f33c ca09 2b3d e519 d83d 881b c63a
000003a0: d897 ec3d 32e5 783d 3667 c9bd dfb0 cb3d
000003b0: 42cc 05be d21b ad3d a50c 67bd 5d59 ee3c
000003c0: 070d 96bc 6d62 563d f795 37bd 4719 843d
000003d0: 9aea a13d 1bc7 23be 038d 1a3e cd25 19be
000003e0: 23a5 6cbd abac a03d f08d 223e 3221 5a3d
000003f0: 2b2a dfbd ef58 4d3d 45ed e4bd 23c4 a53d

bias f4 [32]
0.10286371 -0.028425366 -0.17732489 -0.009949393 0.0055496357 0.049904495 0.038819056 -0.021604678
-0.022172537 -0.03824711 0.05345618 0.038968 0.065732524 -0.034803607 -0.0047087376 0.1133904
0.01992381 -0.14123373 0.05107487 0.16953422 -0.032902084 0.119324036 -0.1473676 -0.015220041
0.12357238 -0.08914674 -0.0021115849 -0.0026249469 -0.034349862 -0.05482812 0.13831437 -0.022033976
00000000: 35aa d23d 50dc e8bc a894 35be c702 23bc
00000010: b8d9 b53b a868 4c3d bb00 1f3d 4bfc b0bc
00000020: 2ea3 b5bc 00a9 1cbd def4 5a3d e99c 1f3d
00000030: c69e 863d 3a8e 0ebd c14b 9abb 3a39 e83d
00000040: 4237 a33c 939f 10be e233 513d 619a 2d3e
00000050: 56c4 06bd 2960 f43d 88e7 16be 7b5d 79bc
00000060: 8413 fd3d 9192 b6bd 8462 0abb 4d07 2cbb
00000070: 71b2 0cbd 7393 60bd 48a2 0d3e 9980 b4bc

weight f4 [32, 32]
0.14650139 -0.075611435 -0.10872689 0.06732663 -0.030908812 -0.10848201 -0.17661366 0.12682958
-0.1106113 0.16350423 -0.106860235 0.10566625 -0.080605224 0.14705773 0.18664594 0.13459632
-0.07353121 -0.032062057 -0.1318416 -0.014817954 0.037033204 0.105262086 -0.066431805 0.13126735
-0.04079761 0.015744934 -0.0998518 0.035310328 0.038922574 0.13171679 0.14012177 0.16013925
0.1119048 -0.050512698 0.06731083 0.12368934 0.09857278 0.10966338 -0.062615454 0.026101723
-0.05529562 0.07964078 -0.048590697 -0.18286945 -0.07058902 -0.14390318 0.029565562 0.1314846
-0.01667062 -0.07804182 -0.011054209 -0.15032975 0.1036828 0.13956736 -0.13075294 0.12718074
0.073246405 -0.18624833 0.0983937 0.018014183 -0.10027838 0.07832783 -0.08348363 0.017178591
0.15554015 0.06456005 0.08597952 -0.088171214 -0.11068426 0.067618385 -0.007695341 0.12692636
0.14297348 0.13833475 0.06065878 -0.10709242 0.0068520564 0.027009686 -0.099379644 -0.031141797
0.031266138 -0.10178687 0.033525784 -0.15326566 0.09557535 -0.08553747 0.073832385 -0.012686843
-0.1012646 0.038475376 -0.12413019 0.123809025 0.020669496 0.046788573 0.13570687 0.121168256
0.15120383 0.07692881 -0.06387171 -0.017797293 -0.16673194 0.025187364 0.006943222 0.16208294
0.14492449 -0.057147864 -0.10753155 0.10295615 0.038848244 -0.105314806 -0.13075109 -0.14186172
0.06460166 0.051594503 0.09310744 0.07357594 -0.065954335 0.20692548 0.078137875 0.04600373
-0.022105364 -0.18354753 0.02145552 0.05270773 0.012291428 0.07001574 -0.08674689 0.13551868
0.009122561 -0.18748175 -0.103843495 0.039435957 0.114210226 -0.07658625 -0.08462173 0.008540331
-0.16030614 -0.07250564 -0.11436692 0.1489015 -0.11939103 -0.021749984 0.13062999 -0.029503554
0.14237167 -0.07691599 0.0032784475 0.0026091225 -0.10604072 0.112925135 -0.014085184 -0.17344247
0.07170529 -0.062556654 -0.097002424 0.08103747 0.04079478 -0.111872114 0.09786476 0.009029252
-0.083108194 0.12741038 0.021347305 0.07884255 -0.037501667 0.06262575 0.04460256 0.13824719
-0.15203081 -0.04077248 0.093934424 -0.08150188 -0.124624394 0.11681575 0.0901578 0.16397592
0.06797806 -0.051322863 -0.14686057 -0.11221793 0.047405466 -0.04454279 0.1664061 0.11731136
0.012388794 0.17486851 0.030261662 0.029452467 0.17266254 -0.022031488 0.049073745 -0.010814299
0.15432538 0.11319824 -0.040348332 -0.15478776 0.0249301 -0.0007436345 0.07602166 0.067588
-0.15901855 -0.13375534 -0.046787694 -0.15004642 0.010093623 0.113447405 0.17182773 -0.0045023444
-0.13381067 0.1029419 -0.13406393 0.13038823 -0.071530335 -0.099597834 0.11228977 0.048377547
-0.045770705 0.105443195 -0.15209572 -0.07623666 -0.094606325 -0.12869424 -0.17304917 -0.10500262
0.034487326 -0.105337255 0.14694773 -0.017231604 0.019670364 0.14957812 0.023399131 -0.1153516
-0.041944977 -0.022237409 -0.062498722 0.044014893 -0.1528622 0.054023974 -0.10323222 0.124223486
-0.0032831382 -0.13641724 -0.12338971 -0.1402433 0.0048694317 0.018448262 -0.07304019 -0.06575209
-0.11807168 -0.109101176 -0.04932504 -0.10025029 0.078453325 0.08635842 -0.058303975 0.020143786
00000000: 7604 163e 2bda 9abd 34ac debd 8be2 893d
00000010: 7a34 fdbc d12b debd 36da 34be 9ddf 013e
00000020: 2d88 e2bd a76d 273e 8ad9 dabd 8c67 d83d
00000030: 5a14 a5bd 4d96 163e 1d20 3f3e 9ed3 093e
00000040: 8897 96bd 8153 03bd 7c01 07be 01c7 72bc
00000050: 21b0 173d a693 d73d 660d 88bd f36a 063e
00000060: 651b 27bd 85fb 803c 1a7f ccbd 90a1 103d
00000070: 476d 1f3d c4e0 063e 157c 0f3e 8bfb 233e
00000080: 582e e53d 67e6 4ebd 43da 893d d650 fd3d
00000090: 87e0 c93d 3297 e03d 883c 80bd 48d3 d53c
000000a0: a97d 62bd b51a a33d 0a07 47bd 2142 3bbe
000000b0: fa90 90bd 5b5b 13be 7a33 f23c e6a3 063e
000000c0: d390 88bc 64d4 9fbd b71c 35bc 0bf0 19be
000000d0: a657 d43d bfea 0e3e 19e4 05be ab3b 023e
000000e0: 3602 963d e2b7 3ebe a382 c93d 7b92 933c
000000f0: c05e cdbd 576a a03d 77f9 aabd 1eba 8c3c
00000100: eb45 1f3e 0f38 843d 0816 b03d 1c93 b4bd
00000110: 6eae e2bd 827b 8a3d 3329 fcbb fcf8 013e
00000120: a467 123e a0a7 0d3e 5775 783d 4553 dbbd
00000130: 3787 e03b 6b43 dd3c 8e87 cbbd 151d ffbc
00000140: ec10 003d a275 d0bd 5552 093d acf1 1cbe
00000150: 02bd c33d 452e afbd 6f35 973d 7adc 4fbc
00000160: d163 cfbd 5b98 1d3d f837 febd 968f fd3d
00000170: 1353 a93c 60a5 3f3d bef6 0a3e 1027 f83d
00000180: 2dd5 1a3e da8c 9d3d 2ccf 82bd a1cb 91bc
00000190: c7bb 2abe bb55 ce3c f883 e33b 12f9 253e
000001a0: 1667 143e e113 6abd 8039 dcbd adda d23d
000001b0: 561f 1f3d 4aaf d7bd 9de3 05be 3344 11be
000001c0: e04d 843d c254 533d 1daf be3d fcae 963d
000001d0: 1113 87bd 46e4 533e c006 a03d 686e 3c3d
000001e0: 4f16 b5bc e2f3 3bbe 7dc3 af3c 10e4 573d
000001f0: fc61 493c 6a64 8f3d 5aa8 b1bd 69c5 0a3e
00000200: cb76 153c 37fb 3fbe e6ab d4bd 9987 213d
00000210: 0de7 e93d 40d9 9cbd 284e adbd bfec 0b3c
00000220: 4b27 24be d67d 94bd 3439 eabd a379 183e
00000230: 4983 f4bd 062d b2bc dec3 053e 70b1 f1bc
00000240: e1c9 113e 2186 9dbd 39db 563b d0fd 2a3b
00000250: e12b d9bd 4b45 e73d 8bc5 66bc e79a 31be
00000260: 39da 923d b41d 80bd 35a9 c6bd f9f6 a53d
00000270: 6d18 273d 351d e5bd 526d c83d 6eef 133c
00000280: a134 aabd de77 023e 8be0 ae3c 3478 a13d
00000290: 599b 19bd ee41 803d 2db1 363d ac90 0d3e
000002a0: f7ad 1bbe 0b01 27bd b160 c03d 75ea a6bd
000002b0: 133b ffbd 193d ef3d a7a4 b83d 4ee9 273e
000002c0: 1538 8b3d ec37 52bd 9e62 16be 84d2 e5bd
000002d0: 3c2c 423d 8072 36bd 5c66 2a3e f040 f03d
000002e0: 5efa 4a3c bb10 333e 4ee7 f73c 4d46 f13c
000002f0: 73ce 303e 617b b4bc 8d01 493d 752e 31bc
00000300: 7907 1e3e 7bd4 e73d 4b44 25bd af80 1ebe
00000310: 363a cc3c 77f0 42ba 3eb1 9b3d 946b 8a3d
00000320: c2d5 22be 29f7 08be 74a4 3fbd c5a5 19be
00000330: b95f 253c 1d57 e83d 9cf3 2f3e 6788 93bb
00000340: aa05 09be 34d3 d23d 0e48 09be 7e84 053e
00000350: 7f7e 92bd f3f9 cbbd 2ef8 e53d 8927 463d
00000360: 107a 3bbd 9af2 d73d fbbe 1bbe f721 9cbd
00000370: f6c0 c1bd 6cc8 03be cd33 31be 9d0b d7bd
00000380: 9542 0d3d 0fbb d7bd 7779 163e 4b29 8dbc
00000390: be23 a13c 022b 193e 89af bf3c 763d ecbd
000003a0: 7fce 2bbd 3a2b b6bc a9fe 7fbd f648 343d
000003b0: e987 1cbe 3e48 5d3d 6a6b d3bd e268 fe3d
000003c0: eb29 57bb f6b0 0bbe bfb3 fcbd f19b 0fbe
000003d0: c18f 9f3b cf20 973c 1896 95bd 08a9 86bd
000003e0: 91cf f1bd 7070 dfbd 0e09 4abd 0650 cdbd
000003f0: 23ac a03d afdc b03d 26d0 6ebd 9504 a53c

bias f4 [32]
-0.051315755 0.06338333 0.020830132 0.053138055 0.13680227 -0.09678022 -0.015988437 0.13176002
-0.023289196 0.026106348 0.11248673 0.0031498806 -0.025731904 0.10282279 0.05977891 -0.17973094
0.07412264 -0.028138308 0.028437901 0.000843156 0.11829548 -0.1665008 0.07160364 0.112824045
-0.15133819 -0.027160281 0.09195547 0.03837295 0.100050956 0.13729984 0.14711726 0.18334505
00000000: 7830 52bd 1fcf 813d f4a3 aa3c 4aa7 593d
00000010: e515 0c3e b534 c6bd 2ffa 82bc 19ec 063e
00000020: fcc8 bebc fbdc d53c 715f e63d 3a6e 4e3b
00000030: b7cb d2bc c194 d23d bbda 743d 630b 38be
00000040: 9ccd 973d 4f82 e6bc 9af6 e83c 3e07 5d3a
00000050: e744 f23d 307f 2abe eea4 923d 4b10 e73d
00000060: 66f8 1abe 3d7f debc 2653 bc3d f42c 1d3d
00000070: 84e7 cc3d 5498 0c3e e8a5 163e cebe 3b3e

weight f4 [32, 32]
0.1532388 -0.044454817 -0.04549252 -0.15230584 -0.03643798 0.04985986 0.08811917 0.012663502
0.086214505 0.18327664 0.11892538 0.02378625 -0.0026413447 -0.1268694 0.095196255 -0.067286976
0.0029026621 0.14524168 0.15431324 -0.020147283 0.12058412 0.13530785 -0.11883595 -0.042677063
0.047457952 0.12731239 -0.14324863 -0.08010943 0.1377305 0.1268348 -0.08047292 0.09772383
0.039096426 -0.06381335 0.07094478 0.14501539 -0.11645033 -0.1254617 0.12055233 0.0012513053
0.08260574 -0.18116121 -0.1592336 0.1225498 0.012228687 -0.0052536204 -0.082543254 0.098713264
0.02332372 -0.18514228 0.08887353 0.021864425 -0.08197308 0.12249686 0.08671849 0.066262305
-0.122160524 0.09962366 -0.14340396 -0.060679145 0.062408715 -0.09023992 0.0952368 0.089071944
0.06716056 0.18129897 0.023079554 -0.008559847 0.103086844 -0.03346663 -0.09550845 -0.053087942
0.0669217 -0.05475424 -0.052557733 0.094266035 -0.1913805 -0.048496377 -0.15638612 0.0319161
0.044447474 0.026977917 0.061146293 0.039508395 0.047234274 0.058311343 -0.024435082 0.17632063
-0.049653754 0.05271559 0.20386033 0.05892893 -0.12234393 -0.0077161375 -0.1313178 -0.097171925
0.0077235457 0.12523445 -0.04553174 -0.046879597 0.019377671 -0.081453286 -0.08819583 -0.13742943
-0.015574193 0.05955531 0.13192654 -0.1878317 0.10292286 -0.1572617 0.08177725 -0.13003686
-0.10413709 -0.14402057 0.12825842 -0.14218776 0.111754976 0.14583078 -0.14170925 0.10845732
0.1564101 -0.15117568 -0.13798164 0.106487 -0.09373914 0.104328476 -0.11760335 -0.03902057
-0.098547705 0.028180908 -0.11633031 -0.07811034 0.048934292 -0.017543629 -0.033278085 -0.10096048
0.0849582 0.12856165 0.07712967 -0.13329914 -0.13566847 -0.10218741 -0.014088496 -0.011886149
-0.0010449106 0.029680945 0.09764493 0.102840796 0.025658712 -0.07050239 -0.0012007641 -0.07325423
-0.13569587 -0.03619489 -0.15421517 0.14610936 0.1409208 0.0032243934 -0.1300024 -0.06950428
0.017329706 0.1053696 0.12581944 0.019573739 0.077792846 -0.017753366 -0.12917572 -0.09162768
-0.03933447 0.029387342 -0.008567701 0.09552793 0.17941147 -0.109511666 0.07788008 -0.07794986
0.08557866 -0.16845806 -0.08586669 0.115158685 -0.061470106 -0.086695395 0.09815226 -0.14031047
-0.105132475 0.016430056 0.063954875 -0.14424367 0.14259104 -0.18983483 0.112566 -0.15811875
0.031974073 -0.0971922 -0.1401938 0.18336168 0.081657834 -0.14174646 -0.13578065 0.010710944
0.14051142 0.12105356 0.032067385 0.024533967 -0.12962122 0.0845484 0.005558378 -0.12832218
-0.10848582 -0.015183572 -0.09431487 -0.05706113 0.17231189 0.025006983 -0.08111582 0.14089048
0.17529666 0.03391254 -0.0003437977 0.01006961 -0.04320367 0.052800525 0.062374227 0.13376829
0.09997886 0.057730082 0.0044135554 0.14311564 0.07540469 0.062897496 0.12444711 0.0468098
-0.020529747 0.012667671 -0.07997496 0.12828763 -0.0643387 0.069083475 0.06942432 -0.1319632
-0.14945859 0.109192 -0.14503619 -0.06434839 0.11228197 0.055686165 0.16063969 -0.14877349
0.07523364 -0.080482066 0.084014095 0.13862686 0.10169807 -0.15945323 -0.05347237 0.13626316
00000000: a2ea 1c3e 4116 36bd 5d56 3abd 10f6 1bbe
00000010: fe3f 15bd da39 4c3d d377 b43d 947a 4f3c
00000020: 3b91 b03d dfac 3b3e 268f f33d 62db c23c
00000030: 691a 2dbb 0dea 01be 41f6 c23d c1cd 89bd
00000040: 973a 3e3b 3cba 143e 4a04 1e3e ea0b a5bc
00000050: cff4 f63d 248e 0a3e 4360 f3bd 25ce 2ebd
00000060: 4563 423d 2e5e 023e c5af 12be 6a10 a4bd
00000070: 3909 0d3e fbe0 013e fcce a4bd 6e23 c83d
00000080: 9323 203d 93b0 82bd 7f4b 913d ea7e 143e
00000090: 837d eebd 0879 00be 24e4 f63d d702 a43a
000000a0: 332d a93d 5382 39be 220e 23be 64fb fa3d
000000b0: d55a 483c 9026 acbb 700c a9bd 2e2a ca3d
000000c0: 6311 bf3c f095 3dbe 5303 b63d 061d b33c
000000d0: 81e1 a7bd a2df fa3d 7799 b13d 88b4 873d
000000e0: 4c2f fabd 7d07 cc3d 7dd8 12be b28a 78bd
000000f0: 48a0 7f3d b5cf b8bd 830b c33d 5a6b b63d
00000100: 7a8b 893d 70a6 393e 5511 bd3c 9a3e 0cbc
00000110: 321f d33d 4e14 09bd ef99 c3bd be72 59bd
00000120: 3f0e 893d fb45 60bd c746 57bd 8d0e c13d
00000130: 40f9 43be 23a4 46bd af23 20be 75ba 023d
00000140: 8e0e 363d cb00 dd3c 8974 7a3d 8ed3 213d
00000150: ba78 413d e0d7 6e3d 152c c8bc 658d 343e
00000160: bc61 4bbd 4dec 573d c3c0 503e 765f 713d
00000170: 748f fabd a7d7 fcbb 2c78 06be 1302 c7bd
00000180: cc15 fd3b 763d 003e 7d7f 3abd d204 40bd
00000190: ecbd 9e3c fbd0 a6bd 04a0 b4bd 4dba 0cbe
000001a0: e62a 7fbc 45f0 733d c017 073e f456 40be
000001b0: 38c9 d23d 3609 21be d57a a73d 6228 05be
000001c0: d445 d5bd 217a 13be 2d56 033e ab99 11be
000001d0: cbdf e43d aa54 153e 3b1c 11be df1e de3d
000001e0: f829 203e cccd 1abe 0f4b 0dbe db15 da3d
000001f0: 4efa bfbd 2baa d53d 06da f0bd 09d4 1fbd
00000200: 61d3 c9bd a6db e63c 963e eebd 50f8 9fbd
00000210: 536f 483d a8b7 8fbc 9a4e 08bd 5ec4 cebd
00000220: 91fe ad3d aaa5 033e 29f6 9d3d 927f 08be
00000230: adec 0abe a247 d1bd 6fd3 66bc 1fbe 42bc
00000240: 62f5 88ba 7425 f33c 11fa c73d 329e d23d
00000250: 3832 d23c 8f63 90bd f562 9dba 5006 96bd
00000260: dcf3 0abe 1841 14bd 95ea 1dbe b19d 153e
00000270: 8b4d 103e 5850 533b 591f 05be 4358 8ebd
00000280: 07f7 8d3c 04cc d73d d0d6 003e 1b59 a03c
00000290: db51 9f3d 826f 91bc a446 04be 4ba7 bbbd
000002a0: 2e1d 21bd b9bd f03c 8b5f 0cbc 26a4 c33d
000002b0: a4b7 373e a747 e0bd 977f 9f3d 2da4 9fbd
000002c0: dd43 af3d 4580 2cbe e0da afbd 51d8 eb3d
000002d0: 14c8 7bbd 5b8d b1bd 0d04 c93d 8cad 0fbe
000002e0: b24f d7bd 5398 863c c6fa 823d 9db4 13be
000002f0: 6303 123e 1064 42be 0189 e63d e2e9 21be
00000300: 3ff7 023d b40c c7bd f78e 0fbe 2ac3 3b3e
00000310: 393c a73d fc25 11be 150a 0bbe f57c 2f3c
00000320: 3ae2 0f3e eeea f73d 1759 033d 75fb c83c
00000330: 6dbb 04be b627 ad3d 0e23 b63b e466 03be
00000340: d02d debd 84c4 78bc 2828 c1bd eeb8 69bd
00000350: 8772 303e 72db cc3c 0d20 a6bd 9845 103e
00000360: f880 333e e0e7 0a3d bf3f b4b9 01fb 243c
00000370: 55f6 30bd 5d45 583d 1e7c 7f3d 8efa 083e
00000380: b7c1 cc3d 6176 6c3d 969f 903b e88c 123e
00000390: c66d 9a3d 67d0 803d 20de fe3d a2bb 3f3d
000003a0: 002e a8bc 108c 4f3c e9c9 a3bd d55d 033e
000003b0: 02c4 83bd a37b 8d3d 562e 8e3d 5c21 07be
000003c0: ac0b 19be 0ea0 df3d 5e84 14be 17c9 83bd
000003d0: 17f4 e53d 2d17 643d bb7e 243e 1458 18be
000003e0: 1814 9a3d c8d3 a4bd 950f ac3d 33f4 0d3e
000003f0: 1447 d03d b547 23be d805 5bbd 9288 0b3e

bias f4 [32]
-0.011645883 -0.13365944 0.058909804 -0.018564388 0.008810816 -0.14229551 0.01458496 -0.10301735
0.16767238 -0.13526382 -0.1530462 0.06857964 0.010448597 -0.00921577 0.09313544 0.116671816
0.14709094 -0.01978045 -0.0019669465 0.09348669 0.17542672 -0.03217955 -0.028733552 -0.027836815
0.015802212 -0.121939294 0.17257495 0.036511425 0.06296458 0.13980053 0.10042201 -0.029969253
00000000: 60ce 3ebc 05de 08be 684b 713d 5814 98bc
00000010: 3e5b 103c eab5 11be c2f5 6e3c c3fa d2bd
00000020: 4fb2 2b3e 9982 0abe 25b8 1cbe 7b73 8c3d
00000030: 9830 2b3c befd 16bc cbbd be3d a2f1 ee3d
00000040: 029f 163e 9c0a a2bc e3e7 00bb f375 bf3d
00000050: 10a3 333e b4ce 03bd a062 ebbc 080a e4bc
00000060: a473 813c 4fbb f9bd 7db7 303e 018d 153d
00000070: 93f3 803d df27 0f3e 0eaa cd3d 1482 f5bc

weight f4 [32, 32]
-0.21340317 0.02406956 0.19315839 0.12654267 -0.07794347 -0.024664598 -0.10028131 0.06488685
0.117824316 -0.010081548 -0.12062209 -0.20702821 -0.032376792 -0.17392111 0.093927465 -0.13602784
0.13167587 -0.19741668 -0.009839935 0.033617903 0.19221711 0.12416073 -0.04530101 0.14670266
4.902704e-06 0.07169131 0.10536419 -0.0890716 0.08682248 -0.09654064 0.124663845 0.15922317
-0.16933227 -0.12930657 -0.15440854 -0.11488896 0.13762504 0.09540684 -0.13154155 0.050224945
0.11228502 -0.09864316 0.074861616 -0.06117854 0.045542777 -0.1454569 -0.107932195 0.033977564
-0.15082233 -0.06132843 0.10003535 -0.08113418 0.11679231 0.060462765 0.09264305 0.06727634
-0.080282696 -0.12189788 -0.1314972 -0.13300897 -0.09415164 0.07150577 -0.14603937 -0.11240113
0.035399023 -0.0035981343 0.12272415 0.029910406 -0.0050348993 -0.14329702 0.09068962 0.07609642
-0.040154073 0.05027917 0.118481286 -0.023226699 -0.007810097 -0.0029624198 0.08889196 -0.11188424
0.022175401 -0.122754835 -0.16596079 0.14918447 0.14679071 0.16302535 -0.10739299 0.15773134
-0.116075896 -0.103526026 0.031537503 0.122569114 -0.18825153 0.08661107 0.026650576 0.07908331
0.01712546 0.1499713 -0.015851036 0.015699439 -0.06285554 -0.09888965 0.105246715 -0.07156192
-0.08341078 0.052111257 -0.1268836 0.10228991 0.14287257 0.14179716 -0.03271722 -0.10046747
0.14527519 0.1061143 0.19983341 -0.14707474 -0.108026 -0.17412218 -0.12585606 0.14124608
-0.19158822 0.07533628 -0.03557776 0.15552096 0.17200443 0.054782007 -0.04916371 0.08836382
0.11984993 -0.08040141 -0.18643004 -0.012833697 -0.089141846 -0.12517196 0.051405687 0.103843905
-0.20743477 0.0681655 0.017911058 -0.02105939 0.19434084 -0.026105177 -0.12050904 -0.048371617
-0.0041740593 -0.16528685 -0.087986365 0.04188827 -0.13277954 -0.07684632 0.08955198 0.007375076
-0.078074165 -0.08348764 -0.07499949 -0.13595581 -0.13818851 -0.028892305 0.0641318 0.08617215
0.004563366 -0.13730612 0.051717985 -0.17313716 0.038507856 0.08259399 -0.0377318 0.06721754
-0.19375043 -0.071220554 0.11364494 0.1842907 0.15917033 0.036794655 -0.20161813 -0.037159126
-0.11567315 -0.12744227 -0.024318118 -0.056563046 0.13842398 -0.16009776 0.10923214 0.06721133
-0.14878535 -0.014410512 -0.12424318 0.026217042 0.05467355 -0.07935622 0.14705004 -0.113521785
-0.046159346 0.017881846 -0.104991704 -0.042805184 -0.122655675 0.005299295 0.040855225 -0.13731156
0.1794914 -0.004361811 0.14183895 -0.0015618273 -0.09610177 -0.07061644 0.022239733 -0.03717324
0.040171873 -0.048244692 -0.12298981 0.04923834 0.19697315 -0.03464707 0.03514258 -0.1123698
-0.096969835 -0.19927451 -0.09760283 0.08896119 0.15505882 0.15620264 0.033081908 -0.0845455
-0.014162292 0.09450677 0.11146393 -0.06454835 -0.051485013 -0.1751746 0.0775272 0.03542023
-0.094945535 0.0039457013 0.02736904 -0.15359698 0.13644758 -0.11560382 0.118218504 -0.049851596
-0.101235695 -0.07553484 -0.025424989 -0.056228142 0.12141555 -0.17833355 -0.12619214 -0.021894341
-0.11397558 -0.110896826 -0.17382939 0.076901585 -0.08125658 0.081434436 0.17702365 -0.11630148
00000000: 5c86 5abe 872d c53c 50cb 453e 6794 013e
00000010: d3a0 9fbd 690d cabc 4a60 cdbd 66e3 843d
00000020: e04d f13d 142d 25bc b708 f7bd 34ff 53be
00000030: 879d 04bd 6018 32be 0b5d c03d e24a 0bbe
00000040: 0ad6 063e 9927 4abe ae37 21bc edb2 093d
00000050: 90d4 443e fb47 fe3d 8d8d 39bd 3939 163e
00000060: e881 a436 e5d2 923d 2ec9 d73d 2c6b b6bd
00000070: fccf b13d 19b7 c5bd c24f ff3d 660b 233e
00000080: 7065 2dbe f168 04be 461d 1ebe e74a ebbd
00000090: 94ed 0c3e a964 c33d d4b2 06be acb8 4d3d
000000a0: b0f5 e53d 6d05 cabd 0c51 993d 5996 7abd
000000b0: 108b 3a3d a7f2 14be 8e0b ddbd 0f2c 0b3d
000000c0: 2b71 1abe 8533 7bbd 55df cc3d ad29 a6bd
000000d0: ce30 ef3d cea7 773d a4bb bd3d 2ec8 893d
000000e0: 416b a4bd 99a5 f9bd 34a7 06be 8133 08be
000000f0: 93d2 c0bd 9e71 923d 588b 15be 9032 e6bd
00000100: 91fe 103d adce 6bbb cd56 fb3d ab06 f53c
00000110: ccfb a4bb 74bc 12be 7bbb b93d 71d8 9b3d
00000120: 9978 24bd 88f1 4d3d 51a6 f23d eb45 bebc
00000130: d8eb ffbb 2825 42bb fd0c b63d 9023 e5bd
00000140: 30a9 b53c e366 fbbd a0f1 29be d0c3 183e
00000150: 4e50 163e 1ef0 263e dbf0 dbbd 5384 213e
00000160: 33b9 edbd 7405 d4bd 782d 013d 8405 fb3d
00000170: 02c5 40be 2561 b13d 4f52 da3c 6ef6 a13d
00000180: b14a 8c3c 1492 193e 08da 81bc 1c9c 803c
00000190: 68ba 80bd a886 cabd 978b d73d 0e8f 92bd
000001a0: 45d3 aabd 9d72 553d c6ed 01be 5f7d d13d
000001b0: 304d 123e 4633 113e 7e02 06bd e4c1 cdbd
000001c0: 05c3 143e 7452 d93d 21a1 4c3e c39a 16be
000001d0: bc3c ddbd 164d 32be 69e0 00be d0a2 103e
000001e0: b42f 44be e849 9a3d fcb9 11bd e340 1f3e
000001f0: ee21 303e 1963 603d e35f 49bd 17f8 b43d
00000200: e173 f53d 7fa9 a4bd 84e7 3ebe 6d44 52bc
00000210: 0090 b6bd 142d 00be c58e 523d 1dac d43d
00000220: c869 54be 5b9a 8b3d 36ba 923c be84 acbc
00000230: 4901 473e 86da d5bc 72cd f6bd 5121 46bd
00000240: 8cc6 88bb f540 29be 3232 b4bd 0993 2b3d
00000250: 5cf7 07be 9a61 9dbd 0767 b73d 9faa f13b
00000260: 59e5 9fbd 91fb aabd 5599 99bd 0038 0bbe
00000270: 4a81 0dbe 8eaf ecbc 8857 833d 067b b03d
00000280: 4a88 953b fa99 0cbe 3dd6 533d de4a 31be
00000290: 6aba 1d3d 0a27 a93d a98c 1abd 5aa9 893d
000002a0: 8366 46be 15dc 91bd aebe e83d b4b6 3c3e
000002b0: 8cfd 223e feb5 163d fc74 4ebe 2b34 18bd
000002c0: 0be6 ecbd 3a80 02be ca36 c7bc a7ae 67bd
000002d0: 04bf 0d3e abf0 23be 1ab5 df3d 18a6 893d
000002e0: 305b 18be 111a 6cbc 3573 febd 1fc5 d63c
000002f0: 5ff1 5f3d 8485 a2bd 4994 163e 1c7e e8bd
00000300: 9511 3dbd f37c 923c e405 d7bd 7d54 2fbd
00000310: e632 fbbd b5a5 ad3b cf57 273d 679b 0cbe
00000320: 98cc 373e 86ed 8ebb 3b3e 113e 3ab6 ccba
00000330: 01d1 c4bd 5a9f 90bd 1a30 b63c f842 18bd
00000340: 438b 243d 3a9c 45bd 15e2 fbbd 24ae 493d
00000350: 54b3 493e 16ea 0dbd aaf1 0f3d 2322 e6bd
00000360: 1f98 c6bd 9e0e 4cbe fee3 c7bd 4931 b63d
00000370: bdc7 1e3e 96f3 1f3e e580 073d 3126 adbd
00000380: f508 68bc c48c c13d 3347 e43d ed31 84bd
00000390: f3e1 52bd f860 33be 95c6 9e3d ce14 113d
000003a0: ce72 c2bd f14a 813b 0935 e03c 8748 1dbe
000003b0: eab8 0b3e b2c1 ecbd 8b1c f23d 3031 4cbd
000003c0: a954 cfbd 03b2 9abd 1148 d0bc 7b4f 66bd
000003d0: b7a8 f83d 129d 36be 8338 01be c35b b3bc
000003e0: 076c e9bd e01d e3bd 5500 32be 947e 9d3d
000003f0: da69 a6bd 19c7 a63d b045 353e 782f eebd

bias f4 [32]
-0.04204206 0.12703557 -0.12498744 -0.013435954 0.19645327 0.114956364 -0.06740969 -0.03699095
0.0033306417 -0.15855435 -0.14220542 0.10132073 0.1754436 -0.009307248 -0.13432209 0.11575153
0.10031343 0.0870186 0.056653492 0.094666645 -0.040496264 0.20887756 -5.2625634e-05 0.01344793
-0.03921251 0.083109066 -0.056180764 0.12001896 -0.054390132 -0.17369181 -0.030536398 0.11570323
00000000: 4c34 2cbd 9d15 023e 6af9 ffbd 7a22 5cbc
00000010: 0c2b 493e 3e6e eb3d 170e 8abd d383 17bd
00000020: e546 5a3b 125c 22be 4c9e 11be 3e81 cf3d
00000030: 7da7 333e 6d7d 18bc bb8b 09be 230f ed3d
00000040: 2171 cd3d cf36 b23d 7e0d 683d 96e0 c13d
00000050: 69df 25bd 00e4 553e 58ba 5cb8 b554 5c3c
00000060: 4c9d 20bd 1635 aa3d cd1d 66bd 80cc f53d
00000070: 30c8 5ebd 44dc 31be 7827 fabc d1f5 ec3d

weight f4 [32, 32]
0.08878872 -0.13736047 0.19856006 -0.13240106 0.17667465 0.007270968 -0.103152715 -0.10603515
0.08719618 -0.019109813 0.13359524 -0.15211883 -0.06555522 0.18956642 0.15825306 -0.0015424835
-0.1283415 -0.13512279 -0.04568332 0.117878675 0.18352705 0.0658598 -0.045723118 0.066660985
-0.13651605 0.08388287 -0.17023359 -0.079966635 -0.12228055 0.016071707 0.12684107 0.19033636
-0.17835009 0.04406343 -0.14727958 0.030819966 0.11385872 0.06447957 -0.09699166 -0.06677777
0.075804494 0.06830831 -0.11656592 0.13513698 -0.08071365 -0.00756383 0.091840394 0.14061148
-0.1431519 -0.13841718 0.08944935 -0.003745553 0.101614185 -0.033791672 0.05963149 0.12629816
0.13515933 0.09138397 0.00896305 0.08597651 -0.0041274563 -0.13163832 0.06580661 0.030551624
0.007932773 -0.046859026 0.088855445 -0.1483321 -0.08061316 -0.07377997 -0.16393776 -0.021593912
0.1062304 0.11296967 0.10050381 0.016143603 -0.040582262 0.102683075 -0.009273952 -0.17054273
-0.025324801 0.15998785 0.104155615 0.07404474 -0.017767146 0.14233132 0.16864403 0.05351008
0.15751274 0.020021092 0.11402037 0.00015685824 -0.10556552 0.10029655 0.13121295 -0.13324036
-0.06769125 0.052159116 0.02516909 0.18467103 0.031075763 -0.09573634 0.13924278 0.18355474
-0.014573799 -0.009289656 0.19077724 -0.003408051 -0.043888025 0.16517289 0.16724604 -0.00852158
-0.12580618 -0.13852796 -0.06697672 -0.1271329 -0.13543716 0.031850696 -0.023638567 0.077969424
-0.036035296 -0.02113838 0.115949005 0.06303044 -0.044750556 0.06509024 0.18614314 -0.1541595
0.19041148 0.15875076 0.14947958 0.07357191 -0.07054455 -0.16322954 -0.016993351 0.17208567
-0.13691317 0.110828325 -0.07469907 0.026312687 0.0044062566 -0.10269249 -0.17585553 -0.05115284
0.037265886 0.065896094 0.035922997 0.12518187 0.09097332 -0.20389938 -0.09496907 -0.044923894
-0.12423445 0.10018066 0.015051112 0.16939417 0.06465786 0.12803002 -0.09667846 0.20579179
-0.0380729 0.13023105 -0.019810297 -0.106725626 0.004088853 -0.17117953 0.08766087 -0.05500997
-0.04582524 0.024775537 -0.061914038 0.11118264 0.1972394 0.053089786 -0.01369452 -0.08271994
0.14527045 -0.020083033 -0.14354579 0.11395996 -0.0930456 -0.03054065 0.005198401 0.10937023
-0.12909009 -0.059548914 -0.13048759 -0.03903557 -0.11809462 0.10046766 0.10097914 0.110179566
0.17336145 -0.1046652 0.026581427 -0.010218931 -0.1415741 -0.02782307 -0.021914154 -0.14625645
0.008047744 0.005674117 -0.020264663 0.004478226 0.025590979 0.030257316 0.08641786 0.19764401
-0.12393397 0.14067806 0.0649234 0.12685741 0.18362097 0.04243726 0.09915718 0.083245695
-0.06724269 -0.06711398 -0.07524279 -0.082820915 0.21593341 -0.094793804 -0.16699411 0.13310626
0.1307061 0.123890035 -0.08714424 0.046265077 -0.081118844 -0.13327485 0.10951136 -0.03369111
-0.11826809 0.06866736 -0.08016945 0.039293163 0.15582249 0.07329266 -0.056519005 0.15609145
-0.11054055 -0.0446556 0.008599329 0.1643659 0.07692357 -0.081352346 0.076566584 0.0026625723
-0.007022923 -0.09592686 0.15011415 -0.17045213 0.16297744 -0.05989082 -0.111256726 0.02939467
00000000: dcd6 b53d 39a8 0cbe 5453 4b3e 2594 07be
00000010: 33ea 343e 4d41 ee3b bb41 d3bd f528 d9bd
00000020: e993 b23d 2f8c 9cbc 31cd 083e 0ac5 1bbe
00000030: d141 86bd b31d 423e 170d 223e 282d caba
00000040: f46b 03be a15d 0abe 6f1e 3bbd 606a f13d
00000050: 84ee 3b3e 81e1 863d 2a48 3bbd 8e85 883d
00000060: ddca 0bbe c8ca ab3d b751 2ebe 8cc5 a3bd
00000070: 3a6e fabd d0a8 833c a0e2 013e 89e7 423e
00000080: 68a1 36be db7b 343d 75d0 16be 277a fc3c
00000090: c32e e93d dd0d 843d 90a3 c6bd c9c2 88bd
000000a0: 633f 9b3d 3ae5 8b3d 1dba eebd 5961 0a3e
000000b0: 334d a5bd 01da f7bb d116 bc3d 75fc 0f3e
000000c0: 6996 12be 3cbd 0dbe 3931 b73d f477 75bb
000000d0: 191b d03d 2369 0abd 2640 743d 4e54 013e
000000e0: 3567 0a3e 8527 bb3d c2d9 123c 7414 b03d
000000f0: 9d3f 87bb 32cc 06be 9ec5 863d 6647 fa3c
00000100: 76f8 013c 40ef 3fbd d8f9 b53d 5fe4 17be
00000110: 8318 a5bd f419 97bd 4ddf 27be b7e5 b0bc
00000120: 538f d93d a45c e73d f1d4 cd3d 973f 843c
00000130: 9639 26bd 814b d23d c6f1 17bc c1a2 2ebe
00000140: f575 cfbc dbd3 233e 8a4f d53d c5a4 973d
00000150: 688c 91bc 4dbf 113e 05b1 2c3e 632d 5b3d
00000160: 054b 213e 4603 a43c 8383 e93d 507a 2439
00000170: bc32 d8bd 4768 cd3d b05c 063e 2970 08be
00000180: b6a1 8abd cca4 553d 682f ce3c 671a 3d3e
00000190: 9992 fe3c 6a11 c4bd a995 0e3e c6f5 3b3e
000001a0: f2c6 6ebc a433 18bc 1c5b 433e 9c59 5fbb
000001b0: eec3 33bd 1523 293e 8c42 2b3e 199e 0bbc
000001c0: 56d3 00be 46da 0dbe 172b 89bd 202f 02be
000001d0: 0ab0 0abe e075 023d aba5 c1bc 6fae 9f3d
000001e0: bf99 13bd 652a adbc ac76 ed3d 1a16 813d
000001f0: 5c4c 37bd 084e 853d 4f9c 3e3e fddb 1dbe
00000200: 3afb 423e 8f8f 223e 2d11 193e dfac 963d
00000210: a979 90bd a525 27be a435 8bbc 3a37 303e
00000220: f732 0cbe f6f9 e23d d3fb 98bd b48d d73c
00000230: 5c62 903b 7150 d2bd 7913 34be a485 51bd
00000240: 1da4 183d 88f4 863d fe23 133d ad2f 003e
00000250: 3850 ba3d 00cb 50be 257f c2bd 1e02 38bd
00000260: a26e febd 852b cd3d f098 763c aa75 2d3e
00000270: 576b 843d 4d1a 033e 5bff c5bd 15bb 523e
00000280: 54f2 1bbd 4a5b 053e 3449 a2bc f792 dabd
00000290: c9fb 853b b049 2fbe 8b87 b33d 2252 61bd
000002a0: 3fb3 3bbd 11f6 ca3c 9399 7dbd b9b3 e33d
000002b0: 20f9 493e ad74 593d fb5e 60bc 1269 a9bd
000002c0: c7c1 143e 2c85 a4bc abfd 12be d763 e93d
000002d0: b18e bebd 6330 fabc 5957 aa3b 80fd df3d
000002e0: 3130 04be 90e9 73bd 8a9e 05be c3e3 1fbd
000002f0: 98db f1bd fdc1 cd3d 27ce ce3d d3a5 e13d
00000300: aa85 313e b55a d6bd 4bc1 d93c 4e6d 27bc
00000310: cdf8 10be 35ed e3bc 5085 b3bc 40c4 15be
00000320: afda 033c f1ed b93b 1402 a6bc 15be 923b
00000330: 2ca4 d13c 31de f73c d9fb b03d 3163 4a3e
00000340: 18d1 fdbd e90d 103e 8ff6 843d e9e6 013e
00000350: 2307 3c3e b1d2 2d3d eb12 cb3d b87c aa3d
00000360: 89b6 89bd 0e73 89bd e418 9abd 039e a9bd
00000370: a61d 5d3e 4123 c2bd 8100 2bbe 024d 083e
00000380: d2d7 053e 0fba fd3d ae78 b2bd 7380 3d3d
00000390: a321 a6bd 3479 08be 7e47 e03d b0ff 09bd
000003a0: 8a36 f2bd 79a1 8c3d e12f a4bd def1 203d
000003b0: ee8f 1f3e 761a 963d 7980 67bd 70d6 1f3e
000003c0: 1563 e2bd cae8 36bd 33e4 0c3c 894f 283e
000003d0: 1b8a 9d3d 0f9c a6bd f1ce 9c3d 8d7e 2e3b
000003e0: 8c20 e6bb 4d75 c4bd 86b7 193e 018b 2ebe
000003f0: 8fe3 263e 1450 75bd 91da e3bd 17cd f03c

bias f4 [32]
0.032872695 -0.008736017 0.0666594 0.13936159 -0.13444282 0.06284934 0.026474068 0.15158112
-0.012984368 0.007772464 0.15599456 -0.040085994 -0.1280496 -0.14451382 -0.08812794 -0.0090755625
-0.1501605 -0.04278316 0.044525497 0.16396031 0.030000826 0.12703153 0.09816312 -0.051397886
0.11913096 -0.05648286 0.026508182 -0.007996406 0.035575796 -0.05717812 0.099009655 0.089131765
00000000: 85a5 063d 8321 0fbc b984 883d ceb4 0e3e
00000010: 61ab 09be 28b7 803d 25e0 d83c 1538 1b3e
00000020: 63bc 54bc 27b0 fe3b 0abd 1f3e 3631 24bd
00000030: 6f1f 03be 6efb 13be 6c7c b4bd abb1 14bc
00000040: adc3 19be 653d 2fbd 5e60 363d 36e5 273e
00000050: 4bc4 f53c 8e14 023e bf09 c93d 9786 52bd
00000060: effa f33d 925a 67bd b027 d93c 5c03 03bc
00000070: edb7 113d 9b33 6abd 93c5 ca3d b78a b63d

weight f4 [32]
0.97120166 1.0427966 0.9953273 0.9893894 1.007143 1.0062908 0.9906337 0.9767521
0.9838262 0.9941842 0.99902827 0.9991081 0.9873631 1.0057843 0.9899305 0.9824272
1.0032572 1.0070387 0.98001873 0.99952894 1.0025798 1.0282887 0.9942152 1.0017745
0.99893266 1.0076166 0.97659695 1.0221356 1.0104082 1.0065184 1.0272921 1.0028892
00000000: aca0 783f 5c7a 853f c5cd 7e3f a048 7d3f
00000010: 10ea 803f 23ce 803f 2c9a 7d3f 6d0c 7a3f
00000020: 09dc 7b3f db82 7e3f 51c0 7f3f 8cc5 7f3f
00000030: d4c3 7c3f 8abd 803f 166c 7d3f 5980 7b3f
00000040: bb6a 803f a5e6 803f 82e2 7a3f 21e1 7f3f
00000050: 8954 803f f79e 833f e384 7e3f 263a 803f
00000060: 0dba 7f3f 95f9 803f 4202 7a3f 57d5 823f
00000070: 0e55 813f 98d5 803f 4f7e 833f ac5e 803f

bias f4 [32]
-0.0047616186 0.006582251 -0.0109056495 0.008974055 0.0016263038 -0.005529317 0.0037598766 0.0058169984
-0.007498242 -0.0049808007 0.0019614238 0.002420986 0.01464169 -0.012371263 0.010845274 -0.0047606737
-0.0021593943 0.008202648 0.0044515715 0.005456314 0.0010692197 -0.0048236568 0.001778583 -0.0001982971
0.0031185625 0.0006664063 0.02498332 -0.005178234 -0.0119472835 -0.0077071316 -0.002679477 0.0040181153
00000000: 5a07 9cbb ecaf d73b 9cad 32bc ea07 133c
00000010: b329 d53a 462f b5bb 4368 763b 859c be3b
00000020: d0b3 f5bb fc35 a3bb 3b8b 003b 68a9 1e3b
00000030: b3e3 6f3c d6b0 4abc 60b0 313c 6dff 9bbb
00000040: a084 0dbb 6664 063c 7dde 913b e1ca b23b
00000050: 0f25 8c3a c40f 9ebb 581f e93a f9ed 4fb9
00000060: cc60 4c3b c5b1 2e3a d2a9 cc3c 2dae a9bb
00000070: 8abe 43bc 1b8c fcbb 2a9a 2fbb 65aa 833b

weight f4 [32]
1.0318607 1.0293804 1.0497117 1.0069956 1.0263664 1.0328308 1.0463921 1.0299906
1.0528226 0.9970232 1.0344906 1.030474 1.0359408 1.015797 1.0588248 0.998333
1.0288172 1.0437332 1.044115 1.0354084 1.0396874 1.0176239 1.0229192 1.0088394
1.0195543 0.9960583 1.0200008 0.98830485 1.0173166 1.0159808 1.0420486 1.0097822
00000000: 0314 843f bdc2 833f f45c 863f 3be5 803f
00000010: f95f 833f cd33 843f 2df0 853f bbd6 833f
00000020: e4c2 863f ea3c 7f3f 306a 843f 92e6 833f
00000030: b599 843f a305 823f 9287 873f c092 7f3f
00000040: 48b0 833f 0d99 853f 8fa5 853f 4388 843f
00000050: 7a14 853f 8041 823f 04ef 823f a621 813f
00000060: c180 823f adfd 7e3f 638f 823f 8c01 7d3f
00000070: 6e37 823f a90b 823f d961 853f 8b40 813f

bias f4 [32]
-0.008370753 0.003337166 0.006614561 -0.0084592905 -0.027006416 -0.036326118 0.04351378 0.035248026
-0.004856099 -0.0013055162 0.0049688816 -0.009026226 -0.0006717863 -0.013891249 -0.0006666598 -0.013239725
0.014369836 -0.03986827 0.006949707 -0.035443712 0.028366152 -0.017137846 -0.011315272 0.020289542
-0.0059856335 -0.010432599 -0.018692628 0.033300452 0.01083139 -0.022004154 0.04295498 0.010370745
00000000: 7c25 09bc 5bb4 5a3b f6be d83b d698 0abc
00000010: 8f3c ddbc b2ca 14bd 813b 323d 3c60 103d
00000020: e91f 9fbb db1d abba 00d2 a23b bce2 13bc
00000030: d11a 30ba 1f98 63bc c8c2 2eba 6eeb 58bc
00000040: 766f 6b3c e94c 23bd 5eba e33b 6d2d 11bd
00000050: 2260 e83c ab64 8cbc b163 39bc 4136 a63c
00000060: 2223 c4bb 7eed 2abc 4821 99bc 0e66 083d
00000070: 2476 313c 0e42 b4bc 90f1 2f3d 0fea 293c
