artery_model_last.pt (torch, 21038 bytes, 19 tensors)

convs.0.att_src f4 [1, 1, 32]
00000000: ea40 cabe 48eb a13d bfa7 debc 34be 1d3e
00000010: 871b 5ebe b9da 9bbe 38cd 943e ee1b 52be
00000020: 7992 993e 5c03 b13e 37ad 98be 6d4e 49be
00000030: e83f 523d 1ed8 cdbe 1018 063e e2ed 35be
00000040: 2298 41be 27c6 a8be 1644 4c3e 491f 8bbe
00000050: 6a80 aebe 12a6 e5bd 5913 73be 733f d4be
00000060: 61f8 2f3e ec1f 26be 86ec 983e 6ead 993e
00000070: 8c3c 8bbe d78b 7ebe 96fc 1abe dcc2 7f3e
-0.3950265 0.079062045 -0.027179597 0.15404588 -0.21690188 -0.3044031 0.2906282 -0.20518467
0.29994562 0.34572875 -0.29819652 -0.19658823 0.051330477 -0.40203947 0.13095117 -0.17766526
-0.1890569 -0.32963678 0.19947848 -0.27172306 -0.34082347 -0.11213316 -0.2373785 -0.41454658
0.17184593 -0.16223115 0.29867953 0.3001513 -0.2719463 -0.24858032 -0.15135416 0.24976677

convs.0.att_dst f4 [1, 1, 32]
00000000: 0d7c 70bc 4ffc 1bbe 563e 873e 660a cf3e
00000010: d266 a13e d9f2 a6be b160 b5bd fb80 a7bd
00000020: 1250 ba3e d0d4 61be af3f 7abe 7c9b da3b
00000030: 0bdc cabd 2646 253e 954b 543d e158 82be
00000040: d4bf 9e3e e3e5 873e fa3b bf3d c19a c5be
00000050: e72e 4d3e 5710 913e 8a1e f33d 42c7 28be
00000060: 0b45 ea3c ccbc 27be 3489 cd3e 97cf d23e
00000070: 2d88 4bbd 2ce2 92be 046d 803e cbd9 5e3e
-0.0146780135 -0.15232967 0.26414746 0.4043762 0.31523758 -0.32607153 -0.08856333 -0.08178898
0.36389214 -0.22053838 -0.24438356 0.006671367 -0.09905251 0.16140041 0.051829893 -0.25458434
0.31005728 0.26542577 0.093376115 -0.3859463 0.20037423 0.2833278 0.11871059 -0.16482261
0.028597375 -0.16380614 0.4014374 0.41174003 -0.049690414 -0.2868818 0.25083172 0.21762769

convs.0.bias f4 [32]
00000000: 0000 0000 0000 0000 0000 0000 0000 0000
00000010: 0000 0000 0000 0000 0000 0000 0000 0000
00000020: 0000 0000 0000 0000 0000 0000 0000 0000
00000030: 0000 0000 0000 0000 0000 0000 0000 0000
00000040: 0000 0000 0000 0000 0000 0000 0000 0000
00000050: 0000 0000 0000 0000 0000 0000 0000 0000
00000060: 0000 0000 0000 0000 0000 0000 0000 0000
00000070: 0000 0000 0000 0000 0000 0000 0000 0000
0.0 0.0 0.0 0.0 0.0 0.0 0.0 0.0
0.0 0.0 0.0 0.0 0.0 0.0 0.0 0.0
0.0 0.0 0.0 0.0 0.0 0.0 0.0 0.0
0.0 0.0 0.0 0.0 0.0 0.0 0.0 0.0

convs.0.lin_src.weight f4 [32, 7]
00000000: 5dbf 46be af81 b1be 8f90 063e 3bd8 5b3e
00000010: 5411 c73e 8ae8 27bd f72f c13e 2804 813e
00000020: b033 47be 55e7 9abe c244 613e 540d 5cbe
00000030: 9d3b 383e fffd abbe ad83 923e c4c2 f03d
00000040: 85b2 38bd c034 383e a7f9 8ebe eb9a afbd
00000050: 0300 7c3b eb14 68be 4142 cdbd 3436 2dbe
00000060: 3a64 bf3e 339b aa3e b234 ad3e ce23 a43e
00000070: 5a54 c0be fa59 063e c80a 143e a14c 93be
00000080: aecd 223e 94f0 59be 4079 7f3d 7109 053e
00000090: 024a ad3e 95b5 52be 9f00 9ebe 25d0 b93e
000000a0: 1899 283e 0838 433e 0b94 103e b82a 0ebe
000000b0: 079c 713e 4853 afbe 4c94 5f3d 548f 353e
000000c0: 1136 893e f991 48be f0bb 87be 798c 163e
000000d0: 837c 9fbe 83e5 a6be 8e9a b4be a2c5 42be
000000e0: 9f54 99bd 1dda 6dbe 8dd3 29be 7ad3 b1be
000000f0: 79de 763e c0e5 b7bd a76a 7dbe 1924 d13d
00000100: 2a28 96be f892 8c3e def3 663e db59 c5be
00000110: 9aa2 9dbe fd6a 84be 656c 59be d899 483d
00000120: ca95 c6be 2ae2 94be f86c 373e 468b 03be
00000130: ead2 1fbe 1523 a6be abca 223e c1e6 e23c
00000140: 8c3f 1bbe 20f6 75be 83d6 aa3d ac91 da3d
00000150: 6246 323e e7b8 ee3d a913 75bd 7175 9bbe
00000160: ecb0 7f3e 4759 5cbb e076 85be 0b30 ad3e
00000170: cfef 5f3e 28d5 9dbe bb96 48be 8dae 08be
00000180: 09dd 67be 3790 3b3e 1444 8fbe 7ba3 ba3e
00000190: 9803 26be e814 6d3e 16d9 5a3c e8a3 30be
000001a0: 291b 863e 123c 99be e980 54be d590 403d
000001b0: c74e 9f3e 5a16 2cbe 1593 74be 6235 80be
000001c0: 9213 31be 11be 0abe 8c1a bbbd 9c7d 64be
000001d0: a010 fb3d 00c4 503b 1936 83be a05d 65be
000001e0: 4219 aa3d c39a b7bb c821 8e3e 3e8d 73bd
000001f0: dfaf a2be f887 94be 43c9 ebbd 21e9 b1bd
00000200: f758 373d 9427 b4bd 9e32 143e b694 05be
00000210: 1065 933e 8b81 b83d e9f5 f6bd 3af9 b23e
00000220: 5513 cd3d 2d7a 88be 8e88 5fbe 85d6 7b3e
00000230: a870 373e 26cd 9c3e 5dd2 f6bc ae75 8c3e
00000240: 8db0 473e 776c f83d 28eb b9bd 4b97 c13e
00000250: 9e8e a23d a242 cfbd f9bb b6bb 2d6b c53e
00000260: 05e2 863e 9a1d eebc 3fe1 c43e 7e60 303e
00000270: d5d7 55be 41c3 b6be 7369 693e 9b56 bc3e
00000280: 4602 6abe 13f7 243e e9c9 883c ffc1 abbd
00000290: 636c dabd 1e7a df3d 3617 b13d 37a3 873e
000002a0: 3d08 133e 99c5 363e 4728 b13e 1a22 fa3d
000002b0: 3a7c 6e3d 9839 12be 0a48 933e 2d43 6d3d
000002c0: b271 813e 88ec c13e 98a8 b3bd 4b66 8d3e
000002d0: 0622 a3bd 833a b53e 1811 9e3e d5f6 0fbe
000002e0: 2679 663c e366 2fbe cd71 22be f2a3 a2bd
000002f0: 5040 2fbb cf02 0cbe 9693 bdbe 29ed 72be
00000300: f949 09bd b037 00be 8c29 953e 843d a33e
00000310: 9fdf 7f3e d3c2 313e 8034 9fbe fbba bd3e
00000320: 99f7 b0be 370b 04be 9f57 8dbe 8f6e 103e
00000330: 9e1b a7be 5802 46be 4b21 7fbe d0e2 76be
00000340: e97e 3bbe a269 c53e 0739 03bd badd f43d
00000350: 8c5a c7be ff8d b23e fbeb aebd d24d b8be
00000360: 2566 8a3e 8334 d9bd ac5f b63e c767 88be
00000370: 5773 babe 75de 96be f9fb 2d3e 5c2c 34bd
-0.19408937 -0.34669253 0.13141082 0.21469204 0.38880408 -0.04099325 0.37731907 0.25198483
-0.19453311 -0.30254617 0.21998885 -0.2148946 0.1799149 -0.3359222 0.28616086 0.117558986
-0.045092124 0.17988873 -0.27924845 -0.0857447 0.0038452155 -0.2266423 -0.100224026 -0.16915208
0.37381154 0.33321533 0.33829266 0.32058567 -0.37564355 0.13120261 0.14457238 -0.287694
0.15898773 -0.2128318 0.062371492 0.12991883 0.33845526 -0.2057708 -0.3085985 0.36291614
0.1646465 0.19064343 0.14118974 -0.13883483 0.23594676 -0.34243226 0.054584786 0.17730457
0.26799062 -0.19586934 -0.26510572 0.14702024 -0.31149682 -0.3259698 -0.35274166 -0.19020703
-0.07486843 -0.23227735 -0.16584606 -0.34731656 0.24108304 -0.08979368 -0.24747716 0.10211963
-0.29327518 0.27455878 0.22553965 -0.38545117 -0.30788118 -0.25862876 -0.21232755 0.04897484
-0.38786155 -0.290788 0.17912662 -0.12846097 -0.15607801 -0.3244864 0.15897624 0.027697923
-0.1516096 -0.2401967 0.08341696 0.10672316 0.17409661 0.11656361 -0.059833203 -0.30363038
0.24969834 -0.003362255 -0.26067257 0.33825716 0.21868823 -0.30826688 -0.19588749 -0.13347836
-0.22642912 0.18316732 -0.27981627 0.3645285 -0.16212308 0.23152506 0.013357421 -0.17250025
0.26192597 -0.29928643 -0.207523 0.047013123 0.3111479 -0.16805401 -0.23884232 -0.25040728
-0.17292622 -0.13549067 -0.09135923 -0.22313541 0.1225903 0.0031855106 -0.2562721 -0.22398996
0.08305599 -0.005603166 0.27760148 -0.05946087 -0.31774804 -0.29009986 -0.11512997 -0.08687044
0.044762578 -0.087966114 0.14472434 -0.1304501 0.28788042 0.09009083 -0.120586224 0.3495577
0.10013453 -0.26655713 -0.21829435 0.24593551 0.17914069 0.30625266 -0.030129606 0.27433532
0.19500943 0.12130063 -0.090780556 0.3781074 0.07937358 -0.10120131 -0.0055766073 0.3855833
0.26344314 -0.02906685 0.384531 0.17224309 -0.20883115 -0.35695842 0.22794132 0.36784825
-0.2285243 0.16109876 0.01669784 -0.08386611 -0.106652044 0.10911964 0.08647005 0.2649171
0.14358611 0.17848815 0.34601042 0.122135356 0.05822394 -0.14279783 0.287659 0.057925392
0.25282055 0.37875772 -0.08772391 0.27617106 -0.07965474 0.35396203 0.30872416 -0.14059003
0.01406697 -0.17129092 -0.15863724 -0.07941426 -0.0026741214 -0.13672946 -0.37026662 -0.23723282
-0.03351781 -0.12521243 0.2913326 0.3188287 0.24987648 0.17359476 -0.31094742 0.37056717
-0.34563902 -0.12894903 -0.27605912 0.14104675 -0.32638258 -0.19336832 -0.24915044 -0.2410996
-0.18310131 0.38557154 -0.032036807 0.119563535 -0.3893627 0.3487396 -0.085411035 -0.35996872
0.27031055 -0.10605719 0.35619867 -0.26641676 -0.36416122 -0.29466596 0.16990651 -0.043987617

convs.0.lin_dst.weight f4 [32, 7]
00000000: 5dbf 46be af81 b1be 8f90 063e 3bd8 5b3e
00000010: 5411 c73e 8ae8 27bd f72f c13e 2804 813e
00000020: b033 47be 55e7 9abe c244 613e 540d 5cbe
00000030: 9d3b 383e fffd abbe ad83 923e c4c2 f03d
00000040: 85b2 38bd c034 383e a7f9 8ebe eb9a afbd
00000050: 0300 7c3b eb14 68be 4142 cdbd 3436 2dbe
00000060: 3a64 bf3e 339b aa3e b234 ad3e ce23 a43e
00000070: 5a54 c0be fa59 063e c80a 143e a14c 93be
00000080: aecd 223e 94f0 59be 4079 7f3d 7109 053e
00000090: 024a ad3e 95b5 52be 9f00 9ebe 25d0 b93e
000000a0: 1899 283e 0838 433e 0b94 103e b82a 0ebe
000000b0: 079c 713e 4853 afbe 4c94 5f3d 548f 353e
000000c0: 1136 893e f991 48be f0bb 87be 798c 163e
000000d0: 837c 9fbe 83e5 a6be 8e9a b4be a2c5 42be
000000e0: 9f54 99bd 1dda 6dbe 8dd3 29be 7ad3 b1be
000000f0: 79de 763e c0e5 b7bd a76a 7dbe 1924 d13d
00000100: 2a28 96be f892 8c3e def3 663e db59 c5be
00000110: 9aa2 9dbe fd6a 84be 656c 59be d899 483d
00000120: ca95 c6be 2ae2 94be f86c 373e 468b 03be
00000130: ead2 1fbe 1523 a6be abca 223e c1e6 e23c
00000140: 8c3f 1bbe 20f6 75be 83d6 aa3d ac91 da3d
00000150: 6246 323e e7b8 ee3d a913 75bd 7175 9bbe
00000160: ecb0 7f3e 4759 5cbb e076 85be 0b30 ad3e
00000170: cfef 5f3e 28d5 9dbe bb96 48be 8dae 08be
00000180: 09dd 67be 3790 3b3e 1444 8fbe 7ba3 ba3e
00000190: 9803 26be e814 6d3e 16d9 5a3c e8a3 30be
000001a0: 291b 863e 123c 99be e980 54be d590 403d
000001b0: c74e 9f3e 5a16 2cbe 1593 74be 6235 80be
000001c0: 9213 31be 11be 0abe 8c1a bbbd 9c7d 64be
000001d0: a010 fb3d 00c4 503b 1936 83be a05d 65be
000001e0: 4219 aa3d c39a b7bb c821 8e3e 3e8d 73bd
000001f0: dfaf a2be f887 94be 43c9 ebbd 21e9 b1bd
00000200: f758 373d 9427 b4bd 9e32 143e b694 05be
00000210: 1065 933e 8b81 b83d e9f5 f6bd 3af9 b23e
00000220: 5513 cd3d 2d7a 88be 8e88 5fbe 85d6 7b3e
00000230: a870 373e 26cd 9c3e 5dd2 f6bc ae75 8c3e
00000240: 8db0 473e 776c f83d 28eb b9bd 4b97 c13e
00000250: 9e8e a23d a242 cfbd f9bb b6bb 2d6b c53e
00000260: 05e2 863e 9a1d eebc 3fe1 c43e 7e60 303e
00000270: d5d7 55be 41c3 b6be 7369 693e 9b56 bc3e
00000280: 4602 6abe 13f7 243e e9c9 883c ffc1 abbd
00000290: 636c dabd 1e7a df3d 3617 b13d 37a3 873e
000002a0: 3d08 133e 99c5 363e 4728 b13e 1a22 fa3d
000002b0: 3a7c 6e3d 9839 12be 0a48 933e 2d43 6d3d
000002c0: b271 813e 88ec c13e 98a8 b3bd 4b66 8d3e
000002d0: 0622 a3bd 833a b53e 1811 9e3e d5f6 0fbe
000002e0: 2679 663c e366 2fbe cd71 22be f2a3 a2bd
000002f0: 5040 2fbb cf02 0cbe 9693 bdbe 29ed 72be
00000300: f949 09bd b037 00be 8c29 953e 843d a33e
00000310: 9fdf 7f3e d3c2 313e 8034 9fbe fbba bd3e
00000320: 99f7 b0be 370b 04be 9f57 8dbe 8f6e 103e
00000330: 9e1b a7be 5802 46be 4b21 7fbe d0e2 76be
00000340: e97e 3bbe a269 c53e 0739 03bd badd f43d
00000350: 8c5a c7be ff8d b23e fbeb aebd d24d b8be
00000360: 2566 8a3e 8334 d9bd ac5f b63e c767 88be
00000370: 5773 babe 75de 96be f9fb 2d3e 5c2c 34bd
-0.19408937 -0.34669253 0.13141082 0.21469204 0.38880408 -0.04099325 0.37731907 0.25198483
-0.19453311 -0.30254617 0.21998885 -0.2148946 0.1799149 -0.3359222 0.28616086 0.117558986
-0.045092124 0.17988873 -0.27924845 -0.0857447 0.0038452155 -0.2266423 -0.100224026 -0.16915208
0.37381154 0.33321533 0.33829266 0.32058567 -0.37564355 0.13120261 0.14457238 -0.287694
0.15898773 -0.2128318 0.062371492 0.12991883 0.33845526 -0.2057708 -0.3085985 0.36291614
0.1646465 0.19064343 0.14118974 -0.13883483 0.23594676 -0.34243226 0.054584786 0.17730457
0.26799062 -0.19586934 -0.26510572 0.14702024 -0.31149682 -0.3259698 -0.35274166 -0.19020703
-0.07486843 -0.23227735 -0.16584606 -0.34731656 0.24108304 -0.08979368 -0.24747716 0.10211963
-0.29327518 0.27455878 0.22553965 -0.38545117 -0.30788118 -0.25862876 -0.21232755 0.04897484
-0.38786155 -0.290788 0.17912662 -0.12846097 -0.15607801 -0.3244864 0.15897624 0.027697923
-0.1516096 -0.2401967 0.08341696 0.10672316 0.17409661 0.11656361 -0.059833203 -0.30363038
0.24969834 -0.003362255 -0.26067257 0.33825716 0.21868823 -0.30826688 -0.19588749 -0.13347836
-0.22642912 0.18316732 -0.27981627 0.3645285 -0.16212308 0.23152506 0.013357421 -0.17250025
0.26192597 -0.29928643 -0.207523 0.047013123 0.3111479 -0.16805401 -0.23884232 -0.25040728
-0.17292622 -0.13549067 -0.09135923 -0.22313541 0.1225903 0.0031855106 -0.2562721 -0.22398996
0.08305599 -0.005603166 0.27760148 -0.05946087 -0.31774804 -0.29009986 -0.11512997 -0.08687044
0.044762578 -0.087966114 0.14472434 -0.1304501 0.28788042 0.09009083 -0.120586224 0.3495577
0.10013453 -0.26655713 -0.21829435 0.24593551 0.17914069 0.30625266 -0.030129606 0.27433532
0.19500943 0.12130063 -0.090780556 0.3781074 0.07937358 -0.10120131 -0.0055766073 0.3855833
0.26344314 -0.02906685 0.384531 0.17224309 -0.20883115 -0.35695842 0.22794132 0.36784825
-0.2285243 0.16109876 0.01669784 -0.08386611 -0.106652044 0.10911964 0.08647005 0.2649171
0.14358611 0.17848815 0.34601042 0.122135356 0.05822394 -0.14279783 0.287659 0.057925392
0.25282055 0.37875772 -0.08772391 0.27617106 -0.07965474 0.35396203 0.30872416 -0.14059003
0.01406697 -0.17129092 -0.15863724 -0.07941426 -0.0026741214 -0.13672946 -0.37026662 -0.23723282
-0.03351781 -0.12521243 0.2913326 0.3188287 0.24987648 0.17359476 -0.31094742 0.37056717
-0.34563902 -0.12894903 -0.27605912 0.14104675 -0.32638258 -0.19336832 -0.24915044 -0.2410996
-0.18310131 0.38557154 -0.032036807 0.119563535 -0.3893627 0.3487396 -0.085411035 -0.35996872
0.27031055 -0.10605719 0.35619867 -0.26641676 -0.36416122 -0.29466596 0.16990651 -0.043987617

convs.1.att_src f4 [1, 1, 32]
00000000: fdc2 23be d34a cc3e e880 64be 3a94 d83e
00000010: 0012 b53e beba 81be 329e 413e 2e34 c6be
00000020: 6f78 323d 6bd2 8ebe c2cd 8dbe ecd7 003e
00000030: 432f 3b3e d078 ddbd 87ab 59bd e94a 1b3e
00000040: ed13 d1be cbf3 883c 1214 d3be 1fda 11be
00000050: 72bd bd3e 63d2 1bbe 647b 40be 9d23 ccbe
00000060: def6 d33e 3c86 1c3e b289 a8be 150b ccbd
00000070: e316 b03e 9dd8 d1be d0eb 1b3d 84ec a0be
-0.15992351 0.39900836 -0.22314799 0.42300588 0.35365295 -0.25337785 0.18908003 -0.38711685
0.043571886 -0.2789491 -0.27696043 0.12582368 0.18279748 -0.10814059 -0.053142097 0.15165295
-0.40835515 0.016717812 -0.4122625 -0.14243363 0.37058598 -0.15216975 -0.1879707 -0.3987092
0.41399282 0.15285581 -0.32917553 -0.09963051 0.3439246 -0.40985575 0.038066685 -0.31430447

convs.1.att_dst f4 [1, 1, 32]
00000000: 2caa a4be 5b2c bbbd 2f2c 2c3e d208 d8be
00000010: 2622 71be 1d8d aebe 2bb9 b4bd 813f 4bbe
00000020: c964 6c3e b4a8 973a 74be 62bd f5d6 bebe
00000030: c829 493c fdb5 d3be 69b3 c3be f77b 323e
00000040: de27 d9be 2aff a33c fad1 d13d 5b4a d4bc
00000050: 989a 923e f361 bebd a0c9 973e bbdd 77be
00000060: 5d2e adbe 94b4 8fbe c661 6e3e cae5 1d3d
00000070: 8a11 55bd 5072 3ebd d01b 31be c99a b13d
-0.3216108 -0.091393195 0.1681373 -0.4219423 -0.23548183 -0.34092036 -0.088243805 -0.19848444
0.23085321 0.0011570663 -0.05535741 -0.37273374 0.012278028 -0.41349784 -0.38222817 0.17430101
-0.4241323 0.020019133 0.10245128 -0.025914362 0.2863357 -0.09296026 0.29646015 -0.24205677
-0.33824435 -0.28067458 0.23279485 0.038549222 -0.05201868 -0.046495736 -0.17295766 0.08672101

convs.1.bias f4 [32]
00000000: 0000 0000 0000 0000 0000 0000 0000 0000
00000010: 0000 0000 0000 0000 0000 0000 0000 0000
00000020: 0000 0000 0000 0000 0000 0000 0000 0000
00000030: 0000 0000 0000 0000 0000 0000 0000 0000
00000040: 0000 0000 0000 0000 0000 0000 0000 0000
00000050: 0000 0000 0000 0000 0000 0000 0000 0000
00000060: 0000 0000 0000 0000 0000 0000 0000 0000
00000070: 0000 0000 0000 0000 0000 0000 0000 0000
0.0 0.0 0.0 0.0 0.0 0.0 0.0 0.0
0.0 0.0 0.0 0.0 0.0 0.0 0.0 0.0
0.0 0.0 0.0 0.0 0.0 0.0 0.0 0.0
0.0 0.0 0.0 0.0 0.0 0.0 0.0 0.0

convs.1.lin_src.weight f4 [32, 32]
00000000: c65e 833e 4fd7 e13c 0e2e 76be 8660 6dbe
00000010: 7559 473e 1e3a db3d 7d9a 703d 976f 1cbe
00000020: 8361 80be 5ddc 863e cc4f 93be fc2a 1cbe
00000030: f80f f53d ed7d 873e ead6 d8bd 602e 98be
00000040: 02e7 913d 7d20 e2bb cc65 3fbd 5484 8bbe
00000050: 33f5 5b3e 9775 363d ba7e b53d 386f 3c3e
00000060: 273b 883e 37c0 9ebd 10a9 dc3c cadc 45be
00000070: 90ae 6cbe 4c0d 1ebe 3984 3b3d fe7a 46be
00000080: 4dcd 313e 69b8 da3d 07e4 cdbd 44b5 1a3e
00000090: f792 6a3e 17e5 d0bd 7376 2e3e 5b83 433e
000000a0: 0402 933e 3122 66be 77b3 7a3e eb59 1b39
000000b0: 176e a73c 4785 60ba 4e7c 4abe 5f03 e5bd
000000c0: 8d27 7fbe ed19 23bd d91b 9c3d 96cb 5ebe
000000d0: bcd3 f13d 6fce 99be 315c 173e 0be9 99be
000000e0: 1233 1fbc 0ef2 663e fd39 8ebe d01c 77be
000000f0: c540 17be e7d1 f9bd 0410 2abe 315c 893e
00000100: 4e9b 61be 2be7 0d3e 71eb 60be 2ad9 cabd
00000110: 492e 7bbe 6ee3 95be f6e8 29be 3efb 273c
00000120: 70e3 283e 6754 f53d 655c fa3d e7dc 843e
00000130: 6ac4 53bc 9666 993e c7c4 88be a1d0 12be
00000140: 3202 7cbe cc0f 58be c34a 69be 7e85 94be
00000150: 5348 933e 8357 703d aacd 1d3e 052a cbbd
00000160: cc22 8f3d db1a 28be 973e 9bbe 738a e43c
00000170: 143e 403e 7b60 47bd 0934 c63d 0b02 043e
00000180: 9316 643e f724 94be 938b 01be eb77 a63c
00000190: 4cee 963e 676e 973e 387b 54be 1aa0 4ebe
000001a0: bbb4 943e 434b babc 1c8f 36be e1c7 20be
000001b0: 164b 363e c4b6 423e 7df0 833e b9a6 7ebd
000001c0: 1988 bcbd 5a08 6bbc 22b5 893e a06f 8bbe
000001d0: c0ba 1e3e c557 5abe 2b79 06bd 9917 843e
000001e0: 33d2 dfbd a056 01be 05ef 31bc b61a 0a3e
000001f0: 6eb5 7c3e c393 95be e2c5 763e 3220 d6bd
00000200: 9763 313d 1f20 2dbe cc6c 9e3d 55f8 98be
00000210: b5e3 48be 1f64 0ebe 3627 453e 324b a43d
00000220: 137a 5dbe 5668 353d 285f 983e 306f 97be
00000230: 3ed3 883e cb70 743e 3fdd 893c ef2d 1fbe
00000240: 8f9b 0e3e 4272 143e bbe8 f3bd d091 31be
00000250: 2d2b 4fbe f748 eebd cb9d 823d be87 063e
00000260: 6aa6 c8bb 4168 873e 9be1 b33d 51d2 b73d
00000270: 2f83 1bbe 2e13 b7bd d81e 513e b061 203e
00000280: f993 13bd f668 52be d7db 92be f49e 833c
00000290: e3b7 48be 6180 45bd d3e0 50bd 75e0 92be
000002a0: a7e6 583e b87a 68bd d657 9abe 9117 8fbe
000002b0: 6cd7 79be 47e3 f5bd 30bf 9bbc 324c 013e
000002c0: 760d 28bc 2302 96be fa2f 7abe fb5a 20be
000002d0: c32c 763e 33fb 64bc 4adc 90be 9448 03be
000002e0: 57b0 64be 0dbd 2b3d d5a2 d5bc 91fe 45bd
000002f0: a939 733e 85b1 3dbe c87d 043d cfac e3bd
00000300: f735 5b3d 42b4 78be 98d7 f2bd 5125 143e
00000310: 8323 51be 4e39 0fbe 736f 25bd 8511 75be
00000320: 33fd 49be c64b cbbd ec30 13bd 30d3 86bd
00000330: 55a4 8d3c 35a3 8fbe ace3 4abd 29ab 89be
00000340: 18e3 243e adbb 8e3e 96a6 77be 26c9 61be
00000350: 7003 983e 7e94 733e 2c37 103e 2e0e 46be
00000360: d060 c43d 4d43 1fbc 530f 6c3e c00d 433e
00000370: eae9 0dbd 9272 f43d 3004 89be bbbb 573d
00000380: 92f9 3ebe 6af2 783e 52a2 63be bb49 88be
00000390: 8c79 85be dd0c b3bd 4660 883c b1ad 0fbd
000003a0: c5ae 003e 2e2a 8bbe 3f40 38be bfb8 2dbd
000003b0: 89af 1fbc e9f1 87bd dceb 0f3e 1f4e 223e
000003c0: b854 61bd f88e 74bc 85bd 43bd 8b43 f53c
000003d0: 7374 03be 9a8d 43bd 0417 66be 2f1d 833e
000003e0: 5056 563e 6608 55be 52c2 b93c dd4b 38be
000003f0: 1ed7 7cbd 4009 8bbe d5a8 a6bc 92b6 0ebe
0.25658244 0.027568487 -0.24041006 -0.23181352 0.19467719 0.10704444 0.05874108 -0.15276943
-0.25074396 0.2634 -0.28771818 -0.15250772 0.119659364 0.2646326 -0.105878666 -0.2972288
0.07124139 -0.0069008456 -0.04672794 -0.27249396 0.21480255 0.044545736 0.08862062 0.18401802
0.2660763 -0.07751506 0.026936084 -0.19322506 -0.23113465 -0.1543476 0.045780394 -0.19382855
0.17363472 0.10679705 -0.100532584 0.1510821 0.22907625 -0.101999454 0.17037372 0.19093077
0.28712475 -0.2247398 0.24482523 0.00014815449 0.020438237 -0.0008564782 -0.19773981 -0.111822836
-0.24917431 -0.039819647 0.07622499 -0.2175735 0.11807963 -0.3004031 0.14781262 -0.3006061
-0.009716766 0.22553274 -0.27778617 -0.24132085 -0.14770801 -0.12198239 -0.16607672 0.2682815
-0.220319 0.13857715 -0.21964814 -0.09904702 -0.24529375 -0.29275078 -0.16592774 0.010252772
0.1649301 0.11978989 0.12224654 0.25949785 -0.012925247 0.2996108 -0.2671263 -0.14337398
-0.24610212 -0.21099776 -0.22782426 -0.29008096 0.28766116 0.058677208 0.15410486 -0.09920124
0.06989059 -0.16416495 -0.3032119 0.027898049 0.18773681 -0.048675995 0.09677894 0.12891404
0.22274236 -0.28934452 -0.126509 0.020320853 0.2947868 0.29576418 -0.20750129 -0.20178261
0.29044136 -0.022740966 -0.1782803 -0.15701248 0.1780208 0.19015032 0.25769415 -0.062170718
-0.09205646 -0.014345253 0.26896006 -0.272336 0.15500927 -0.21322544 -0.0328304 0.25799254
-0.10928764 -0.12630701 -0.010860209 0.13486752 0.24678585 -0.29214296 0.24098924 -0.104553595
0.043307867 -0.16906784 0.07735595 -0.29876962 -0.19618113 -0.1390538 0.19253239 0.08022155
-0.21628599 0.044288956 0.29760098 -0.29577017 0.26723665 0.23871152 0.016829131 -0.15544866
0.13926528 0.14496711 -0.11909624 -0.1734078 -0.20231314 -0.11635011 0.06377753 0.13137719
-0.0061233537 0.26446727 0.08783265 0.089756615 -0.15186761 -0.08939205 0.20421922 0.15662265
-0.03602979 -0.20547852 -0.2868335 0.016067006 -0.19601397 -0.048218135 -0.05099566 -0.28686872
0.21181737 -0.05675766 -0.30145139 -0.27947667 -0.24398583 -0.1200624 -0.019012064 0.12626722
-0.010257116 -0.29298505 -0.24432364 -0.15659706 0.24040513 -0.013975906 -0.28293067 -0.12820655
-0.22332893 0.04192834 -0.02607862 -0.048338477 0.23752464 -0.1852475 0.032346517 -0.11116945
0.05351826 -0.24287513 -0.118575275 0.1446736 -0.20423703 -0.13986704 -0.04038949 -0.23932464
-0.19725494 -0.09926562 -0.035935327 -0.065832496 0.017290274 -0.28054205 -0.04953353 -0.26888397
0.16102254 0.2787756 -0.24184641 -0.22049388 0.29690123 0.23787114 0.14083546 -0.19341347
0.09588778 -0.009720636 0.2305272 0.19048214 -0.034646906 0.11935915 -0.26761007 0.052669268
-0.18649891 0.24311224 -0.22229889 -0.26618752 -0.26069295 -0.08742688 0.01664747 -0.035077754
0.1256667 -0.27180618 -0.17993258 -0.042412516 -0.009746441 -0.066379376 0.14054817 0.15850113
-0.055012435 -0.0149266645 -0.04778816 0.029939434 -0.1283739 -0.047742464 -0.22469717 0.25608203
0.20931363 -0.20803985 0.022675667 -0.1799769 -0.06172859 -0.27155495 -0.020344177 -0.13936833

convs.1.lin_dst.weight f4 [32, 32]
00000000: c65e 833e 4fd7 e13c 0e2e 76be 8660 6dbe
00000010: 7559 473e 1e3a db3d 7d9a 703d 976f 1cbe
00000020: 8361 80be 5ddc 863e cc4f 93be fc2a 1cbe
00000030: f80f f53d ed7d 873e ead6 d8bd 602e 98be
00000040: 02e7 913d 7d20 e2bb cc65 3fbd 5484 8bbe
00000050: 33f5 5b3e 9775 363d ba7e b53d 386f 3c3e
00000060: 273b 883e 37c0 9ebd 10a9 dc3c cadc 45be
00000070: 90ae 6cbe 4c0d 1ebe 3984 3b3d fe7a 46be
00000080: 4dcd 313e 69b8 da3d 07e4 cdbd 44b5 1a3e
00000090: f792 6a3e 17e5 d0bd 7376 2e3e 5b83 433e
000000a0: 0402 933e 3122 66be 77b3 7a3e eb59 1b39
000000b0: 176e a73c 4785 60ba 4e7c 4abe 5f03 e5bd
000000c0: 8d27 7fbe ed19 23bd d91b 9c3d 96cb 5ebe
000000d0: bcd3 f13d 6fce 99be 315c 173e 0be9 99be
000000e0: 1233 1fbc 0ef2 663e fd39 8ebe d01c 77be
000000f0: c540 17be e7d1 f9bd 0410 2abe 315c 893e
00000100: 4e9b 61be 2be7 0d3e 71eb 60be 2ad9 cabd
00000110: 492e 7bbe 6ee3 95be f6e8 29be 3efb 273c
00000120: 70e3 283e 6754 f53d 655c fa3d e7dc 843e
00000130: 6ac4 53bc 9666 993e c7c4 88be a1d0 12be
00000140: 3202 7cbe cc0f 58be c34a 69be 7e85 94be
00000150: 5348 933e 8357 703d aacd 1d3e 052a cbbd
00000160: cc22 8f3d db1a 28be 973e 9bbe 738a e43c
00000170: 143e 403e 7b60 47bd 0934 c63d 0b02 043e
00000180: 9316 643e f724 94be 938b 01be eb77 a63c
00000190: 4cee 963e 676e 973e 387b 54be 1aa0 4ebe
000001a0: bbb4 943e 434b babc 1c8f 36be e1c7 20be
000001b0: 164b 363e c4b6 423e 7df0 833e b9a6 7ebd
000001c0: 1988 bcbd 5a08 6bbc 22b5 893e a06f 8bbe
000001d0: c0ba 1e3e c557 5abe 2b79 06bd 9917 843e
000001e0: 33d2 dfbd a056 01be 05ef 31bc b61a 0a3e
000001f0: 6eb5 7c3e c393 95be e2c5 763e 3220 d6bd
00000200: 9763 313d 1f20 2dbe cc6c 9e3d 55f8 98be
00000210: b5e3 48be 1f64 0ebe 3627 453e 324b a43d
00000220: 137a 5dbe 5668 353d 285f 983e 306f 97be
00000230: 3ed3 883e cb70 743e 3fdd 893c ef2d 1fbe
00000240: 8f9b 0e3e 4272 143e bbe8 f3bd d091 31be
00000250: 2d2b 4fbe f748 eebd cb9d 823d be87 063e
00000260: 6aa6 c8bb 4168 873e 9be1 b33d 51d2 b73d
00000270: 2f83 1bbe 2e13 b7bd d81e 513e b061 203e
00000280: f993 13bd f668 52be d7db 92be f49e 833c
00000290: e3b7 48be 6180 45bd d3e0 50bd 75e0 92be
000002a0: a7e6 583e b87a 68bd d657 9abe 9117 8fbe
000002b0: 6cd7 79be 47e3 f5bd 30bf 9bbc 324c 013e
000002c0: 760d 28bc 2302 96be fa2f 7abe fb5a 20be
000002d0: c32c 763e 33fb 64bc 4adc 90be 9448 03be
000002e0: 57b0 64be 0dbd 2b3d d5a2 d5bc 91fe 45bd
000002f0: a939 733e 85b1 3dbe c87d 043d cfac e3bd
00000300: f735 5b3d 42b4 78be 98d7 f2bd 5125 143e
00000310: 8323 51be 4e39 0fbe 736f 25bd 8511 75be
00000320: 33fd 49be c64b cbbd ec30 13bd 30d3 86bd
00000330: 55a4 8d3c 35a3 8fbe ace3 4abd 29ab 89be
00000340: 18e3 243e adbb 8e3e 96a6 77be 26c9 61be
00000350: 7003 983e 7e94 733e 2c37 103e 2e0e 46be
00000360: d060 c43d 4d43 1fbc 530f 6c3e c00d 433e
00000370: eae9 0dbd 9272 f43d 3004 89be bbbb 573d
00000380: 92f9 3ebe 6af2 783e 52a2 63be bb49 88be
00000390: 8c79 85be dd0c b3bd 4660 883c b1ad 0fbd
000003a0: c5ae 003e 2e2a 8bbe 3f40 38be bfb8 2dbd
000003b0: 89af 1fbc e9f1 87bd dceb 0f3e 1f4e 223e
000003c0: b854 61bd f88e 74bc 85bd 43bd 8b43 f53c
000003d0: 7374 03be 9a8d 43bd 0417 66be 2f1d 833e
000003e0: 5056 563e 6608 55be 52c2 b93c dd4b 38be
000003f0: 1ed7 7cbd 4009 8bbe d5a8 a6bc 92b6 0ebe
0.25658244 0.027568487 -0.24041006 -0.23181352 0.19467719 0.10704444 0.05874108 -0.15276943
-0.25074396 0.2634 -0.28771818 -0.15250772 0.119659364 0.2646326 -0.105878666 -0.2972288
0.07124139 -0.0069008456 -0.04672794 -0.27249396 0.21480255 0.044545736 0.08862062 0.18401802
0.2660763 -0.07751506 0.026936084 -0.19322506 -0.23113465 -0.1543476 0.045780394 -0.19382855
0.17363472 0.10679705 -0.100532584 0.1510821 0.22907625 -0.101999454 0.17037372 0.19093077
0.28712475 -0.2247398 0.24482523 0.00014815449 0.020438237 -0.0008564782 -0.19773981 -0.111822836
-0.24917431 -0.039819647 0.07622499 -0.2175735 0.11807963 -0.3004031 0.14781262 -0.3006061
-0.009716766 0.22553274 -0.27778617 -0.24132085 -0.14770801 -0.12198239 -0.16607672 0.2682815
-0.220319 0.13857715 -0.21964814 -0.09904702 -0.24529375 -0.29275078 -0.16592774 0.010252772
0.1649301 0.11978989 0.12224654 0.25949785 -0.012925247 0.2996108 -0.2671263 -0.14337398
-0.24610212 -0.21099776 -0.22782426 -0.29008096 0.28766116 0.058677208 0.15410486 -0.09920124
0.06989059 -0.16416495 -0.3032119 0.027898049 0.18773681 -0.048675995 0.09677894 0.12891404
0.22274236 -0.28934452 -0.126509 0.020320853 0.2947868 0.29576418 -0.20750129 -0.20178261
0.29044136 -0.022740966 -0.1782803 -0.15701248 0.1780208 0.19015032 0.25769415 -0.062170718
-0.09205646 -0.014345253 0.26896006 -0.272336 0.15500927 -0.21322544 -0.0328304 0.25799254
-0.10928764 -0.12630701 -0.010860209 0.13486752 0.24678585 -0.29214296 0.24098924 -0.104553595
0.043307867 -0.16906784 0.07735595 -0.29876962 -0.19618113 -0.1390538 0.19253239 0.08022155
-0.21628599 0.044288956 0.29760098 -0.29577017 0.26723665 0.23871152 0.016829131 -0.15544866
0.13926528 0.14496711 -0.11909624 -0.1734078 -0.20231314 -0.11635011 0.06377753 0.13137719
-0.0061233537 0.26446727 0.08783265 0.089756615 -0.15186761 -0.08939205 0.20421922 0.15662265
-0.03602979 -0.20547852 -0.2868335 0.016067006 -0.19601397 -0.048218135 -0.05099566 -0.28686872
0.21181737 -0.05675766 -0.30145139 -0.27947667 -0.24398583 -0.1200624 -0.019012064 0.12626722
-0.010257116 -0.29298505 -0.24432364 -0.15659706 0.24040513 -0.013975906 -0.28293067 -0.12820655
-0.22332893 0.04192834 -0.02607862 -0.048338477 0.23752464 -0.1852475 0.032346517 -0.11116945
0.05351826 -0.24287513 -0.118575275 0.1446736 -0.20423703 -0.13986704 -0.04038949 -0.23932464
-0.19725494 -0.09926562 -0.035935327 -0.065832496 0.017290274 -0.28054205 -0.04953353 -0.26888397
0.16102254 0.2787756 -0.24184641 -0.22049388 0.29690123 0.23787114 0.14083546 -0.19341347
0.09588778 -0.009720636 0.2305272 0.19048214 -0.034646906 0.11935915 -0.26761007 0.052669268
-0.18649891 0.24311224 -0.22229889 -0.26618752 -0.26069295 -0.08742688 0.01664747 -0.035077754
0.1256667 -0.27180618 -0.17993258 -0.042412516 -0.009746441 -0.066379376 0.14054817 0.15850113
-0.055012435 -0.0149266645 -0.04778816 0.029939434 -0.1283739 -0.047742464 -0.22469717 0.25608203
0.20931363 -0.20803985 0.022675667 -0.1799769 -0.06172859 -0.27155495 -0.020344177 -0.13936833

convs.2.att_src f4 [1, 1, 32]
00000000: 5199 88bd 36ed aebc 7ddc 9a3e bcaf 80be
00000010: 62f3 1fbe 69a9 6f3c f367 203d b0d0 abbe
00000020: ec29 433e 961c c4be 58ff d43e eb99 9e3e
00000030: 49af 973d 7233 aa3e c377 cdbe 6ce2 693e
00000040: fbaa bebe c97f bc3e d757 40be eb37 843e
00000050: 0063 283d c1ae 6fbe ca0d 19be 3466 c13e
00000060: 1021 55be 0e34 153e 74c7 aa3e b415 97bd
00000070: 8143 acbc 699a f63d 336f 8d3e e0c9 f53d
-0.06669868 -0.021353345 0.30246344 -0.25134075 -0.15620187 0.014627793 0.039161634 -0.33557653
0.1905896 -0.3830306 0.41601062 0.30976805 0.0740648 0.33242375 -0.40130433 0.2284028
-0.37239823 0.36816242 -0.18783508 0.25823912 0.04111004 -0.23406507 -0.14946666 0.37773287
-0.20813394 0.14570639 0.33355296 -0.073771864 -0.021028282 0.1204117 0.276239 0.12001395

convs.2.att_dst f4 [1, 1, 32]
00000000: dd9c d23c fdfb a3be 09ee a2be 5988 febd
00000010: c72a 8fbe 1784 bcbd 779e 803e 7c93 55be
00000020: 1f06 923e 5396 b2be ffcf 8a3e baed 4bbe
00000030: 9058 ce3e ad5e a0be 0e30 aabe 5956 b93e
00000040: 3304 523e a66f bebe c255 abbe 59d6 d43e
00000050: 9df2 553e d7ac d9be be4f 02be a7a1 48bd
00000060: 2c19 62be 65d4 4b3d 1707 53be 7912 92bd
00000070: b247 943d 508e c43e 298b 5abe 4319 883d
0.025709564 -0.3202819 -0.3182223 -0.1242835 -0.27962324 -0.09204882 0.251209 -0.20857042
0.28520295 -0.34880313 0.27111813 -0.19914904 0.40301943 -0.31322232 -0.33239788 0.3619869
0.20509414 -0.37194556 -0.33463866 0.41569784 0.20893331 -0.4251468 -0.12725732 -0.04898229
-0.22079915 0.049763102 -0.20608173 -0.0713243 0.07240237 0.38389826 -0.21342148 0.06645443

convs.2.bias f4 [32]
00000000: 0000 0000 0000 0000 0000 0000 0000 0000
00000010: 0000 0000 0000 0000 0000 0000 0000 0000
00000020: 0000 0000 0000 0000 0000 0000 0000 0000
00000030: 0000 0000 0000 0000 0000 0000 0000 0000
00000040: 0000 0000 0000 0000 0000 0000 0000 0000
00000050: 0000 0000 0000 0000 0000 0000 0000 0000
00000060: 0000 0000 0000 0000 0000 0000 0000 0000
00000070: 0000 0000 0000 0000 0000 0000 0000 0000
0.0 0.0 0.0 0.0 0.0 0.0 0.0 0.0
0.0 0.0 0.0 0.0 0.0 0.0 0.0 0.0
0.0 0.0 0.0 0.0 0.0 0.0 0.0 0.0
0.0 0.0 0.0 0.0 0.0 0.0 0.0 0.0

convs.2.lin_src.weight f4 [32, 32]
00000000: 093c 49be 5a50 3e3d 54fb 3ebe cc87 2fbe
00000010: 0473 673d b4e2 2ebc 3c54 a1bc c0d3 18be
00000020: 21db 353e 43cb 8f3e 5efb 3a3e 9a5a 74be
00000030: d5bd 80be d1a0 47be fee0 813c ade3 a4bc
00000040: 2630 313d 8ea5 cc3d d128 3d3e 5491 1b3e
00000050: ee01 a13d 0a93 c5bd 3e23 e2bc b660 cbbd
00000060: 61bf 62be 90d2 18bd 83e0 91be 352b 6b3e
00000070: 473f 5d3e 23cd 953c ac7e 50be 938a bbbd
00000080: 24ca 983d cabf 7a3e 106d 823e 986f c33d
00000090: 8d33 0d3e e2f3 9ebd a3be 52be 8b11 1fbe
000000a0: 8254 dfbd 15b0 243d b938 763b c07b 4f3e
000000b0: e67b 893e 2249 5dbe 6e03 043e 13a9 dfbd
000000c0: 362d 183e 9fd8 93be b02f c0bd efc7 2f3e
000000d0: f6f5 88bd 87d4 1dbe 769d 663e 7879 45be
000000e0: 66d3 52be 7539 93bc e214 233e ee0c 4dbe
000000f0: 537f 533e 54c1 97be 84f6 713e b6f3 68be
00000100: 792d 873c 51b7 52be 34dc 83be 0131 9a3e
00000110: 765a 023e 2bae 83be 379b 89be 78e6 85bc
00000120: 54ac 493e 295b 2e3e 8bd4 5c3c 01b4 223d
00000130: 4cf3 67be 6a2e 3f3e c8a0 06bd ca7b 7cbe
00000140: 96b6 66be 602d 81bd fb7c 45be ad1f cabd
00000150: fef6 983e 0bab 573c a22b 2abe 8170 743e
00000160: b183 913e 2abb f33c c88c fbbb 50a7 143d
00000170: 8cc6 7cbd f8d4 683d c368 c33d 34a7 6c3e
00000180: 9a8f 133e 656b 763d a0e0 bcbc 1c70 6f3e
00000190: 0f66 fe3d f8bd c63d 09be 563e 4c78 813d
000001a0: 153a afbd f524 a03d e2d1 1bbe 6931 403e
000001b0: f8fa c7bd 9dfa 8e3d 47c2 af3d 5cc0 6abe
000001c0: 55e3 82be 107e 573e a3c1 9abe 627d dbbd
000001d0: 9f09 333e 79db 9b3d 9d33 963e 87cb 99be
000001e0: 6fe4 d93d 5f06 eebd c7db 023e 1293 653e
000001f0: 9d59 543e 2969 9bbe 53ef ddbd 227f 5b3e
00000200: beb0 ea3d 41df 7ebe 3acc 403e 8ef8 593e
00000210: 2230 18be cd1d bbbd a0e1 61be 415c 6dbe
00000220: 8bdf 10be d8ac 92bd 1b94 f13b bf90 3e3e
00000230: 9088 8c3e d63d 093d c7ef 393e 64e6 3a3e
00000240: 0c72 753d e477 14be 70e6 fb3d 579b 433d
00000250: 1cd1 78be b549 c5bd 09d2 f5bd c3a9 db3d
00000260: cc17 11be 1388 033e 6625 8bbc 3d3a 56bd
00000270: 57fd f13d 9089 3f3e d7e7 c03d 3c43 563d
00000280: c9ed 99bc 5ef6 5fbd cc2d 193e 2a0c 80bd
00000290: 16a8 6d3e d401 463e d694 97be a43a 6b3d
000002a0: 34c2 50bd 94f4 c73d 5492 743e 490f 643c
000002b0: aeb1 1dbe dca9 4cbd baee 06be bb73 2c3e
000002c0: dc3f 293e a885 223c 65c3 82be 8771 8f3a
000002d0: 86d5 983e 466c 72bc ac9a c53d bcc9 6cbe
000002e0: 4329 9c3d 0768 593e 540c 9a3c f2e0 32bd
000002f0: b4b4 b43d ea0b 8cbe 7d48 a5b9 a8a8 b9bd
00000300: 853e 953e 711c 4cbd 4500 763e 79cd c6bd
00000310: 8b2e 17be 50dc fd3d 50c4 c13d e831 91be
00000320: 5c92 1bbe d31a 6abd 02d4 313e bbe2 2e3e
00000330: 6594 27be 8f53 8dbe 72a8 893e ab6d e8bd
00000340: e816 103e 1056 88be 62f9 06bd 5c1b 9d3d
00000350: b7b8 743e 1bc9 42be a37f 63be f46b 05be
00000360: 0394 593e 97b9 1bbe a50a 99be 5cf1 f1bd
00000370: 8cff 883e 6ab5 94be db99 a73d e059 823e
00000380: 6dc4 3e3e 3634 8d3e a7b9 c3bd bce1 543e
00000390: cd3c 85be 478c 203e 3879 093e 0e5c 393e
000003a0: 755b 4a3e 589f 603e ec90 5e3e 80e9 82be
000003b0: 3044 833d 0305 8abe 4ac0 ca3d 9e7d febd
000003c0: 7c2e 13be e389 3fbb bf8b 2a3d 82b0 43be
000003d0: cb62 8fbe eb94 873e 3262 9e3d 7d61 973e
000003e0: 42dd ad3d fd6b 453e 3c86 8abe a6d0 743a
000003f0: 4502 943e dbab aabb db0c fdbd 1cf6 603d
-0.19651808 0.046463348 -0.18650562 -0.17141646 0.05650617 -0.010674167 -0.019693486 -0.14924526
0.17759372 0.28084764 0.18259951 -0.23862687 -0.2514483 -0.1949494 0.015854355 -0.020128096
0.04325881 0.099925146 0.18472601 0.15192157 0.07861696 -0.09647186 -0.027604695 -0.099305555
-0.22143318 -0.037310183 -0.284916 0.22965701 0.2160617 0.018286293 -0.20360821 -0.0915729
0.0746043 0.24487224 0.25473833 0.09542769 0.13789196 -0.07761361 -0.20580535 -0.15534036
-0.109047905 0.040206987 0.003757043 0.2026205 0.2685234 -0.21609929 0.12891933 -0.1092092
0.14860997 -0.28876206 -0.09384096 0.17166112 -0.06687538 -0.15413104 0.22521004 -0.19284618
-0.20588455 -0.017971734 0.15925935 -0.20024464 0.20654039 -0.29639685 0.23629194 -0.22749218
0.016501175 -0.20577742 -0.2575394 0.30115512 0.1272982 -0.25718817 -0.26876232 -0.016345248
0.19694644 0.17026962 0.013478409 0.039722446 -0.22651404 0.1867005 -0.032868177 -0.24656597
-0.22530589 -0.06307483 -0.19285958 -0.09869323 0.2987594 0.013163338 -0.16618207 0.23871042
0.28420785 0.029752333 -0.0076766945 0.036292374 -0.061712787 0.056843728 0.09541466 0.23110658
0.14410248 0.060161013 -0.023056328 0.2338261 0.1242181 0.097042024 0.2097093 0.06321773
-0.08556 0.07819549 -0.15216783 0.18768848 -0.09764665 0.069813944 0.08581977 -0.22924942
-0.25564066 0.21044183 -0.30225858 -0.10717274 0.17484139 0.076102205 0.29336253 -0.30038092
0.106392734 -0.11622309 0.12779151 0.22419384 0.2073731 -0.30353668 -0.10836663 0.21435216
0.11459492 -0.24889852 0.18827906 0.21286222 -0.14862111 -0.091365434 -0.22058725 -0.23179723
-0.14147775 -0.071618736 0.007372392 0.18609904 0.2744794 0.033506237 0.18157874 0.1825195
0.059923217 -0.1449886 0.12299812 0.047755565 -0.24298519 -0.09633199 -0.12002952 0.10725739
-0.14169234 0.12844877 -0.016985606 -0.052301634 0.11815899 0.1870482 0.0941922 0.052310213
-0.018790143 -0.054678313 0.14958876 -0.0625232 0.23208651 0.19336635 -0.2960574 0.05742897
-0.050966457 0.097634465 0.23883945 0.01391966 -0.1539981 -0.049966678 -0.13177004 0.16841023
0.16528267 0.009919561 -0.255397 0.0010943868 0.29850405 -0.014796322 0.09648642 -0.2312383
0.076250575 0.2123109 0.018804707 -0.043671556 0.08823529 -0.2735284 -0.0003152526 -0.09065372
0.2914926 -0.04983181 0.2402354 -0.097071595 -0.14763848 0.12395537 0.09461272 -0.28358388
-0.1519255 -0.057154488 0.17366031 0.17078678 -0.16365202 -0.27602813 0.26886326 -0.113490425
0.14071238 -0.2662816 -0.032952674 0.07671234 0.23898588 -0.19022028 -0.22216658 -0.13029462
0.21247868 -0.15207516 -0.29890934 -0.11813614 0.26757467 -0.29044658 0.081836425 0.25459194
0.18629618 0.27578896 -0.09556895 0.20789236 -0.2602295 0.15678512 0.13425148 0.18101522
0.1976145 0.21935785 0.21734971 -0.2556877 0.0640949 -0.2695695 0.098999575 -0.12426303
-0.14373201 -0.0029226474 0.04163718 -0.19110301 -0.2800506 0.26480803 0.07733573 0.29566565
0.08489467 0.19279476 -0.27055538 0.00093389524 0.28907982 -0.005208475 -0.123559676 0.05492221

convs.2.lin_dst.weight f4 [32, 32]
00000000: 093c 49be 5a50 3e3d 54fb 3ebe cc87 2fbe
00000010: 0473 673d b4e2 2ebc 3c54 a1bc c0d3 18be
00000020: 21db 353e 43cb 8f3e 5efb 3a3e 9a5a 74be
00000030: d5bd 80be d1a0 47be fee0 813c ade3 a4bc
00000040: 2630 313d 8ea5 cc3d d128 3d3e 5491 1b3e
00000050: ee01 a13d 0a93 c5bd 3e23 e2bc b660 cbbd
00000060: 61bf 62be 90d2 18bd 83e0 91be 352b 6b3e
00000070: 473f 5d3e 23cd 953c ac7e 50be 938a bbbd
00000080: 24ca 983d cabf 7a3e 106d 823e 986f c33d
00000090: 8d33 0d3e e2f3 9ebd a3be 52be 8b11 1fbe
000000a0: 8254 dfbd 15b0 243d b938 763b c07b 4f3e
000000b0: e67b 893e 2249 5dbe 6e03 043e 13a9 dfbd
000000c0: 362d 183e 9fd8 93be b02f c0bd efc7 2f3e
000000d0: f6f5 88bd 87d4 1dbe 769d 663e 7879 45be
000000e0: 66d3 52be 7539 93bc e214 233e ee0c 4dbe
000000f0: 537f 533e 54c1 97be 84f6 713e b6f3 68be
00000100: 792d 873c 51b7 52be 34dc 83be 0131 9a3e
00000110: 765a 023e 2bae 83be 379b 89be 78e6 85bc
00000120: 54ac 493e 295b 2e3e 8bd4 5c3c 01b4 223d
00000130: 4cf3 67be 6a2e 3f3e c8a0 06bd ca7b 7cbe
00000140: 96b6 66be 602d 81bd fb7c 45be ad1f cabd
00000150: fef6 983e 0bab 573c a22b 2abe 8170 743e
00000160: b183 913e 2abb f33c c88c fbbb 50a7 143d
00000170: 8cc6 7cbd f8d4 683d c368 c33d 34a7 6c3e
00000180: 9a8f 133e 656b 763d a0e0 bcbc 1c70 6f3e
00000190: 0f66 fe3d f8bd c63d 09be 563e 4c78 813d
000001a0: 153a afbd f524 a03d e2d1 1bbe 6931 403e
000001b0: f8fa c7bd 9dfa 8e3d 47c2 af3d 5cc0 6abe
000001c0: 55e3 82be 107e 573e a3c1 9abe 627d dbbd
000001d0: 9f09 333e 79db 9b3d 9d33 963e 87cb 99be
000001e0: 6fe4 d93d 5f06 eebd c7db 023e 1293 653e
000001f0: 9d59 543e 2969 9bbe 53ef ddbd 227f 5b3e
00000200: beb0 ea3d 41df 7ebe 3acc 403e 8ef8 593e
00000210: 2230 18be cd1d bbbd a0e1 61be 415c 6dbe
00000220: 8bdf 10be d8ac 92bd 1b94 f13b bf90 3e3e
00000230: 9088 8c3e d63d 093d c7ef 393e 64e6 3a3e
00000240: 0c72 753d e477 14be 70e6 fb3d 579b 433d
00000250: 1cd1 78be b549 c5bd 09d2 f5bd c3a9 db3d
00000260: cc17 11be 1388 033e 6625 8bbc 3d3a 56bd
00000270: 57fd f13d 9089 3f3e d7e7 c03d 3c43 563d
00000280: c9ed 99bc 5ef6 5fbd cc2d 193e 2a0c 80bd
00000290: 16a8 6d3e d401 463e d694 97be a43a 6b3d
000002a0: 34c2 50bd 94f4 c73d 5492 743e 490f 643c
000002b0: aeb1 1dbe dca9 4cbd baee 06be bb73 2c3e
000002c0: dc3f 293e a885 223c 65c3 82be 8771 8f3a
000002d0: 86d5 983e 466c 72bc ac9a c53d bcc9 6cbe
000002e0: 4329 9c3d 0768 593e 540c 9a3c f2e0 32bd
000002f0: b4b4 b43d ea0b 8cbe 7d48 a5b9 a8a8 b9bd
00000300: 853e 953e 711c 4cbd 4500 763e 79cd c6bd
00000310: 8b2e 17be 50dc fd3d 50c4 c13d e831 91be
00000320: 5c92 1bbe d31a 6abd 02d4 313e bbe2 2e3e
00000330: 6594 27be 8f53 8dbe 72a8 893e ab6d e8bd
00000340: e816 103e 1056 88be 62f9 06bd 5c1b 9d3d
00000350: b7b8 743e 1bc9 42be a37f 63be f46b 05be
00000360: 0394 593e 97b9 1bbe a50a 99be 5cf1 f1bd
00000370: 8cff 883e 6ab5 94be db99 a73d e059 823e
00000380: 6dc4 3e3e 3634 8d3e a7b9 c3bd bce1 543e
00000390: cd3c 85be 478c 203e 3879 093e 0e5c 393e
000003a0: 755b 4a3e 589f 603e ec90 5e3e 80e9 82be
000003b0: 3044 833d 0305 8abe 4ac0 ca3d 9e7d febd
000003c0: 7c2e 13be e389 3fbb bf8b 2a3d 82b0 43be
000003d0: cb62 8fbe eb94 873e 3262 9e3d 7d61 973e
000003e0: 42dd ad3d fd6b 453e 3c86 8abe a6d0 743a
000003f0: 4502 943e dbab aabb db0c fdbd 1cf6 603d
-0.19651808 0.046463348 -0.18650562 -0.17141646 0.05650617 -0.010674167 -0.019693486 -0.14924526
0.17759372 0.28084764 0.18259951 -0.23862687 -0.2514483 -0.1949494 0.015854355 -0.020128096
0.04325881 0.099925146 0.18472601 0.15192157 0.07861696 -0.09647186 -0.027604695 -0.099305555
-0.22143318 -0.037310183 -0.284916 0.22965701 0.2160617 0.018286293 -0.20360821 -0.0915729
0.0746043 0.24487224 0.25473833 0.09542769 0.13789196 -0.07761361 -0.20580535 -0.15534036
-0.109047905 0.040206987 0.003757043 0.2026205 0.2685234 -0.21609929 0.12891933 -0.1092092
0.14860997 -0.28876206 -0.09384096 0.17166112 -0.06687538 -0.15413104 0.22521004 -0.19284618
-0.20588455 -0.017971734 0.15925935 -0.20024464 0.20654039 -0.29639685 0.23629194 -0.22749218
0.016501175 -0.20577742 -0.2575394 0.30115512 0.1272982 -0.25718817 -0.26876232 -0.016345248
0.19694644 0.17026962 0.013478409 0.039722446 -0.22651404 0.1867005 -0.032868177 -0.24656597
-0.22530589 -0.06307483 -0.19285958 -0.09869323 0.2987594 0.013163338 -0.16618207 0.23871042
0.28420785 0.029752333 -0.0076766945 0.036292374 -0.061712787 0.056843728 0.09541466 0.23110658
0.14410248 0.060161013 -0.023056328 0.2338261 0.1242181 0.097042024 0.2097093 0.06321773
-0.08556 0.07819549 -0.15216783 0.18768848 -0.09764665 0.069813944 0.08581977 -0.22924942
-0.25564066 0.21044183 -0.30225858 -0.10717274 0.17484139 0.076102205 0.29336253 -0.30038092
0.106392734 -0.11622309 0.12779151 0.22419384 0.2073731 -0.30353668 -0.10836663 0.21435216
0.11459492 -0.24889852 0.18827906 0.21286222 -0.14862111 -0.091365434 -0.22058725 -0.23179723
-0.14147775 -0.071618736 0.007372392 0.18609904 0.2744794 0.033506237 0.18157874 0.1825195
0.059923217 -0.1449886 0.12299812 0.047755565 -0.24298519 -0.09633199 -0.12002952 0.10725739
-0.14169234 0.12844877 -0.016985606 -0.052301634 0.11815899 0.1870482 0.0941922 0.052310213
-0.018790143 -0.054678313 0.14958876 -0.0625232 0.23208651 0.19336635 -0.2960574 0.05742897
-0.050966457 0.097634465 0.23883945 0.01391966 -0.1539981 -0.049966678 -0.13177004 0.16841023
0.16528267 0.009919561 -0.255397 0.0010943868 0.29850405 -0.014796322 0.09648642 -0.2312383
0.076250575 0.2123109 0.018804707 -0.043671556 0.08823529 -0.2735284 -0.0003152526 -0.09065372
0.2914926 -0.04983181 0.2402354 -0.097071595 -0.14763848 0.12395537 0.09461272 -0.28358388
-0.1519255 -0.057154488 0.17366031 0.17078678 -0.16365202 -0.27602813 0.26886326 -0.113490425
0.14071238 -0.2662816 -0.032952674 0.07671234 0.23898588 -0.19022028 -0.22216658 -0.13029462
0.21247868 -0.15207516 -0.29890934 -0.11813614 0.26757467 -0.29044658 0.081836425 0.25459194
0.18629618 0.27578896 -0.09556895 0.20789236 -0.2602295 0.15678512 0.13425148 0.18101522
0.1976145 0.21935785 0.21734971 -0.2556877 0.0640949 -0.2695695 0.098999575 -0.12426303
-0.14373201 -0.0029226474 0.04163718 -0.19110301 -0.2800506 0.26480803 0.07733573 0.29566565
0.08489467 0.19279476 -0.27055538 0.00093389524 0.28907982 -0.005208475 -0.123559676 0.05492221

post_mp.0.weight f4 [32, 32]
00000000: 07ae 27be cbea 1ebd c03b b53c 6ee1 8ebd
00000010: da5d 1f3c 7914 f43d 1d7d ee3d 4a4f 77bd
00000020: 81a6 cebd 4ce4 fc3d 9921 113c 819a 24be
00000030: a088 c2bd 301f 833d 8206 bb3d f42f 93bb
00000040: d66b d23d f17b 253e 6053 783c 406d 053e
00000050: 7fa6 2a3e b6bf 1a3e b04c 333e 53ea 05be
00000060: 658a bbbd 8af6 95bd be13 4c3d 399d 023c
00000070: 2473 6dbb a77b 533d 6652 c2bd d680 343e
00000080: bba3 2abe 4aad d23d 1c8f 083e 4db4 6e3d
00000090: 5828 1e3e ad3f 153e 83dd 913c 4393 a53d
000000a0: 2b54 67bd a1e7 923d b88f ca3d 54d9 ef3d
000000b0: b3ef f8bd 9a39 003e 04a3 a7bc c0be ff3d
000000c0: 6f9b 193e 107b b4bb 72f1 b9bd 9c6c f8bc
000000d0: 37a7 a73d b002 eb3d 1a63 eabd d52d 1dbe
000000e0: c645 16be 8662 8c3d 69ab da3d 372b 1a3e
000000f0: f356 c6bc 8dfb 703d e07a d83c 3b5a e6bc
00000100: f684 0abe 695c a03c 6b37 85bd 282e 123e
00000110: 9680 093e cc37 fc3d b685 053e 5076 77bc
00000120: 2fd6 14bc 9b63 e73d 1caf 18be f9bf ae3d
00000130: e503 f13d b31b 2abc 6c71 313d 457c 0dbe
00000140: 938e 1d3e 770c 02bd 8459 0cbe feb3 f0bd
00000150: 7630 06bd 155b 20bc c214 d3bd 9769 98bd
00000160: c6e7 ec3d 5023 78bd 9772 10be 4206 ae3d
00000170: 83aa 913b d9c7 e73c 6d20 06be d81e 18be
00000180: 72de 0c3b 2102 01bb e4c5 11be 4967 e9bd
00000190: e93b b43c df73 2e3d 94fd 693c 06fb 523d
000001a0: b9f7 30be f5a2 aebc 898e 0d3e 61d9 c2bd
000001b0: 478d 223d b478 443d e7b6 e0bd e1a2 e93d
000001c0: c9ae db3d 1189 303e 5970 133e 2d91 a03b
000001d0: 897e 293e 568f 0c3d 03a0 debd 97d4 aebd
000001e0: a683 a3bd 3340 a7bc de9a 31be a5c5 92bd
000001f0: 692c 33be 8bc4 a43d a6a3 2cbe 1968 873c
00000200: f675 adbd 2147 1cbc f079 c73d 440d 403d
00000210: a2de 33be c2f8 00be 7bcd cabd 1f1d 4f3d
00000220: b8a0 51bc 2429 d7bb 0028 043e 95a8 d6bd
00000230: 03e3 c6bd 82c6 f43d 48a1 103e fcf9 093e
00000240: 873c 1f3e 0fd8 b4bd bab8 5cbc 654a 2f3e
00000250: 20f6 053e 5cc5 c2bd 9740 0bbe e0fd df3d
00000260: 39e8 cb3d 36c7 0fbe 10da f0bd 2205 e63d
00000270: a7d9 2abe 4e54 de3c ad7e c13d 1188 2a3c
00000280: bc0e 533b 7867 b73d dbcf 913d ba70 7bbc
00000290: 915c 8fbd a05e b2bd f3e8 a83d 00b6 a93d
000002a0: 94b3 e23d 4d9a 533d 2f9b e0bd dda4 853d
000002b0: 0cf9 26bd c4ca 80bd 9b32 fc3d a885 ae3b
000002c0: 28cb 2d3a 361e 993d 7e6b 0ebe 3104 693d
000002d0: a9b7 a6bd 62d2 bc3d 2f4f 183e 09bc 0d3c
000002e0: 59dc f7bd c198 9cbc dd96 03be 6ccc 7c3d
000002f0: cac1 b53d 3399 463d 9f08 2cbe a787 abbd
00000300: b759 93bc c820 f63d b943 21b9 102b a13d
00000310: 5e9e 87bc 9cd3 e2bc f30d 5ebd 50c2 b93d
00000320: 2a9b 22be 169e 5a3b 482a 1d3e 2e0d 25be
00000330: de98 dd3d 7242 1bbe ecbc 063e 8a74 11be
00000340: c738 083e 98b4 0e3e db05 1bbe 0c95 2fbe
00000350: 07ea 893d b358 97bd 3a13 bf3d a814 c0bd
00000360: d347 163d bfb4 fe3c 87e1 99bd 43fb e0b9
00000370: bf73 d83d ed32 433d c4c4 cebd 6f74 31be
00000380: 3dd6 013d ce97 073e 59df b73d f4ec 0ebe
00000390: 8c5f 0bbd 28f2 e2bd c53c 3dbc d73a c93d
000003a0: 7ee9 03be 55eb 03bc 1a26 38bc fee9 493d
000003b0: 8c36 f2bc e599 91bd d9e2 0d3e 3591 a3bd
000003c0: 84c3 c8bd 842a f4bc f474 b23d 9d88 cabd
000003d0: 9f48 183e f461 1cbd cbbc a53d 8387 0e3e
000003e0: 7d4b 20be a054 0f3e 61a6 37bd 0f43 dc3d
000003f0: a11d 4f3d 6697 0dbd ba9b c8bd bffe e53c
-0.1637498 -0.038798135 0.022123218 -0.06976591 0.009726966 0.11917967 0.11644957 -0.06037835
-0.10090352 0.12348232 0.008858108 -0.16074564 -0.094987154 0.06402433 0.09132101 -0.0044918004
0.10274474 0.16160561 0.015156597 0.13029957 0.16665076 0.15112194 0.17509723 -0.13077669
-0.09157256 -0.07322414 0.049823515 0.007972055 -0.003623196 0.051631596 -0.094883725 0.17627272
-0.1666402 0.102869585 0.13335842 0.058277417 0.15445077 0.14575072 0.01780582 0.080847286
-0.056476753 0.07173086 0.098906934 0.11711374 -0.12155094 0.12521973 -0.020463474 0.124875546
0.150007 -0.0055078343 -0.09079255 -0.030325226 0.081861906 0.11475122 -0.114446834 -0.15349515
-0.14675054 0.06854729 0.10677225 0.15055548 -0.024211382 0.058833648 0.026425779 -0.028119197
-0.13527283 0.019575315 -0.06504711 0.1427542 0.13427958 0.1231533 0.13039288 -0.0151038915
-0.0090842685 0.11298295 -0.14910549 0.0853271 0.11768321 -0.010382581 0.04332106 -0.13816936
0.15386419 -0.03175017 -0.13706023 -0.11753081 -0.03276106 -0.009787341 -0.103066936 -0.07442015
0.11567645 -0.06058055 -0.14106213 0.08497287 0.0044453754 0.028293537 -0.13098307 -0.14855516
0.0021494892 -0.0019685107 -0.14235646 -0.11396653 0.022001224 0.042590972 0.014281649 0.051508926
-0.17281999 -0.021317938 0.13823904 -0.09514118 0.039685514 0.047966674 -0.10972386 0.1140802
0.10726697 0.17239787 0.14398326 0.004900119 0.16552176 0.034316383 -0.108703636 -0.08536642
-0.07984094 -0.020416355 -0.17344233 -0.07166604 -0.1749741 0.080453 -0.16859302 0.01652913
-0.08469765 -0.009538443 0.097400546 0.04688765 -0.17565396 -0.12594894 -0.099024735 0.05056488
-0.012794666 -0.0065661836 0.12905884 -0.10481373 -0.09711268 0.11951925 0.14124024 0.13474268
0.15550433 -0.088302724 -0.013471777 0.17118223 0.1308217 -0.095102996 -0.13598858 0.10937095
0.09956402 -0.14040837 -0.11760342 0.11231448 -0.1668459 0.027139809 0.094479896 0.010408417
0.0032204827 0.08955282 0.071197234 -0.0153467 -0.070000775 -0.087094545 0.082475565 0.08286667
0.11069408 0.051660825 -0.10967099 0.06525586 -0.040764853 -0.062886745 0.1231434 0.0053259917
0.0006629699 0.074764654 -0.13908193 0.056888763 -0.08140499 0.09219815 0.14873956 0.008650788
-0.12102575 -0.019115807 -0.12850519 0.06171839 0.08874853 0.048485946 -0.16800164 -0.08375483
-0.017987115 0.12017971 -0.00015379385 0.07869542 -0.016555008 -0.027688794 -0.05421252 0.09070265
-0.15879503 0.0033358387 0.1534816 -0.16118309 0.10820173 -0.15162066 0.13158005 -0.14204612
0.13302909 0.13936079 -0.15138952 -0.171467 0.0673409 -0.07389965 0.09329839 -0.0937894
0.03668959 0.031092046 -0.07513719 -0.00042911814 0.10568952 0.04765599 -0.10096124 -0.17329572
0.031698454 0.13241503 0.08978147 -0.13957578 -0.034026667 -0.11081344 -0.011550133 0.09825676
-0.12882039 -0.008051713 -0.011239553 0.049295418 -0.029567026 -0.07109431 0.13856067 -0.079866804
-0.09802917 -0.02980543 0.08713713 -0.09889338 0.14871453 -0.038179353 0.0809265 0.13918881
-0.15653796 0.13997126 -0.044836406 0.10754978 0.050565366 -0.034568213 -0.097953275 0.028075574

post_mp.0.bias f4 [32]
00000000: 72df c6bd 7643 9c3c 1914 11bd c3c7 88bd
00000010: f680 1cbe 7fe1 5c3d 0a10 24be f94f 6bbd
00000020: a72d d9bd f73f 86bd 5f1d 323e a644 04bd
00000030: 867b 0b3d b8da 10be 0a5d 9e3c 81ce 34bb
00000040: 1612 0ebe 915a 2ebe 977c 983d c95a eebd
00000050: d3ba 84bd 22b8 893d 5206 b33d 0cfd f83d
00000060: 1fe1 a5bd f8c0 bcbd 0f5d 023e b881 1d3e
00000070: 42a9 20be 110a e33d 2be7 373d 6599 103c
-0.097105876 0.019075137 -0.035419557 -0.066787265 -0.1528357 0.053925987 -0.16021743 -0.057449315
-0.106044106 -0.06555169 0.17394017 -0.03229203 0.034053348 -0.14145935 0.019331474 -0.0027588906
-0.13874087 -0.17026736 0.074456386 -0.1163841 -0.064809464 0.06724574 0.0874144 0.1215764
-0.08099579 -0.09216493 0.12730812 0.15381515 -0.15689567 0.110859044 0.044898193 0.008825635
