model.pth (torch, 33691 bytes, 20 tensors)

convs.0.nn.0.weight f4 [32, 8]
000000 1b 88 8c bd 94 40 93 3e 40 2f 98 3e a0 1a a8 3e
       -0.068618976 0.28760207 0.2972355 0.32832813
000010 c0 62 3d be a9 50 15 bd c2 8c af 3e b8 ca 43 3e
       -0.18494701 -0.036453877 0.34287077 0.191203
000020 be 01 86 bd dc fa 3e be 40 bb 27 be 04 c0 64 3d
       -0.06543301 -0.18650383 -0.16380024 0.055847183
000030 3e 5b 0e 3d 6c e2 8b 3e ab 9c a4 3e 44 c2 fe 3d
       0.034754984 0.27321184 0.32150778 0.12439397
000040 82 7d 17 3e 67 bc 0e be bd cb 36 3c 82 cf 65 3e
       0.14793971 -0.13939057 0.011156973 0.22442439
000050 92 bf 6c 3e 61 0a 70 3d c6 c3 3a be ff 4f f9 bb
       0.23119953 0.058603648 -0.18238744 -0.007608413
000060 09 33 e7 3d 71 60 8f be 50 6e 83 be a9 1c 19 3c
       0.11289031 -0.28003266 -0.256701 0.009345212
000070 4a dc 9a bd 83 62 6d be f1 32 2f 3e 84 80 ab bd
       -0.07561548 -0.2318211 0.17109276 -0.08374122
000080 22 b4 35 be e8 3c 1e be 08 e7 a2 bd 59 86 8c be
       -0.17744496 -0.15452921 -0.07954222 -0.2744625
000090 42 99 d9 bd 63 cd b8 3d b4 1f 8e be 2d 05 80 be
       -0.10624935 0.090235494 -0.27758563 -0.2500395
0000a0 31 b7 32 be 57 16 fc 3d c8 5a 20 3e f5 bf 5f 3e
       -0.17452694 0.123089485 0.1565963 0.2185057
0000b0 35 40 58 bb c9 db 42 be 20 d2 62 3e 6b dc 8f 3e
       -0.0032997255 -0.19029154 0.22150469 0.28097853
0000c0 b5 58 43 bc c9 10 71 3e 89 1a b5 be 36 31 2c 3e
       -0.011923005 0.2354156 -0.35371807 0.16815647
0000d0 c2 2d 01 3d 06 0d 99 be 93 58 2f be c8 57 1e 3e
       0.03153778 -0.2989275 -0.17123632 0.15463173
0000e0 8d 53 3a be 13 9e 04 be dd 9b 64 3c 17 63 56 be
       -0.18195935 -0.12950926 0.013953176 -0.20936237
0000f0 15 10 76 be fb 48 f9 3d 3e cc 46 be 62 2a 4f 3e
       -0.24029572 0.12172123 -0.1941385 0.20231012
000100 a4 6c 85 3e 33 35 69 3e 13 1e 6a be 34 2f b0 3d
       0.2605945 0.227742 -0.22863035 0.08602753
000110 98 c0 a4 3e 65 23 1b 3e 5e 61 ca 3c 4d c0 3b bc
       0.32178187 0.1515022 0.024704631 -0.011459422
000120 3d 56 ee bd b7 69 62 be d5 a1 96 3d 55 c8 b4 3d
       -0.116375424 -0.2211064 0.07355086 0.08827273
000130 f2 97 93 be 86 f4 9a 3e f7 0c f4 bd 20 c6 ab be
       -0.28826863 0.30264682 -0.11916535 -0.33549595
000140 29 5b a5 be ab 92 18 be 51 46 5a be 17 b7 90 be
       -0.32296112 -0.148997 -0.21315886 -0.28264686
000150 b9 78 85 be 25 d6 c4 bd 76 99 ad 3e 92 b5 97 be
       -0.26068667 -0.09611157 0.33906144 -0.29630715
000160 52 bc 71 3e ed c1 62 3d 8c 95 ab 3d be 4a 9c 3c
       0.23606995 0.055360723 0.08378133 0.019078609
000170 b0 0f 93 3e a5 69 2d 3c 30 94 85 bc e7 c6 21 bd
       0.28722906 0.01058427 -0.016306013 -0.03949633
000180 5f 11 a8 be d1 c9 8f bd 88 b6 8a 3e 96 0e b3 be
       -0.32825753 -0.07020915 0.27092385 -0.34972066
000190 ac f7 a5 3d ea 76 8b 3d 23 b0 c3 3c 6c e2 61 3e
       0.0810388 0.068097904 0.0238877 0.2205903
0001a0 09 01 92 3e a2 13 a7 3e 37 c1 06 3e 63 f4 fe 3d
       0.28516415 0.32632166 0.13159643 0.12448957
0001b0 3f 47 67 bb bc 70 96 3e 47 04 57 3e 7f 8b 29 3d
       -0.0035290269 0.29382885 0.20997725 0.0413928
0001c0 e1 98 38 bd 90 d3 84 3e b7 9f 45 be f3 e5 d4 3d
       -0.04506767 0.2594266 -0.19299208 0.10395422
0001d0 86 e4 82 3c d3 39 a9 3d d8 a9 9d 3e c4 b9 6f be
       0.01597811 0.08262982 0.30793643 -0.23410708
0001e0 03 4f 8e be 55 40 cd bd 5a 12 29 3e fa 26 8c bc
       -0.27794656 -0.10022036 0.16510907 -0.01710843
0001f0 36 76 13 3e bd 41 96 3d 92 53 09 bd ff 2e 66 3d
       0.14400563 0.07336757 -0.033526964 0.056197163
000200 62 37 e3 3d d5 02 42 3d 01 5a dc bc 10 1b c0 3d
       0.11094548 0.047365982 -0.026898386 0.09380162
000210 9b e6 61 3e 84 a7 bc 3e ea 48 40 be 01 44 fd bc
       0.22060625 0.36846554 -0.18777815 -0.030916216
000220 21 33 aa be ca 21 84 be 51 ef a8 be 17 bf 47 be
       -0.33242133 -0.2580703 -0.32995084 -0.19506489
000230 8b c2 9f be 78 9c c8 3d 20 41 4e 3e 24 c9 29 3e
       -0.31203112 0.09795469 0.2014203 0.16580635
000240 02 fd 07 be 1d d2 87 be 38 96 1c be 27 e2 fb 3d
       -0.13280109 -0.2652749 -0.15291679 0.122989945
000250 d0 9c 87 3e 8d e1 a6 be 75 1a 8c be 13 bd b0 bc
       0.26486826 -0.32593957 -0.27363935 -0.021574533
000260 79 8a a7 be 93 9d 31 3e c2 bb 1d be 95 aa 56 3e
       -0.32722834 0.17345266 -0.15403655 0.2096351
000270 0b 08 a2 be c3 ec 2b bd 64 49 0b be 02 7e 37 be
       -0.3164676 -0.04197384 -0.13602215 -0.17919162
000280 a5 93 8a be ab 95 c6 bd 6d 7d d2 bd 96 f8 98 be
       -0.2706577 -0.09696516 -0.10277829 -0.29877156
000290 16 50 8e be e9 4a 87 bd b4 f0 9e 3d 15 da 22 3e
       -0.27795476 -0.06606085 0.07760754 0.15903504
0002a0 9e a0 26 bd 80 09 89 bd 31 a5 91 3e 74 15 05 be
       -0.04068052 -0.06691265 0.28446344 -0.12996465
0002b0 06 5f 80 3e cc 2e ae 3e 27 0e 49 3e 83 b5 4b 3e
       0.25072497 0.34020078 0.19634305 0.1989346
0002c0 a9 00 09 be 49 a9 38 3e eb df a5 3d be 37 a2 be
       -0.13379158 0.18033327 0.080993496 -0.31683153
0002d0 87 96 00 3d 38 ef 29 bb 8b 75 0c 3e 02 b1 36 3e
       0.031393554 -0.002592994 0.13716714 0.1784096
0002e0 0d 8c 94 3e da dd 23 3d 23 4d 87 3d 62 4d c6 bd
       0.290131 0.040006496 0.066065095 -0.09682728
0002f0 fe 1f 5f be 4d a5 8f 3d 94 e4 af be 76 d6 55 3e
       -0.21789548 0.070139505 -0.3435408 0.20882592
000300 f2 28 2a 3e 44 ac 0d 3e 67 5e 99 3e 79 82 8f 3e
       0.16617182 0.13835245 0.29954836 0.2802923
000310 be 9c 52 bd 48 9f c7 3c 61 f6 79 3d 8d 3c 93 3e
       -0.051419012 0.024367943 0.06102598 0.28757134
000320 9c 7b d4 bc 63 d2 35 be 9c 7d 85 3e 8a f5 86 bd
       -0.025937848 -0.17756037 0.26072395 -0.065898016
000330 8e 4a 5e 3c d0 b3 d6 bd b1 93 4a 3e 5f 21 ea bc
       0.01356758 -0.10483515 0.19782902 -0.028580366
000340 12 85 5c be 2b 72 2f bd 86 d4 90 3d 22 53 11 bd
       -0.21535137 -0.04283349 0.07071786 -0.035479672
000350 44 ce 98 3e fc c5 ca 3d 00 f2 d0 3d 3e 66 86 3e
       0.29844868 0.09901044 0.10202408 0.2624988
000360 23 3f 91 3e 35 c1 2e bd a1 65 e0 bd 24 c7 e2 bc
       0.28368482 -0.042664725 -0.10956884 -0.027682848
000370 de 76 38 bd 24 0a 8d 3e fe 4d f8 bd 68 8a 62 bd
       -0.045035236 0.275468 -0.12124251 -0.055307776
000380 72 6b 65 bd 16 f2 f6 bd 1d e4 7a bd 58 d2 75 be
       -0.05601067 -0.12057893 -0.061252702 -0.24006021
000390 4b 35 34 3e 57 0e 81 3e 66 b4 bb 3d 56 00 be bc
       0.17598455 0.25206253 0.09165268 -0.02319352
0003a0 f4 c2 f7 3c d0 e3 50 3e e6 52 93 3d bf c0 b1 3b
       0.030244328 0.20399404 0.07193546 0.0054245885
0003b0 f8 08 92 be e7 cb 60 be c8 c8 85 3e 9a 5c 81 be
       -0.28522468 -0.21952783 0.26129746 -0.25265962
0003c0 01 43 5d be d3 73 63 bd 8f bf ba 3d 48 07 a1 be
       -0.21607591 -0.05553038 0.09118568 -0.31450868
0003d0 45 f7 52 be 6f f4 37 be 59 5c 18 bd 27 e3 8e 3e
       -0.20602138 -0.17964338 -0.037197445 0.27907678
0003e0 ec 6b 1e bd b8 6f ab be 2e cc 90 3e 66 ba 9a be
       -0.03867714 -0.33483672 0.28280777 -0.30220336
0003f0 b1 a7 94 3e 90 c4 91 3d 96 16 68 be ab 3b 06 be
       0.29034188 0.071175694 -0.22664866 -0.13108699

convs.0.nn.0.bias f4 [32]
000000 32 ed 58 be 07 cb 0d be 46 5e 6b be 63 60 00 be
       -0.21184233 -0.1384698 -0.22985181 -0.12536769
000010 aa 2b 6d be ed f7 8a be 05 41 9c be 46 7f 72 3e
       -0.23161188 -0.27142277 -0.30518356 0.23681363
000020 77 85 40 be f4 3f 54 3e 32 99 1e be 8a 42 9e be
       -0.18800913 0.20727521 -0.15488127 -0.3091014
000030 7e 4b 5b be d3 d0 1b 3e 17 f1 a8 3e 41 9f 11 3c
       -0.21415517 0.15216379 0.32996437 0.008888067
000040 b7 28 fe bd 91 8d 5e 3e c8 85 6c 3d 75 d0 13 3c
       -0.124101095 0.21733691 0.05774477 0.009021868
000050 a1 44 62 3e f9 68 2c 3e f5 42 9f be 88 c6 3d 3e
       0.22096492 0.16836919 -0.31105772 0.18532765
000060 57 06 59 be 6b 46 62 be 28 31 58 be 40 90 b9 bd
       -0.21193825 -0.22097175 -0.21112502 -0.09060717
000070 f1 ee ad bd 85 0a 25 be b4 d1 25 3e 17 26 25 3e
       -0.0849284 -0.16117294 0.16193277 0.16127811

convs.0.nn.2.weight f4 [32, 32]
000000 03 b9 51 3d 47 59 fb 3d c0 f6 07 3e 5c be b6 3d
       0.05120183 0.12272888 0.13277721 0.08923027
000010 50 ed 21 3e 3a b6 7d bc ee 83 62 bd 3d c3 07 be
       0.15813184 -0.015485341 -0.0553016 -0.13258071
000020 82 db 76 3d d0 e4 b0 3d 36 5b 1d 3d db d8 8b 3d
       0.060267933 0.086373925 0.038417064 0.06828471
000030 aa 21 a5 bd 2f 58 17 bd 02 76 d2 3b 75 41 b3 3c
       -0.080630615 -0.036949333 0.006422759 0.021881798
000040 24 36 ea 3d cf bf 26 bd ce 13 d1 bc 80 c8 f8 3d
       0.11436108 -0.040710267 -0.025522139 0.12147617
000050 f6 f1 23 3e ae c4 e8 3d d5 b9 a6 bd 24 c9 01 bc
       0.1601027 0.11365639 -0.081409134 -0.007921491
000060 c8 25 27 3e 2f bd 50 3d cc ef 7a 3c 70 f8 a6 3d
       0.16323006 0.05096167 0.015315961 0.081528544
000070 df ab 26 3e 12 41 be 3d 28 a4 be bd be 20 89 bd
       0.16276501 0.09289755 -0.09308654 -0.06695698
000080 23 fc 95 bd 78 39 95 bd 24 6e 98 3d d1 d6 36 3c
       -0.07323482 -0.07286352 0.07442883 0.011159615
000090 46 7b 05 bd 15 61 17 be dd b4 25 3e aa 58 d6 3d
       -0.032588266 -0.14783128 0.16182275 0.1046613
0000a0 c9 bd 89 3d f0 5a 30 3e 42 5c a2 3d b4 11 09 be
       0.06725652 0.1722219 0.07927753 -0.1338566
0000b0 55 ba b9 bd c2 79 15 3e 92 58 b6 3d 54 eb e7 3c
       -0.09068743 0.14597228 0.08903612 0.028310455
0000c0 ab 8d 14 bd 6c cc 05 3e b8 49 1c be c1 a2 1d be
       -0.036267918 0.13066262 -0.15262496 -0.15394117
0000d0 ed 51 c7 bc ae fd 1e 3e 43 ad 21 be 45 9b fb 3d
       -0.024331057 0.15526459 -0.1578875 0.12285475
0000e0 9e 00 8f 3d c5 62 32 be 1b 53 30 be 2c ff fa bd
       0.069825396 -0.1742049 -0.17219202 -0.122557014
0000f0 d9 8a f5 3b 23 4b 82 3d d5 41 89 3d fa 50 8d 3d
       0.0074933586 0.063619874 0.067020096 0.06900211
000100 f0 34 83 bd a2 82 07 be 56 0e 35 be 8b 68 02 3e
       -0.064065814 -0.13233426 -0.1768125 0.12735192
000110 70 60 f4 3d 88 1b 86 3d 0c 05 93 bc fa 8e d8 3d
       0.119324565 0.0654822 -0.017946742 0.105741456
000120 3f 77 e6 3c 11 33 a7 3c f6 08 99 3d f7 34 30 be
       0.028133033 0.020410093 0.07472412 -0.17207704
000130 de 49 62 bd c4 ca e3 bd 4d b8 09 3e 07 a5 07 be
       -0.055246226 -0.11122659 0.13449211 -0.13246547
000140 1c 6a 41 be 0f ec 9e bd 4c 53 1e 3e 96 48 4d bb
       -0.18888134 -0.07759868 0.15461463 -0.0031323782
000150 50 ca b4 bd 89 cf ec 3d c0 67 34 bd 2b e0 94 3d
       -0.088276505 0.11563022 -0.044044256 0.07269319
000160 fc b1 c4 bd 0d 28 48 3d 99 09 8c 3c 5b c5 43 be
       -0.0960426 0.04886632 0.01709442 -0.19118254
000170 64 11 d2 bd e6 2c cb 3d 36 54 8e 3d 73 20 ab bd
       -0.10257223 0.09920673 0.06949656 -0.083557986
000180 b2 1c 4a 3d c5 4a cb bd 67 f5 3c be ca 94 a2 3c
       0.049343772 -0.099263705 -0.18452989 0.019846339
000190 55 6a 8e bd 81 f0 66 3c 37 bd 45 3d ba 78 f0 bd
       -0.06953875 0.014095427 0.048276152 -0.11741777
0001a0 c4 f0 87 bd d3 90 2f bd 67 9d de 3c 09 a8 1d 3c
       -0.06637719 -0.042862725 0.027174665 0.009622582
0001b0 b8 85 07 3e 25 de d2 3d 8b 17 8e 3d 26 e0 5d bd
       0.13234603 0.10296277 0.06938084 -0.054168843
0001c0 3a b4 8d 3d c1 99 a1 bc 0b 60 c1 3d 65 68 78 3d
       0.06919141 -0.019726636 0.09442147 0.060646433
0001d0 df ab 05 3e 2e 88 c2 3d 67 09 ee bc d5 4b d7 bc
       0.13053845 0.094986305 -0.029057218 -0.026281277
0001e0 af d4 12 be b8 53 21 3e 5b 48 23 be 49 c5 87 bd
       -0.14338945 0.15754592 -0.1594557 -0.06629426
0001f0 30 b0 9c bb dc 35 db bc 65 74 62 3d 6f d0 2d bd
       -0.0047817454 -0.02675908 0.055286784 -0.042435106
000200 c0 c8 f2 bc b8 31 93 3c 68 a0 3b bd 05 4f b6 3d
       -0.02963674 0.017968044 -0.045807272 0.089017905
000210 c8 52 0b be 2a ab 4f bc e5 c8 0e 3e 72 a4 7d bd
       -0.13605797 -0.012675086 0.13943823 -0.061924405
000220 b0 9b fd 3d 73 d3 98 3d 4a fc 11 bd a5 d7 30 3e
       0.12383211 0.07462206 -0.035640992 0.17269762
000230 d6 ad be 3d 96 75 09 be 34 7b 14 3e 68 cd 9c 3d
       0.093105 -0.13423762 0.14500123 0.07656366
000240 91 55 5e bd 9a 3b 20 3e 41 38 4c 3c 12 f8 ab 3c
       -0.05428082 0.15647736 0.012464584 0.020992313
000250 d7 ff 09 3e 09 0e 2d 3e d6 53 4f 3d 36 dd c8 3d
       0.13476501 0.16899885 0.05061706 0.09807818
000260 b2 05 9a bd e8 d2 f1 bd fa f5 8a 3d bb e4 ee bd
       -0.075206175 -0.11807805 0.067851976 -0.116647206
000270 bb 6f 0b 3e 1f 92 6c bc a2 e5 a4 3d 4a 7d 13 be
       0.1361684 -0.014439135 0.080516115 -0.14403263
000280 2d 58 ff bd cf 94 d0 3a 5a 19 94 3d 04 68 25 be
       -0.1246799 0.0015913489 0.07231398 -0.1615296
000290 93 e4 25 be 62 6e 3d bd 2f 38 d2 bd 5c fb 4f 3d
       -0.16200475 -0.046247847 -0.102646224 0.050776824
0002a0 aa ae 1f be 04 0b 76 bc aa a0 8e 3d a8 07 c5 bd
       -0.15593973 -0.015017275 0.06964238 -0.09620601
0002b0 34 d0 31 be 09 3c cd bd 83 25 af 3b 6f 27 03 be
       -0.1736458 -0.100212164 0.005345048 -0.12808011
0002c0 30 55 37 3e ab f2 9c 3d 6b 65 9f bd f6 1a cd bd
       0.1790359 0.07663473 -0.07783016 -0.10014908
0002d0 b6 e3 2d 3d 98 3d 96 bd 7d 91 e9 3d 96 99 8f 3c
       0.04245349 -0.07335967 0.11404703 0.01752929
0002e0 5c 21 1b 3e b0 ec 1a be 0d ea af bd 7d 89 a4 3d
       0.15149444 -0.15129352 -0.085895635 0.08034036
0002f0 6b 09 dc 3d 63 ef 2d be a4 14 bc 3d 7c 3e da bd
       0.10743984 -0.1698585 0.091836244 -0.10656449
000300 dc 15 86 3d 63 c5 1c 3e d7 1e f1 3c b5 42 01 bd
       0.06547138 0.15309672 0.02943365 -0.031557757
000310 28 3e 22 be d5 5b 19 3e 7c c8 36 3b 28 81 5d 3c
       -0.15844023 0.14976437 0.0027890494 0.013519563
000320 a5 ee b2 bc f7 83 3e 3d 63 ee 27 be ae 8b 33 3d
       -0.02184231 0.04651257 -0.16399531 0.04383438
000330 e5 df 12 bc 74 7e ea 3d 81 39 a5 3d 16 e7 28 be
       -0.008964513 0.114499 0.080676086 -0.16494402
000340 0c c9 2c be 1d 18 27 ba e7 01 19 bd ff da 3a 3d
       -0.16873568 -0.00063741376 -0.03735533 0.045619007
000350 d4 30 8e bd 22 c6 8b bb 34 f9 b9 bd 29 ba f4 bd
       -0.06942907 -0.0042655626 -0.09080735 -0.1194957
000360 d7 be 15 3e 14 04 8e b9 35 91 a9 3d 56 27 b0 bb
       0.14623581 -0.0002708739 0.08279649 -0.005375783
000370 3b f7 3a be 5c 98 98 bd aa f8 a7 3d 3d 19 e4 3d
       -0.18258373 -0.07450935 0.08201726 0.11137626
000380 c9 96 b4 bd e0 67 9f 3d 54 e5 07 3d fa 53 2e 3e
       -0.088178225 0.077834845 0.03317769 0.17024222
000390 ae b2 cf bd 54 39 05 be 3f 48 4d bd af 17 d9 3d
       -0.10141502 -0.1301015 -0.050117727 0.106002204
0003a0 58 2d 5f bd 55 c4 b7 3d 0c 29 dc bd 92 f5 2a 3e
       -0.054486603 0.08972994 -0.107500166 0.1669524
0003b0 d0 f8 2e 3e fe 69 ee bd 37 06 70 3d 2c a7 e1 bd
       0.17087102 -0.1164131 0.058599677 -0.11018214
0003c0 e9 80 49 bd 1f f9 bf bb e6 e2 60 3d 68 a6 4b bb
       -0.049195204 -0.005858555 0.054903887 -0.0031074528
0003d0 83 35 22 3e d2 42 0e be fb 9d 70 3c 99 e3 f0 3d
       0.15840726 -0.13892677 0.014686103 0.11762161
0003e0 4c 5e b6 bd 6f e2 07 3e 02 93 f1 3d 12 3e 7d bd
       -0.089047045 0.13269971 0.11795618 -0.061826773
0003f0 c1 52 3c 3e 14 bb 23 be 4f 54 05 bc 41 02 44 be
       0.18390943 -0.15989333 -0.0081377765 -0.19141485

convs.0.nn.2.bias f4 [32]
000000 fc 7f 18 be dd 49 6c 3c 0b ab 12 3e 45 86 2d be
       -0.14892572 0.014421907 0.1432306 -0.16945751
000010 66 74 f4 bd d2 cb eb 3d b1 57 fd 3d d1 41 14 be
       -0.11936264 0.11513485 0.123702414 -0.14478232
000020 09 59 19 be b3 eb 02 be 4a 3b 91 3d 9e 96 53 3c
       -0.1497537 -0.12785225 0.070913866 0.012914328
000030 40 23 ea 3d 6b ee f4 3d 25 0a 3f be c9 21 13 be
       0.11432505 0.11959537 -0.18656214 -0.14368357
000040 34 57 8b 3d 3e 06 c7 bc 55 ad b6 bd cc 41 d9 3d
       0.06803742 -0.024294969 -0.08919779 0.10608253
000050 2d fb b1 bd 05 38 5d 3d d3 05 ff bd 5d 7b 01 3e
       -0.08690486 0.054008503 -0.12452283 0.12644716
000060 d0 85 93 bb e5 96 f8 bd f5 34 e4 3c ec de 8a 3c
       -0.0045020357 -0.12138156 0.027857283 0.016952
000070 46 1d f9 bc b3 f6 35 3e 69 2c 3d 3d c9 e4 32 bc
       -0.030409466 0.1776989 0.04618493 -0.010918804

convs.1.nn.0.weight f4 [32, 32]
000000 2d a7 04 3d b5 1f c3 bd 07 e6 f2 bd 61 d2 0b be
       0.032385994 -0.09527532 -0.118602805 -0.13654472
000010 e7 58 29 be 33 b8 fa 3d eb 6a 13 be 4d bd 05 be
       -0.1653782 0.122421645 -0.14396255 -0.13060494
000020 66 f8 37 3d 54 cc 38 3e 2a 47 0e 3e 99 82 c9 3d
       0.044914626 0.18046695 0.13894334 0.09839363
000030 28 59 32 3b ea b7 02 be b8 9a cc 3d a8 4e 2a 3c
       0.0027213786 -0.1276547 0.09990448 0.01039473
000040 21 52 04 be 25 77 38 bc 00 c9 ae bd c8 98 4e bd
       -0.12921955 -0.011258875 -0.085344315 -0.050438672
000050 31 9b 10 bd da 08 b0 bd 7c 31 45 bd f0 7d 74 bd
       -0.035304252 -0.08595438 -0.048142895 -0.059690416
000060 5c 0d 0f 3e de 05 07 be 59 6a ec 3d a4 34 ed 3d
       0.1396994 -0.13185832 0.11543722 0.11582306
000070 6b 8c 07 be 15 d6 27 bd 1b 3b 33 3d 67 7a d3 bc
       -0.13237159 -0.04097565 0.04375754 -0.025815202
000080 13 79 1a be 2f 68 4a 3d bd be f3 3d ea a8 b0 3d
       -0.15085249 0.049415763 0.11901615 0.08625968
000090 88 f2 2b 3d 4c b0 c2 3b 2f 39 0d 3e 0a 00 40 3e
       0.041979343 0.0059414264 0.13791345 0.18750015
0000a0 fa a0 1f be 21 43 12 be ba e5 61 bd ef 1b 10 bd
       -0.15588751 -0.1428342 -0.055150725 -0.03518289
0000b0 9d 38 61 bd 41 bb ba 3b 1a a1 ac bd 2b 78 a4 bd
       -0.05498563 0.005698592 -0.08429165 -0.08030733
0000c0 d3 ca 37 be 2c c8 9a bd ff 87 9e 3d ba b5 b3 bd
       -0.17948465 -0.07557711 0.07740783 -0.08774896
0000d0 35 53 31 3e 5b eb f0 bd 4c 59 14 3e 79 6e 87 3d
       0.17316897 -0.117636405 0.14487189 0.06612868
0000e0 b7 58 21 3d a4 3d c0 bd cd d5 25 3e 58 5c 0b be
       0.039391246 -0.09386757 0.1619484 -0.13609445
0000f0 2c 29 73 3b 65 ab af bd 76 7a e0 3d 5e 21 2a 3d
       0.0037103398 -0.08577613 0.109608576 0.041535728
000100 9a 6d a5 bd dc 9e f1 bd fe 89 4e 3c a0 bd 43 3d
       -0.080775455 -0.11797878 0.012606142 0.047788262
000110 8e b6 3e 3e f7 d7 cc bd 7c 25 bd 3d b3 44 27 be
       0.18624327 -0.100021295 0.09235665 -0.163348
000120 6e 78 c2 3d 1d 7b ab 3d 3a 78 d7 bc e8 3d 0c be
       0.094956264 0.08373091 -0.026302446 -0.1369549
000130 0b 85 f1 3b db 31 9d 3d e1 c9 bf 3d 57 ef 4f 3a
       0.0073705963 0.07675525 0.09364677 0.0007932088
000140 2c 9f 06 be 79 81 d4 bc e4 3d 3a bd 7f d4 f4 bd
       -0.13146657 -0.025940644 -0.04546918 -0.11954593
000150 cb 18 01 3e 6b 3a 2c 3e 50 3f 14 3e cf 47 2a be
       0.12607114 0.1681916 0.14477277 -0.16628955
000160 95 46 9c bd 21 75 d6 bd 74 3a ce bc 05 ce 25 be
       -0.0763065 -0.10471559 -0.025174357 -0.16191871
000170 8f 65 2d 3c 2b 09 ee bd 22 51 d9 3d ab 93 2f bd
       0.0105832955 -0.116228424 0.10611178 -0.042865437
000180 fc 5f ca bc 26 1d d3 3d 7e 8d ad bd 3e b2 8a 3d
       -0.024703972 0.10308294 -0.08474253 0.06772278
000190 f2 fb 6f bd 03 db d1 bd 53 2c 80 bd f1 c0 9f 3d
       -0.058589883 -0.10246851 -0.06258454 0.078004725
0001a0 6d 0b 70 3d 94 3d fd 3d 2d ec 08 be f8 ab d3 bd
       0.058604646 0.12365261 -0.13371344 -0.10335535
0001b0 aa eb 61 bd ef f7 8f 3d 02 75 03 3d a8 7e ba bd
       -0.055156387 0.070297115 0.03209401 -0.09106189
0001c0 72 a8 2a 3e 87 bb 03 3e bc a1 1b 3d d1 03 1c bd
       0.1666582 0.12864505 0.03799604 -0.038089577
0001d0 b3 86 ac bd eb de 1a bc b0 e1 92 3c 4b d1 ad bd
       -0.08424129 -0.009452562 0.017929882 -0.08487185
0001e0 68 ff 77 3d 7b 34 82 bd dc cc c4 bd bf 41 35 bd
       0.06054631 -0.06357666 -0.09609386 -0.044252153
0001f0 1f 1c f8 bd 36 cb cd 3b 89 10 c0 bd 2b 3d 2d bd
       -0.12114739 0.006280328 -0.09378154 -0.042294662
000200 7d c3 3d bd c9 0d 22 3e 94 83 93 bd 66 d7 0a be
       -0.04632901 0.15825571 -0.07202831 -0.1355873
000210 69 23 15 3d ce 7e 27 be df 0c 2e 3e f4 fc a1 bd
       0.036410723 -0.16356966 0.16997097 -0.07909575
000220 d3 0b 3b be b7 6f 3e 3e cf c0 d4 bd c6 03 6f 3a
       -0.1826623 0.18597303 -0.10388338 0.0009117689
000230 4a 82 d6 bd 0e 9f 02 bc 3e 1f 28 be cf 9b d3 bb
       -0.104740694 -0.007972492 -0.16418168 -0.006457783
000240 32 b8 34 bd d4 17 db 3d aa cf fc 3c 8e ee ae bd
       -0.044120975 0.10697904 0.03086074 -0.085415944
000250 ac d1 90 bc 62 4e a4 3d f9 8b 2a be 3d 1e 34 bd
       -0.017678104 0.08022763 -0.16654958 -0.04397415
000260 87 ae e2 bd 07 cb 89 3d 26 94 ec bc da da 34 be
       -0.11068445 0.067281775 -0.028879236 -0.1766161
000270 fd 60 18 3d d0 7a c7 bc 1c 09 0b bd d4 f2 32 3e
       0.03720187 -0.024350554 -0.033944234 0.17475444
000280 a3 0a 26 3e e7 a3 24 be 08 4c 7f bc 83 f3 bb 3d
       0.16214995 -0.16078149 -0.015582092 0.091773055
000290 6b 2c 9a bc 61 e2 00 be ea a5 06 3e 96 fc 1c 3e
       -0.018820008 -0.12586357 0.13149229 0.15330729
0002a0 d8 2b 6a bd 78 00 2a 3e 89 ec 2f be 7b 14 10 3d
       -0.05717072 0.16601741 -0.17180075 0.03517578
0002b0 b0 21 32 3e de d6 04 3e cf fc 93 bd 11 48 2e be
       0.17395663 0.1297259 -0.07225954 -0.17019679
0002c0 2c 36 0f be f4 a2 91 3d 23 79 e5 bd b8 a6 41 bd
       -0.13985509 0.07111159 -0.112047456 -0.047278136
0002d0 ae 6f 66 3d 5a 89 5a bd 9a f5 61 3d de de af 3d
       0.05625885 -0.053353645 0.055165865 0.085874304
0002e0 ea 5a a7 bd 03 26 ce 3a a2 c2 49 3d 89 8d ce 3d
       -0.08171637 0.0015727881 0.049257882 0.100855894
0002f0 99 a2 e4 bd 6e 83 07 3e dc ac 0f 3e 58 49 fb bd
       -0.111638255 0.1323373 0.14030784 -0.122698486
000300 f5 08 cb bd 9b 9c 6c 3d f5 32 6f bd 2f 95 a7 bd
       -0.09913818 0.057766538 -0.058398206 -0.081827514
000310 8b 25 12 3e d6 0d 01 be 99 05 99 bd 75 31 0e bd
       0.14272134 -0.12602934 -0.07471771 -0.034715135
000320 7b b8 2f be fa b0 97 3c 3e c2 2d be 5e 83 cb 3c
       -0.17160217 0.018517006 -0.16968629 0.024842914
000330 bc 34 39 be 81 87 19 3e bf 2c 0c 3e d6 c4 0f be
       -0.18086523 0.14993097 0.13688944 -0.1403993
000340 54 3c 35 bc 39 73 21 3d e3 e4 f3 bd 57 fa 41 be
       -0.011061747 0.039416526 -0.11908891 -0.18943153
000350 f1 64 6e bc 65 a4 12 be 71 f6 11 be 64 32 05 3e
       -0.0145504335 -0.14320524 -0.14254166 0.13007504
000360 93 2c 35 3e 45 27 8c 3d 3b 37 e7 bd ea 99 c0 bd
       0.17692785 0.068434276 -0.11289831 -0.09404357
000370 a0 20 1d 3e fb fc 09 bd 18 51 9c bb fd 3b 03 be
       0.15344477 -0.033688527 -0.0047704093 -0.12815852
000380 5d 57 a9 3d d9 06 a5 3d da dd 8f 3c 63 1d 0c be
       0.08268616 0.08057947 0.017561842 -0.13683085
000390 9b d0 65 bc d3 59 c4 bd 0d 67 c1 3d 51 b8 d5 3c
       -0.014026786 -0.09587445 0.094434835 0.026088865
0003a0 5d eb 4d bd f2 54 1c be a9 81 16 3a 3c 64 4c 3c
       -0.050273288 -0.15266779 0.0005741367 0.01247507
0003b0 6c b3 58 3c fe 43 4f 3d e8 61 44 bd 98 9c 20 3e
       0.013226371 0.05060195 -0.047944933 0.15684736
0003c0 39 5c 12 bc 6c 23 91 3d b9 0b 2a 3e 72 d8 0f 3e
       -0.00893312 0.07086834 0.16606034 0.14047411
0003d0 1c 8f b3 3c 44 20 c1 3d cb 68 d9 bd 49 80 1e be
       0.021918826 0.09429982 -0.10615691 -0.15478624
0003e0 52 a7 a1 3d 22 87 99 3d 67 70 e2 3d 07 98 19 be
       0.07893242 0.07496478 0.11056595 -0.149994
0003f0 9d 67 0d 3e 21 be 1b 3e 48 c6 0e be a9 a6 55 3d
       0.13809057 0.15209247 -0.13942826 0.052160893

convs.1.nn.0.bias f4 [32]
000000 dc 37 1b 3e 6e d1 98 bd a2 2f 2d bd 24 c2 29 3e
       0.15158027 -0.074618205 -0.042281754 0.16577965
000010 f2 39 1c 3e 85 25 29 bb b0 29 a1 bc 6b e3 17 3e
       0.1525648 -0.0025809717 -0.019673198 0.14832847
000020 45 db b0 3d 81 7c e1 3d 89 ae f4 bd 97 54 83 bd
       0.08635572 0.11010075 -0.119473524 -0.064126186
000030 5b dd d9 bd 97 17 db bd c7 e6 1f 3e 72 88 a4 3c
       -0.10637923 -0.10697859 0.15615378 0.020084593
000040 a0 0b 4b bc 08 e7 64 bd 98 17 cd bc 05 3f ac 3b
       -0.012392908 -0.05588439 -0.025035664 0.005256536
000050 d8 c2 3b be 97 81 55 3d 49 4f 13 3c 3a 41 22 3e
       -0.18336046 0.05212554 0.008991071 0.15845194
000060 14 81 58 bc 54 5e 1d ba 90 87 c8 3d 99 7d c2 bd
       -0.013214368 -0.00060031307 0.097914815 -0.09496612
000070 36 f1 12 be 0f 91 f3 3d 49 bc 9f bd 94 0d 32 3e
       -0.14349827 0.11892902 -0.077995844 0.17387992

convs.1.nn.2.weight f4 [32, 32]
000000 69 0b b4 bd d4 33 c2 bd 36 9b a0 3d c7 b5 ca 3d
       -0.08791239 -0.09482542 0.07842104 0.098979525
000010 bb 69 56 bd e2 3c 8f 3d 83 9a cc 3d 47 d5 ae bd
       -0.052346926 0.06994034 0.09990408 -0.08536773
000020 29 21 29 be fb 95 48 bd c6 8e 46 be a5 c8 db 3d
       -0.16516556 -0.048971158 -0.19390401 0.10731629
000030 b7 ea f2 3b 2a d2 2e be da ef f2 bb 6c 6e 8b 3c
       0.007413234 -0.17072359 -0.0074138464 0.017020427
000040 f1 a6 02 3e 2d a9 04 bc db bb 24 3e d6 d1 f2 3d
       0.12758996 -0.008096975 0.16087286 0.11856429
000050 5c 28 aa 3d 12 e1 90 bd 8e 2b 1e be 1e 80 ac 3d
       0.08308479 -0.07074179 -0.15446302 0.08422874
000060 9e 69 85 3d 4f 32 1d be 85 aa 40 3b 70 82 1b 3e
       0.065142855 -0.15351222 0.0029398513 0.15186477
000070 47 28 fe 3d df 4b c8 3d 9a d5 b3 bd 8e 57 15 be
       0.12410026 0.09780096 -0.08780976 -0.1458418
000080 35 80 16 3e d2 ee 58 bc e6 0e 42 3d e3 32 91 bd
       0.14697345 -0.013240533 0.04737749 -0.07089784
000090 5a 96 0d be d1 44 99 3d cc f5 39 be b9 27 7e 3d
       -0.13826886 0.07483829 -0.1816017 0.0620496
0000a0 ee 4a d1 3d dd 4c 1e 3e 12 3d d5 ba 63 88 b2 ba
       0.1021937 0.15459009 -0.0016268811 -0.0013620969
0000b0 9f 32 a0 3d a7 a4 47 3d 47 db 8c bd 1b b6 b9 3d
       0.07822155 0.04874101 -0.06877761 0.09067937
0000c0 4d 18 f3 bd a1 ec f2 3d 4a 7c 26 be 35 c7 be bc
       -0.118698694 0.1186154 -0.1625835 -0.023288349
0000d0 ca da 0b 3e 72 e4 d2 3b bf 1a 10 3e 46 08 44 be
       0.1365768 0.006435924 0.14072703 -0.19143781
0000e0 a5 52 5b bd 69 4a af bd 07 f8 bc 3d 85 c3 81 bd
       -0.053545613 -0.085591145 0.09226995 -0.063361205
0000f0 05 cb 3c be 27 cf d0 3d 89 88 97 3d d7 08 b3 3d
       -0.18436821 0.10195761 0.07399089 0.087419204
000100 3a ce 3d be 69 03 a1 bd 5d d8 f0 bc 1d f5 18 3e
       -0.185357 -0.078619786 -0.029400045 0.14937253
000110 4f 1a 2b be 7a 23 09 be b2 97 ae 3c db b7 9a bd
       -0.16709255 -0.1339244 0.021312568 -0.07554599
000120 0a 29 9f bc b7 19 ba 3d c2 3a 30 be 3d c2 f2 bc
       -0.019428749 0.09086936 -0.17209914 -0.029633636
000130 74 a0 d8 bb 10 5f 04 3e 4c 89 d9 bd 7a 0f 2e 3d
       -0.0066109244 0.12926888 -0.106218904 0.04249523
000140 f1 60 d0 bd c4 53 d8 bd 49 a3 f5 bd 56 59 b3 bd
       -0.1017474 -0.10562852 -0.11994035 -0.08757274
000150 b3 a0 87 bc c3 6f a6 3d c2 78 f1 3d 02 f0 0f be
       -0.01655612 0.081267856 0.11790611 -0.140564
000160 c1 11 0b 3c 4a ec 12 3e 21 2a 04 3c b7 78 b9 bd
       0.00848812 0.1434795 0.008066685 -0.09056228
000170 fe db 31 be 0d 63 40 be 2e 33 c3 3d 3c 11 05 be
       -0.17369077 -0.18787785 0.09531246 -0.12994856
000180 76 9d c0 3c 70 e9 c5 3d 0b 7c 2b 3e 8b 66 b0 bd
       0.023512583 0.09663665 0.16746537 -0.086133085
000190 6f 69 0b 3e 8d 2e a6 bd e2 20 02 3e 04 6e 01 bd
       0.13614438 -0.081143476 0.12707856 -0.03159906
0001a0 2c d7 1b be 7b 8a 3b be 65 e9 59 bd 2b eb ca 3d
       -0.152188 -0.18314545 -0.053201098 0.09908136
0001b0 bc 20 3b 3d a7 2c 3b bd 06 f5 07 be 1d ef 29 3d
       0.045685515 -0.04569688 -0.13277063 0.0414878
0001c0 d1 fa 28 3d 78 cb 99 3d bd 93 d9 bd 9a e8 36 bd
       0.041254822 0.07509512 -0.10623882 -0.04465542
0001d0 8c 85 9d 3d 06 95 a9 bc 8f 80 c1 3d 1b 30 ee 3d
       0.07691488 -0.020700943 0.09448349 0.11630269
0001e0 11 1a 8a bd 0f ca 1e be b5 c7 91 3c bb 19 8b bc
       -0.06743253 -0.15506767 0.017795423 -0.016980043
0001f0 f9 f6 25 3d 66 9e 21 be 9d c1 98 bd 92 04 16 be
       0.040518735 -0.1578308 -0.07458804 -0.14650181
000200 ce 75 c3 bc fc 6c 19 3a 64 44 a6 3d e9 01 8b 3d
       -0.023859885 0.0005852727 0.08118513 0.06787474
000210 c3 79 04 be 53 73 91 3d 07 84 b9 bc 56 4c 32 bd
       -0.12937073 0.071020745 -0.022645963 -0.04352983
000220 61 31 fb bd c4 b4 12 3c 84 74 97 3d 85 97 02 3e
       -0.12265278 0.008954231 0.073952705 0.12753113
000230 96 a3 0d 3d 6c ff 0f be 3d 64 79 3d 58 56 24 be
       0.034579836 -0.1406228 0.06088661 -0.16048563
000240 c5 c6 a8 bd a0 25 36 3d b0 58 8b 3d 89 21 7d 3d
       -0.08241037 0.044469476 0.06804025 0.06179956
000250 57 ca 03 3e 91 42 06 bc 30 53 28 be 05 ea c8 3d
       0.12870155 -0.008194582 -0.16437984 0.09810261
000260 f5 d3 0b 3e 60 63 0c be 71 79 b6 bd 1c e4 17 be
       0.13655074 -0.13709784 -0.08909882 -0.1483311
000270 84 36 56 bd 3b 39 f3 bd 43 67 d8 3c 04 75 0f bc
       -0.052298084 -0.1187615 0.026416427 -0.008755926
000280 38 2e 11 be 9f 65 09 3e 91 cd 4f bd 8a c3 41 3e
       -0.14177787 0.13417672 -0.050733153 0.18922248
000290 58 c6 84 3d 3f 12 cd 3d 9e 41 2a 3e d1 ce de 3d
       0.064831436 0.10013246 0.16626593 0.10879291
0002a0 5f 8c 2c be 3d 01 09 bd 18 e3 e8 3d 86 1d 90 bc
       -0.16850422 -0.033448447 0.1137144 -0.017592203
0002b0 75 7b c1 3d e0 c6 ff 3d b3 4c b6 3d 0b 3b 97 bc
       0.09447376 0.12489104 0.08901348 -0.018460771
0002c0 fa 7f 2e 3e 83 49 e1 bd f7 7e 0f 3e 8f 49 da 3b
       0.17041007 -0.110003494 0.14013277 0.006661601
0002d0 ae d7 0a 3d 18 be c8 3d 63 d8 40 3c 26 34 11 3d
       0.033897094 0.098018825 0.011770341 0.035450123
0002e0 8c 86 8c 3d 2c a4 0c bd 1c b9 89 bd 27 00 87 3d
       0.068616 -0.034336254 -0.0672476 0.06591826
0002f0 e3 9e dd 3d 82 93 8d 3d 9d 22 f9 3d 3c 44 f7 3d
       0.10821321 0.069129005 0.12164805 0.120735615
000300 6b 7f 89 3d bf f2 fc bb 4a 01 de 3d fa 64 39 be
       0.06713756 -0.0077193673 0.108400896 -0.18104926
000310 a2 a6 32 be 6c 66 00 3e 4e 9b 64 bc 3d 29 48 3d
       -0.17446378 0.12539071 -0.013953043 0.048867453
000320 85 33 ba bd 77 8f 17 3e da f0 9b bd a2 c5 b6 3d
       -0.09091858 0.14800821 -0.07614298 0.08924414
000330 be 99 10 3e ae a5 3e 3c 39 e6 02 bc 85 5c 1d be
       0.14121148 0.011636181 -0.00798946 -0.15367325
000340 3d 63 99 3d a7 3f 01 be 04 6f dd bd 62 5d 30 bd
       0.07489631 -0.12621938 -0.1081219 -0.043057807
000350 61 1b b5 3c 62 5f 25 3c a2 18 ee 3d c8 46 fb bd
       0.022107782 0.010093542 0.11625792 -0.1226936
000360 e3 f5 dd 3d 0c 0d 90 bb 59 40 4e 3d 89 70 30 be
       0.10837915 -0.0043960866 0.050354335 -0.17230429
000370 d3 7c 12 3d d5 f0 1f be d2 f6 fa 3d 2d 96 4d 3d
       0.035763573 -0.15619214 0.122541085 0.050192047
000380 e7 b1 d1 bd 7a 53 04 3e 77 8b 81 3d c2 4f 99 3c
       -0.1023901 0.12922469 0.06325429 0.01871479
000390 6f 49 32 bd 95 4d 1c 3e 93 48 60 bd 49 aa 07 3d
       -0.043527063 0.1526397 -0.054756712 0.03312138
0003a0 d0 f5 23 3e 40 fe cf 3d 16 01 eb 3d ab c2 f4 bd
       0.16011739 0.10155916 0.114748165 -0.119511925
0003b0 75 65 e2 3d a9 f0 23 3d c3 13 55 3c 98 46 dc 3d
       0.11054508 0.040024433 0.0130052 0.10755652
0003c0 ed b8 13 bc ba c1 94 3c 68 cd 21 be 70 41 a5 bd
       -0.009016258 0.018158782 -0.15801013 -0.08069122
0003d0 7c bd 14 3e 8e 97 fe bd fa 5a 63 3d 0c ff 1b be
       0.14525408 -0.124312505 0.055506684 -0.15234011
0003e0 9d 9e 15 3d 5d ac 18 3e bf e6 08 3d 30 ab ed bd
       0.03652822 0.14909501 0.03342318 -0.11604917
0003f0 9d fa ef bc 73 90 01 bd a2 49 8a bd 35 f2 d4 3d
       -0.029294306 -0.031631898 -0.067523256 0.1039776

convs.1.nn.2.bias f4 [32]
000000 ee 9e 9c bd d4 9f f4 bd 44 84 72 bd 57 5e d3 bd
       -0.07647501 -0.11944547 -0.05920817 -0.10320728
000010 39 7e d7 3d 0b c6 02 3e 99 6b fb 3d bd b5 09 3d
       0.10522122 0.1277086 0.12276382 0.033620585
000020 90 6d 33 3e c0 4e a6 3d 1c 6e d6 ba 3b 4c 29 be
       0.17522264 0.08120489 -0.001635972 -0.16532986
000030 ee bd c5 bd f0 f9 1f 3e 83 fc 16 be bd 2e 99 bd
       -0.09655367 0.15622687 -0.14744763 -0.07479618
000040 03 35 97 bd 70 1d 1d be f6 31 3c be 73 69 3f bd
       -0.07383158 -0.15343261 -0.18378434 -0.046731424
000050 d5 7f d2 bd 66 a2 b1 3b cb 04 3b bc 9e 0f bc bd
       -0.10278288 0.0054209707 -0.011414717 -0.09182666
000060 aa f9 84 bb 26 0c f4 bd 73 20 40 be e5 ba d9 bd
       -0.0040580826 -0.1191638 -0.18762378 -0.106313504
000070 13 df 44 3d df 35 2c be 2c 02 4c bd c2 03 a0 bd
       0.048064303 -0.16817425 -0.04980676 -0.07813217

convs.2.nn.0.weight f4 [32, 32]
000000 2b c6 f2 3d 3d 34 1b 3d 6f e3 45 bd 40 84 41 bd
       0.11854204 0.037891615 -0.0483126 -0.047245264
000010 3e 67 26 3e 86 2b d1 3d b4 dc 4e bc 83 58 2f bd
       0.16250321 0.102133796 -0.012625862 -0.04280902
000020 0d c5 0a bd c0 84 3e 3c ce 41 36 be 37 e0 26 3e
       -0.03387933 0.01162833 -0.1779854 0.16296469
000030 a8 89 09 be 3b d9 97 3d 48 29 61 bd b2 21 28 3d
       -0.13431418 0.0741448 -0.05497101 0.04104776
000040 39 ac 34 be 75 34 98 bd 04 db c0 bd ce e9 15 3e
       -0.17643823 -0.074318804 -0.09416774 0.1463997
000050 97 81 00 bd 86 6f 8c 3b ce 5d a5 3d cb 18 b0 ba
       -0.031373587 0.0042857556 0.080745324 -0.0013435123
000060 09 c0 3e be 9e cc 3b bd da 64 2f be 4e 67 07 3d
       -0.18627943 -0.045849435 -0.17128316 0.033057503
000070 40 ed 6d 3d 89 b7 a4 bd 83 db 2e be 8a 84 fa bd
       0.058087587 -0.08042819 -0.17075925 -0.12232311
000080 99 fd 92 bb dc 61 04 3e 96 b2 fc bc 4c 46 e9 3c
       -0.0044857976 0.12927955 -0.030846875 0.028475903
000090 3f 76 f7 3d 0f 87 3b 3e f9 cb bb 3d 7e 51 20 be
       0.120831005 0.1831324 0.09169764 -0.15656087
0000a0 5d a6 28 3d 30 99 d1 bd d3 6b 17 3e ee 9e 88 bd
       0.04117428 -0.10234296 0.14787225 -0.066709384
0000b0 f7 da 85 bd 2c dc c6 3c e0 13 b8 3d 3b 8f 10 3e
       -0.06535905 0.024274908 0.08988166 0.14117138
0000c0 eb eb 4b 3e 58 79 4c 3e 38 a4 1a 3d 40 7e ee 3c
       0.19914214 0.19968164 0.037754267 0.029112935
0000d0 14 dc 7f 3c 5c 73 91 bc 6a 6f b2 bd ae 6a 8a bd
       0.015616436 -0.017755203 -0.08712657 -0.06758629
0000e0 1a 44 83 3d 00 57 5d b9 1d 48 69 3d 2d 74 54 3d
       0.06409474 -0.00021108612 0.05695354 0.051868606
0000f0 bb 13 fc bd 6a 83 2a bd af 8f a3 bd 09 0a 0e be
       -0.12308451 -0.041629232 -0.0798639 -0.13871016
000100 40 2a 84 bc 22 05 b2 3d f4 1d 53 bd 62 fb b0 3d
       -0.016133428 0.08692385 -0.051542237 0.086416975
000110 98 c7 3a bc cd 97 0c 3e 28 6b 1c be 5c 09 c4 3c
       -0.011400126 0.13729782 -0.15275252 0.023930244
000120 bc 8e b5 bd 1a 9a 02 3e 47 0e e1 3c af 29 54 3d
       -0.08865115 0.12754098 0.027472628 0.051797565
000130 c9 ac 18 3e 89 65 cf bd 44 3f 1f bd 44 bf c5 bc
       0.14909662 -0.10126788 -0.038878694 -0.024139054
000140 83 6a 9b 3d b6 1b ef bd d3 bf 1f be 24 86 37 3d
       0.07588675 -0.11675207 -0.15600519 0.04480566
000150 a9 24 10 3d 69 ac ee bd 1f 9a c4 bc e1 18 03 3e
       0.03519121 -0.116539784 -0.023999272 0.1280246
000160 ca d4 be bd db fa 87 3d 32 81 1e bd 62 02 3c 3d
       -0.0931793 0.06639644 -0.03869743 0.04590071
000170 80 13 03 3e a7 d2 05 3e cd 46 e3 3d a8 7b b5 3d
       0.12800407 0.13068639 0.110974886 0.08861476
000180 2e 9b e6 3c b9 38 12 be 7a dc 85 3d 5f 2f 95 bc
       0.028150167 -0.1427945 0.06536193 -0.018211065
000190 6f 3c 56 3d 69 cd c1 3c d6 ff 0e 3e f4 1c 16 bd
       0.052303728 0.023657518 0.13964781 -0.036648706
0001a0 0c 52 05 be 14 3d 9a 3c 69 92 02 3e 09 42 58 bd
       -0.1301958 0.018827952 0.12751164 -0.05279735
0001b0 8b 85 24 be 2c df 86 bb 48 96 d4 bd 63 16 13 be
       -0.16066568 -0.0041159596 -0.103802264 -0.14364009
0001c0 dc 52 fe 3d 3e 59 a1 3d 12 39 a8 3d b0 63 0c be
       0.12418148 0.0787835 0.0821401 -0.13709903
0001d0 be 5b db 3d 3a 3d f2 3c 41 29 93 3c d3 2c c0 3d
       0.10710858 0.02957021 0.017964007 0.093835495
0001e0 88 77 f2 bd 0e d2 42 3e cc 6d 2b 3e 89 5f 08 be
       -0.11839205 0.19025442 0.16741103 -0.13317694
0001f0 4d d2 34 be e2 ed de 3c 01 f7 cc bd 1a 29 28 3d
       -0.17658348 0.02721304 -0.1000805 0.041054823
000200 45 79 55 3c a1 c4 dc bd 32 85 ec 3d 6b f8 0b 3d
       0.013029401 -0.107796915 0.115488425 0.034172457
000210 6b da 8f 3c 75 e2 99 bc 77 28 e3 bc 78 91 e2 3d
       0.017560204 -0.018784741 -0.027729256 0.11062902
000220 ed 7f 9b bd 91 66 53 3d 9d a6 0d 3c e5 4d 43 3d
       -0.07592759 0.051611487 0.008645681 0.047681708
000230 27 62 ca 3d f4 97 03 be c7 ef 35 3a df 16 1e 3e
       0.09882002 -0.12850934 0.00069403317 0.15438412
000240 2a f0 f3 bd d3 92 f9 39 58 c5 a9 39 f3 82 f8 3d
       -0.11911042 0.00047602374 0.00032381224 0.121343516
000250 0d bd cc 3d 7d 41 e8 bb ef 90 49 bd 10 07 da 3d
       0.09996996 -0.007087885 -0.049210485 0.10645878
000260 eb 08 71 3d c8 1a c5 3d 30 27 c7 3d e7 80 94 3d
       0.058846395 0.09624249 0.09724271 0.07251149
000270 1f 3e 68 bc f2 44 fd 3d a7 fe e9 3d 0c ae 33 be
       -0.014174967 0.12366666 0.11425524 -0.17546862
000280 61 0b c2 3d b1 ac 16 3d ba 54 fb 3d 3b ff 0f 3e
       0.094748266 0.036785785 0.1227202 0.14062206
000290 a2 bf 90 3d 36 f9 d0 bc eb 71 9d 3d 25 76 11 3e
       0.07067801 -0.025509458 0.07687744 0.14205225
0002a0 3a a2 b2 3c 82 89 24 be 33 6d 64 bd c8 ed 91 bd
       0.021805871 -0.1606808 -0.055768203 -0.07125431
0002b0 45 1d d9 3b df 23 74 3d ae 13 2f bd 5b 78 ef bd
       0.0066258037 0.05960452 -0.042743377 -0.11692878
0002c0 e3 3a c3 3d c9 af 05 3c fe 28 98 bb e7 ee b7 bc
       0.09532716 0.008159586 -0.0046435585 -0.022452785
0002d0 fe 14 39 3b df 6e 6c bd f2 33 07 be ea 33 e4 bd
       0.0028241272 -0.057722922 -0.1320341 -0.11142714
0002e0 bf c3 97 3d 26 4f 24 3b 14 a7 04 3e ab 31 67 3c
       0.074103825 0.002507159 0.1295436 0.014110963
0002f0 3a 81 1a 3e 66 08 10 be 1f 81 b3 3d d3 fb f7 3b
       0.15088359 -0.14065704 0.08764862 0.0075678616
000300 8a b5 4a 3d e2 85 dc bd 32 6e 4d 3d 96 e2 27 bd
       0.049489535 -0.107677236 0.05015392 -0.040987574
000310 09 dc 54 3c 7c 42 68 bd 05 a5 5b 3c fc 25 a1 3d
       0.012991914 -0.05670403 0.013406043 0.07868573
000320 0a 10 aa bd 6d da 12 be af 0e 9e bd 88 e8 99 bc
       -0.083038405 -0.14341135 -0.077176444 -0.018787637
000330 e5 35 16 3e 53 39 6e 3d c2 d8 86 3d 88 8e 00 be
       0.14668997 0.058160137 0.06584312 -0.12554371
000340 23 46 e4 bd 1c df d8 3d e5 4c 44 be 50 b1 17 3e
       -0.1114619 0.1058943 -0.19169958 0.14813733
000350 22 2e 62 bd 4a 70 d8 bd 2e 80 df 3b e8 4b 15 be
       -0.055219777 -0.105682924 0.0068207 -0.14579737
000360 08 1d 20 3e 32 49 d1 3d 42 f9 23 be 59 bb dc bd
       0.15636075 0.10219039 -0.16013053 -0.10777921
000370 7d 43 0b 3d c2 20 b0 bd 5b b2 3a be f3 0f 8a bd
       0.03399991 -0.08599998 -0.182321 -0.06741323
000380 42 6a 19 be 13 cc 20 bc 9e a7 39 bd 18 f1 32 3d
       -0.1498194 -0.00981428 -0.045325868 0.043686956
000390 9d ec 10 be 8f 8d 79 bc c4 77 c2 bd 32 1b f2 3c
       -0.14152761 -0.015231504 -0.094955 0.029553983
0003a0 d1 e8 31 be d6 f4 9a 3d 8f f2 8e 3d 87 c3 34 3d
       -0.17373969 0.0756623 0.06979858 0.044131782
0003b0 f4 f6 fc bd ae 1d 9b bd d6 67 9b 3d 00 a2 57 3d
       -0.1235179 -0.0757402 0.075881645 0.05264473
0003c0 c9 01 df 3d 09 7a d6 bd 48 bb 99 3d 7f 9a d3 3d
       0.10889012 -0.10472495 0.07506424 0.10332202
0003d0 66 1c 0e be 77 01 f2 bd 1c fc c6 bc 07 bd 1e 3e
       -0.1387802 -0.11816686 -0.024290137 0.15501796
0003e0 82 f4 aa 3c c2 50 0a 3b 3b d3 d3 bd 3e b2 b6 bd
       0.020868544 0.0021105264 -0.103430234 -0.08920716
0003f0 19 7f 08 3c a6 ca 51 be cb 84 01 3d 20 bc 58 bd
       0.008331084 -0.2048746 0.031620782 -0.052913785

convs.2.nn.0.bias f4 [32]
000000 e9 23 1c be 31 dc b7 3d d3 23 df 3c cb eb 84 bd
       -0.15248074 0.08977545 0.027238762 -0.064902864
000010 8f 73 e9 bd 2d 2b 9c bc 65 a7 18 be 3d ad 02 be
       -0.11398994 -0.019063557 -0.14907606 -0.12761398
000020 d5 4c 0c 3e 1a a6 32 3e 78 00 fc 3d 14 4c b1 bd
       0.13701184 0.17446175 0.12304777 -0.08657089
000030 79 27 e7 3d d4 57 34 be 9b 6a ef 3d 13 19 17 3e
       0.11286826 -0.17611629 0.11690255 0.14755659
000040 20 35 60 3d d9 e1 1d 3e 6f f3 5b 3d 6a 39 3b be
       0.054738164 0.15418185 0.053698953 -0.1828362
000050 89 69 0a be 45 d1 1f 3e 91 25 db bd bc fb 42 3d
       -0.13516821 0.15607174 -0.107005246 0.047603354
000060 ce e5 e4 3d 0e f6 a8 3d b4 7d 30 3e b5 91 2a 3e
       0.11176644 0.08250056 0.17235452 0.16657145
000070 41 c9 53 3d e1 11 9f 3d ca 4e 30 3d 84 67 37 be
       0.051705603 0.07767082 0.04304389 -0.17910582

convs.2.nn.2.weight f4 [32, 32]
000000 a1 a2 22 3e 31 96 ae 3c 41 d8 b9 bc ab ab 03 3d
       0.1588235 0.021311851 -0.022686126 0.032146137
000010 b8 6e 32 be ad 79 c2 3d d1 dd 05 3e 80 2d 0f 3e
       -0.17425048 0.09495864 0.13072897 0.139822
000020 a7 f9 12 3e 16 ce a2 bc 92 5d e4 bc 4f 80 30 bd
       0.14353047 -0.01987366 -0.027876649 -0.043091115
000030 4f 78 2b 3e 04 75 9e 3d f1 64 3a bd 29 57 e9 3d
       0.16745113 0.07737163 -0.04550642 0.113935776
000040 41 97 a8 bd d5 e3 c9 bc d4 a2 94 3d 95 6f fd bd
       -0.082319744 -0.024644772 0.072576195 -0.12374798
000050 33 e2 cf 3d 57 d4 57 bd be da fe 3c 6a 8a fb bd
       0.10150566 -0.052692737 0.031110164 -0.1228226
000060 39 ad 49 3c 48 a9 c7 3d bc 5f 02 bb 26 36 1b be
       0.012309366 0.09749085 -0.0019893488 -0.15157375
000070 6f 5d 65 bd 56 d6 08 be f4 77 70 3b 3e 6a 8b bd
       -0.05599731 -0.13363013 0.0036692591 -0.068073735
000080 af 7e d0 bd f9 ef 03 3c 9d 50 0d be b1 a9 99 bd
       -0.10180413 0.008052819 -0.13800283 -0.07503069
000090 2f 47 df bc e1 ba 39 bd 34 cb de 3d 49 00 32 3e
       -0.027255623 -0.045344237 0.10878602 0.17382921
0000a0 a9 e9 a3 bd e9 a9 09 3e 7e 58 40 bc 0d 33 b9 3d
       -0.080035515 0.13443722 -0.011739848 0.0904294
0000b0 3f ce 00 3e 43 77 93 bd 6e 32 76 bd 0e d0 26 3e
       0.12578677 -0.07200482 -0.060106687 0.16290304
0000c0 74 7e 49 3e b2 8f d9 bc b0 41 3e 3e 1d fd 00 3e
       0.19677144 -0.026557777 0.18579745 0.12596555
0000d0 89 b9 cd bd 35 6d 3c 3d 10 21 09 be d0 48 f6 bd
       -0.10045154 0.046002585 -0.13391519 -0.12025607
0000e0 20 96 d7 3d a0 73 d1 bd c7 8e e2 bd ed fd d9 bd
       0.10526681 -0.10227132 -0.11062389 -0.106441356
0000f0 1f 02 11 be 6c 71 a9 bd d7 ed 2b 3e c8 0b e6 bd
       -0.14160965 -0.08273587 0.16789947 -0.11232716
000100 6f 4d ec 3d fc 01 90 bd 17 63 35 3e db dc d4 bd
       0.11538207 -0.070316285 0.17713581 -0.10393687
000110 66 c7 38 be 8d f0 aa bd 84 32 18 3e 54 9e 0d bd
       -0.18044814 -0.08346663 0.1486302 -0.03457482
000120 c8 64 08 3e 6d a9 4f 3e 60 4e 19 3e 00 0b 1a 3e
       0.13319695 0.20279475 0.14971304 0.15043259
000130 65 bb 42 3e e7 c8 e5 ba 73 0d 3f 3e ab a0 a7 bd
       0.19016798 -0.0017531187 0.18657474 -0.08184942
000140 32 8e 39 3c 2e 28 49 3e 57 35 26 3d 7b 05 f6 3d
       0.011325406 0.19644234 0.040578213 0.12012764
000150 bb fc 49 bd 8d a3 c2 3d a5 38 87 3c a8 e0 79 3d
       -0.04931329 0.09503851 0.016506502 0.061005265
000160 31 10 b3 bc 03 7b aa bd 91 82 9d 3d fa a9 24 be
       -0.021858307 -0.08324244 0.07690919 -0.16080466
000170 64 cb 03 be 2c 69 a6 3d 96 ee d1 3c 6a 2a 8c 3d
       -0.12870556 0.08125529 0.025626462 0.06844027
000180 34 2c 8b 3d da eb 29 be 48 13 85 bd 07 b4 05 3e
       0.067955405 -0.16593876 -0.06497818 0.13056956
000190 40 51 9f 3d 1e 3d 25 be 5c ea 0f be 0e 44 32 be
       0.07779169 -0.16136596 -0.14054245 -0.17408773
0001a0 00 d6 fc 3d ae d9 16 be c6 ff 09 bc 85 55 2b be
       0.12345505 -0.14731476 -0.008422798 -0.16731842
0001b0 c6 ad 13 be c3 1d fa 3d f5 c3 df bd 6c 35 20 3e
       -0.14421758 0.12212708 -0.10926048 0.15645379
0001c0 26 d2 97 3d 6f b2 4c bd 62 cd 0d 3d 66 5d 19 be
       0.074131295 -0.049974855 0.034619696 -0.14977035
0001d0 17 af cc bd a4 e9 8d bd b7 83 31 bd dc e2 88 bd
       -0.09994333 -0.06929329 -0.043338504 -0.06683895
0001e0 02 8c 95 bd 51 76 e9 3d b8 dc 12 3e 9a 9e 14 bb
       -0.07302095 0.1139952 0.1434201 -0.0022677542
0001f0 3e 32 d6 bd d4 04 ca bd cb 2f 0f bd b3 36 2f be
       -0.10458802 -0.09864202 -0.03495769 -0.1711071
000200 c2 c3 25 3e 81 5f c2 bd a7 8f 43 be a9 be 0a be
       0.16187957 -0.09490872 -0.19097768 -0.13549294
000210 dc 59 18 3d b7 6f c7 3d 71 ce 86 bc f9 02 b3 bd
       0.03719507 0.09738105 -0.01645586 -0.08740801
000220 d3 c4 0c bd 3f 23 71 bd 84 b6 42 be 94 7e 1e be
       -0.034367394 -0.058871504 -0.19014937 -0.15477973
000230 39 a8 77 3d 2e 7c 82 bd 46 dd 9d 3d 22 b3 e9 bd
       0.060463164 -0.06371342 0.0770822 -0.1141112
000240 1f c1 92 3c 24 38 1b 3e aa 43 62 bd 65 13 91 3d
       0.017914353 0.15158135 -0.05524031 0.07083777
000250 de 11 02 be 56 7f ca bd bd 2d 10 be 0a be 8f 3d
       -0.12702128 -0.09887569 -0.14079948 0.07018669
000260 8a af 0b be d9 27 af bd 9e 9a 12 3d da 15 0c 3e
       -0.13641182 -0.08552522 0.035791986 0.1368021
000270 bc 13 78 bc a0 bd 01 be 0d d6 9b bd 9d 0e ed bd
       -0.015141424 -0.12669992 -0.07609186 -0.11575053
000280 3d 94 04 3e e2 50 a0 3d 70 c4 1c bd e3 a3 b4 3c
       0.12947173 0.07827927 -0.038273275 0.022050804
000290 e9 0f c3 3d fe c6 b7 3b bd 2b 00 be 05 38 07 be
       0.09524519 0.0056084385 -0.12516685 -0.13204964
0002a0 89 5f 0d bd db 31 01 be bf e1 08 bd e8 5e 08 3b
       -0.034514938 -0.12616675 -0.033418413 0.0020808522
0002b0 52 8f 17 3e 13 58 01 3e 33 f0 6a bc 3a b1 be 3d
       0.14800766 0.12631254 -0.0143394945 0.09311147
0002c0 37 f2 f3 3c c3 93 7f 3c 1a dd 69 bd 84 54 45 be
       0.029778583 0.015599194 -0.057095625 -0.19270521
0002d0 02 be c0 bd f9 ec 12 be 40 55 b8 bd fc 34 7c bd
       -0.09411241 -0.1434821 -0.09000635 -0.061573967
0002e0 5b 32 be bc 13 0b 38 be 29 78 02 be aa bf 12 be
       -0.02321737 -0.17972974 -0.1274115 -0.14330927
0002f0 0b ee 75 3d 94 b6 3b 3d 7b 8d 26 3e 10 10 fa bd
       0.06004147 0.045828417 0.16264908 -0.12210095
000300 e4 ac b5 3d 0e 95 3f 3d a4 23 56 3e 33 db b0 3b
       0.08870867 0.04677301 0.20912033 0.0053972243
000310 46 aa e9 3d 71 fa d4 bd cb e0 dd bd 13 52 6c 3d
       0.1140943 -0.103993304 -0.108338915 0.05769546
000320 82 b3 35 3e 60 7b 93 3d 20 0a c4 bd a6 27 be bc
       0.17744258 0.07201266 -0.09572244 -0.023212265
000330 fe fb c6 3b cb 48 3a 3e fa 69 0a 3e 0c 5f 50 3e
       0.0060725203 0.18191831 0.1351699 0.20348758
000340 74 fd 6f 3d 70 81 54 bd 2a d5 e2 3d 13 61 d9 bd
       0.05859132 -0.051881254 0.11075814 -0.106142186
000350 43 52 00 be 81 9d 4d be 5f 31 a3 bd 06 04 0f bc
       -0.1253138 -0.20079614 -0.07968401 -0.008728987
000360 2a 8c 6e bc 93 3c d4 bd ee 83 18 3e d5 ef a0 bd
       -0.014559785 -0.10363116 0.14894077 -0.07858244
000370 4b 65 4b 3e 71 59 3c 3e 51 db e5 3d 96 73 19 3a
       0.19862859 0.18393494 0.11223472 0.00058537105
000380 78 2e ea 3d 63 38 f7 bd 0c af 42 3e b1 ae 19 3d
       0.114346445 -0.12071302 0.19012088 0.037520114
000390 72 19 42 bd ca 3b b6 bb a5 a2 0b be c0 1c 52 3e
       -0.047387548 -0.0055613266 -0.13636263 0.2051878
0003a0 87 96 73 bc e9 61 cf bd 9b d4 a8 bc ea 9f c6 3d
       -0.0148674315 -0.10126097 -0.02060919 0.0969847
0003b0 da e6 87 3d 75 17 a4 bd b6 7d cf bd 36 b8 e2 3c
       0.06635828 -0.080122866 -0.10131399 0.02767573
0003c0 38 80 ea bd 2a 12 90 bb 99 38 49 3e 37 51 20 3e
       -0.11450237 -0.0043966966 0.19650497 0.15655981
0003d0 30 27 01 3e d1 08 95 3d d6 a6 a9 bd 54 62 fb bd
       0.12612605 0.07277072 -0.082837746 -0.12274614
0003e0 be ad 7e bd ee 14 a6 bb b8 68 01 3e f5 95 40 3e
       -0.062177412 -0.005068413 0.12637603 0.18807204
0003f0 16 b1 b3 bc bd 9e ce 3d 3c 34 26 3e ce a4 3d bd
       -0.021935027 0.10088871 0.16230863 -0.046299748

convs.2.nn.2.bias f4 [32]
000000 a8 58 33 3e 44 d9 34 3e 0f 69 c4 3d 93 2c 1e be
       0.17514288 0.17661005 0.09590351 -0.15446691
000010 c1 6a 17 bd 05 6b a7 3d 60 b3 05 3e f2 54 18 3d
       -0.036967043 0.08174709 0.13056707 0.037190385
000020 27 61 37 3e f5 01 f8 bd 9c 8c 89 3c 53 95 01 3e
       0.17908154 -0.12109748 0.01679068 0.12654619
000030 cc ad ba bd d7 1c c5 3d 5d e1 31 3e bb 64 7f 3d
       -0.091151804 0.096246414 0.17371126 0.062351923
000040 f4 6c a9 3d 41 e0 0b bc 20 a7 ad bc 42 44 fe 3d
       0.08272734 -0.008537353 -0.021197855 0.12415363
000050 ba c1 53 bd 41 23 04 3e 2d 7a 9b 3c d3 b6 77 3d
       -0.051698424 0.12904073 0.018979156 0.06047709
000060 9b 3f fc 3d b6 e4 21 3e bf 4f 61 bd c3 96 06 be
       0.12316819 0.15809903 -0.055007692 -0.13143449
000070 f4 29 0a be 7e 50 cc 3d 16 a0 0e 3e 43 60 83 bd
       -0.13492566 0.0997629 0.13928255 -0.06414845

lns.0.weight f4 [32]
000000 41 ad 7c 3f d7 95 7e 3f 05 ff 82 3f b8 c6 81 3f
       0.98701864 0.9944739 1.0234076 1.0138769
000010 84 c9 7d 3f b4 3b 79 3f 2b 55 7d 3f ae 11 82 3f
       0.99135613 0.97356725 0.9895808 1.0161645
000020 64 ae 81 3f c6 1f 83 3f e1 6a 82 3f 80 6a 81 3f
       1.0131345 1.0244071 1.0188867 1.0110626
000030 dd ec 80 3f b2 94 7c 3f c0 37 81 3f 57 c6 80 3f
       1.0072285 0.9866439 1.0095139 1.0060529
000040 87 a7 81 3f 5c a7 82 3f 8e 94 7a 3f 3c 50 83 3f
       1.012925 1.0207324 0.97882926 1.025886
000050 32 ba 81 3f 4f 9d 81 3f 6a 5c 82 3f 5b 35 7d 3f
       1.0134947 1.0126132 1.0184453 0.9890954
000060 df c6 7e 3f c0 15 79 3f d8 79 7b 3f 20 39 7e 3f
       0.99522203 0.9729881 0.98232794 0.99305916
000070 41 40 82 3f f5 57 7c 3f 16 31 79 3f 4a 19 7d 3f
       1.0175859 0.9857171 0.97340524 0.98866713

lns.0.bias f4 [32]
000000 ff 86 4d bc 3a 29 ab 3b 7d fe be bc 87 2c 6c bc
       -0.012544393 0.0052234204 -0.023314709 -0.014414913
000010 57 19 0b 3c 4b f9 aa 3c dc bc 05 bc 66 30 86 bc
       0.008489928 0.020870825 -0.008162703 -0.0163805
000020 4e e9 5a bc b6 58 c6 3c 69 fe 9d bc 6e 67 39 bc
       -0.013361288 0.024212223 -0.019286351 -0.011316163
000030 80 59 df bb d8 b5 5b 3c 49 ac 20 bc 85 b9 c6 bb
       -0.006816089 0.013410054 -0.009806701 -0.006064596
000040 f1 15 6d 3c 0f 69 c2 3c a2 67 d6 3c a2 cb d0 bc
       0.014470563 0.023731736 0.026172463 -0.025487725
000050 2a 55 61 bc bb fb 59 bc c1 a7 91 bc ea 02 3d bc
       -0.013753215 -0.013304646 -0.017780187 -0.011536339
000060 fa 78 53 3c 28 b4 13 3b 55 40 d9 3b 90 42 da 3b
       0.012907261 0.0022537801 0.0066299834 0.006660767
000070 5f c4 8e bc 1c 31 65 3c 11 10 a3 3c 37 02 ca 3b
       -0.017427621 0.013988759 0.019905122 0.006164815

lns.1.weight f4 [32]
000000 3f ce 82 3f 04 5c 82 3f 63 4c 82 3f 1e 85 83 3f
       1.0219191 1.0184331 1.0179561 1.0274999
000010 6e 63 81 3f c0 98 83 3f 3c 00 84 3f 0c 04 80 3f
       1.0108469 1.0280991 1.0312572 1.0001235
000020 87 0e 78 3f 16 2f 83 3f 87 28 80 3f 66 a1 81 3f
       0.96897167 1.0248744 1.0012368 1.012738
000030 1c 4e 7a 3f 04 06 81 3f f7 6b 7b 3f 4c 1f 84 3f
       0.97775435 1.0079961 0.98211616 1.0322051
000040 3b 40 84 3f 3a 01 84 3f b2 b0 81 3f f2 1c 84 3f
       1.0332102 1.0312874 1.0132048 1.0321333
000050 9d c1 82 3f a7 9d 82 3f 9b 43 84 3f dc 4c 82 3f
       1.0215336 1.0204362 1.0333132 1.0179706
000060 e6 ab 82 3f c1 3a 84 3f 38 14 84 3f d5 c1 7b 3f
       1.0208709 1.033043 1.031867 0.9834264
000070 47 11 84 3f df a2 83 3f 5f 7b 83 3f a8 dc 81 3f
       1.0317773 1.0284079 1.0272025 1.0145464
