GNNStack_checkpoints/run_11_12/artery_model_last.pt (torch, 35103 bytes, 20 tensors)

convs.0.nn.0.weight f4 [32, 7]
0	0x3cb76d1e	0.022390898
1	0x3e39435e	0.18092105
2	0xbc695c65	-0.01424322
3	0xbc06094f	-0.00818093
4	0xbc802697	-0.015643401
5	0x3e4109e7	0.18851434
6	0x3d58143e	0.05275368
7	0xbea1539d	-0.31509104
8	0xbe8a00b1	-0.26953653
9	0x3cdec0f1	0.027191611
10	0xbcae9291	-0.021310123
11	0x3ec1d37b	0.3785666
12	0xbda62be5	-0.08113841
13	0x3e8b4428	0.27200437
14	0xbe9e2726	-0.30889243
15	0xbeaf744a	-0.3426841
16	0xbd5bd13a	-0.05366633
17	0xbe739471	-0.23787095
18	0xbdfdc3c6	-0.123908564
19	0x3cad935f	0.021188436
20	0xbea7c057	-0.3276393
21	0x3e84cbb8	0.25936675
22	0xbe4f39de	-0.20236918
23	0x3e980043	0.296877
24	0x3e015939	0.12631692
25	0xbd833b38	-0.064077795
26	0xbea92870	-0.33038664
27	0x3d8cde53	0.068783425
28	0xbe54bc2b	-0.20774905
29	0x3eac794b	0.3368629
30	0xbe9dc8d5	-0.30817285
31	0xbdc610f2	-0.09671201
32	0xbe43da78	-0.19126308
33	0xbe72f67c	-0.23726839
34	0xbe53890e	-0.20657751
35	0xbce48eef	-0.027900187
36	0x3ce2f1a1	0.027703108
37	0x3d617d36	0.05505105
38	0x3e474ef2	0.19463709
39	0xbe274d77	-0.16338144
40	0xbe72734f	-0.23676799
41	0xbda4c492	-0.08045305
42	0x3ebc26b1	0.3674827
43	0xbd37bb13	-0.044856142
44	0xbea4965c	-0.32145965
45	0x3ea59a2b	0.32344183
46	0x3ddeeb46	0.108847186
47	0x3da94ee0	0.08266997
48	0x3d418187	0.047242668
49	0x3e85e16c	0.26148546
50	0xbe1490f0	-0.14508414
51	0x3e95a458	0.29226947
52	0x3eaf3136	0.34217232
53	0xbdbc63b5	-0.09198705
54	0x3e747c2e	0.23875496
55	0x3e6d844c	0.23194999
56	0x3eae92e9	0.3409646
57	0xbda83be6	-0.0821455
58	0xbe623714	-0.22091323
59	0xbe1337d8	-0.14376771
60	0xbe8b56f1	-0.2721477
61	0x3bb8b986	0.0056373505
62	0x3ebc2c10	0.36752367
63	0x3eb5b6bb	0.35490975
64	0x3e8db893	0.2767988
65	0x3d16f5e3	0.03685559
66	0x3bd17ef2	0.006393307
67	0x3e7e3bea	0.24827543
68	0x3e765de0	0.24059248
69	0xbd30adca	-0.04313449
70	0xbdb8b085	-0.090180434
71	0x3e201feb	0.15637176
72	0xbc984f32	-0.01859245
73	0xbe89c431	-0.26907495
74	0xbe30f1d1	-0.17279746
75	0x3e9dedfa	0.30845624
76	0x3ea8f340	0.32998085
77	0xbe0b4be6	-0.13603172
78	0xbd92dd32	-0.07171096
79	0xbe4a46ab	-0.1975352
80	0xbdfdd06a	-0.123932675
81	0x3eae6423	0.34060773
82	0xbea892aa	-0.32924396
83	0x3e3344d5	0.17506726
84	0xbeb0724b	-0.344622
85	0xbe42ae3a	-0.19011775
86	0xbd82deca	-0.0639015
87	0x3ccc4cb7	0.024938924
88	0xbd3f36b9	-0.046683047
89	0xbe2470a9	-0.16058601
90	0xbe33a554	-0.17543536
91	0xbe70a85f	-0.23501728
92	0xbe8b7e1c	-0.2724465
93	0xbe69346f	-0.22773908
94	0x3eb78c1a	0.35849077
95	0xbe3397f0	-0.17538428
96	0xbe9f3fc7	-0.31103346
97	0x3e8d2111	0.2756429
98	0x3e1b430d	0.15162297
99	0x3e88b977	0.26703998
100	0xbec45163	-0.38343343
101	0xbeb4b559	-0.35294607
102	0xbe841fa5	-0.25805393
103	0xbe426ca3	-0.18986754
104	0xbbbc12a0	-0.005739525
105	0x3e1f1d99	0.15538634
106	0x3e616de5	0.22014578
107	0xbea00d8c	-0.31260335
108	0x3e117df8	0.1420821
109	0xbe688c13	-0.22709684
110	0x3d9cc708	0.0765515
111	0x3e096409	0.13417067
112	0x3d5421e6	0.05179014
113	0x3e08e91f	0.13370179
114	0xba9e3949	-0.0012071516
115	0x3e782bb5	0.24235423
116	0x3dc4878d	0.09596167
117	0x3eb67897	0.35638878
118	0x3da27eaf	0.07934319
119	0xbe492988	-0.19644749
120	0x3e7a7258	0.24457681
121	0x3d173930	0.036919773
122	0x3eb7c4e8	0.35892415
123	0xbd309600	-0.0431118
124	0x3ebd5d23	0.3698512
125	0xbe4ae913	-0.19815473
126	0x3e397a64	0.18113095
127	0xbe8f2c93	-0.27963695
128	0x3e770ca4	0.24125916
129	0x3d8b1661	0.06791378
130	0x3e4ae3a3	0.19813399
131	0xbeb32635	-0.34990087
132	0xbec628f7	-0.3870313
133	0x3e4341cb	0.19068067
134	0xbe255f20	-0.16149569
135	0x3e0ef9af	0.13962434
136	0xbe5b7298	-0.21430433
137	0xbde71de8	-0.11285001
138	0x3b5cf6e4	0.0033716494
139	0x3e5e91ac	0.21735257
140	0x3e539db2	0.20665625
141	0xbd033e4f	-0.032041844
142	0xbdb1995f	-0.08671831
143	0xbcbbd4bd	-0.02292859
144	0x3e4ae0ee	0.19812366
145	0xbea57230	-0.3231368
146	0xbdcc8a09	-0.099872656
147	0xbec1266d	-0.3772463
148	0x3d2b084c	0.04175596
149	0xbd64d950	-0.055871308
150	0x3e64f25c	0.22358078
151	0x3e92600f	0.28588912
152	0xbea9f12c	-0.33191812
153	0xbe29b6a6	-0.16573581
154	0xbd98c4a4	-0.07459381
155	0x3be2fb38	0.0069269203
156	0xbd904fc2	-0.070464626
157	0xbe75525c	-0.23957199
158	0xbe086354	-0.1331914
159	0xbc1fd5dd	-0.009755579
160	0x3e989a9a	0.29805452
161	0xbdc7081f	-0.09718346
162	0x3e7d42e9	0.24732555
163	0xbe9905ee	-0.29887336
164	0x3c690b8a	0.0142239425
165	0xbe9900e6	-0.29883498
166	0xbeb6be6d	-0.35692158
167	0x3d1fb81c	0.03899394
168	0xbe2fe7ff	-0.17178343
169	0x3e8bab87	0.27279302
170	0x3e9cbd23	0.3061305
171	0xbec34792	-0.3814054
172	0xbd08949f	-0.03334486
173	0xbd856d40	-0.065149784
174	0xbe3f41f3	-0.18677501
175	0xbe86bbd8	-0.26315188
176	0xbe2b2621	-0.16713764
177	0x3e1bef3d	0.15227981
178	0x3dc4525c	0.09586021
179	0x3e651d20	0.22374392
180	0xbd12bf91	-0.035827223
181	0x3e345ee0	0.17614317
182	0x3d9af57d	0.075663544
183	0xbdab203d	-0.08355758
184	0xbce732eb	-0.028222522
185	0xbea661a1	-0.3249636
186	0x3b13ece0	0.0022571608
187	0xbdecf92f	-0.115709655
188	0xbe152fbd	-0.14568992
189	0xbe15323b	-0.14569943
190	0xbda49798	-0.08036727
191	0xbe8ff3b3	-0.28115615
192	0x3ce18746	0.027530324
193	0xbc27e5d9	-0.010247671
194	0xbdb42b51	-0.087973244
195	0x3ea6d515	0.32584444
196	0x3e802eac	0.25035608
197	0x3ddf5227	0.10904341
198	0xbe04c135	-0.12964328
199	0x3d32e2b3	0.04367323
200	0xbe871846	-0.26385707
201	0x3e892ef4	0.26793635
202	0x3eb7a48d	0.3586773
203	0xbd742460	-0.059605002
204	0x3e960d5f	0.29307076
205	0x3ebcabe0	0.3684988
206	0xbd0f88ed	-0.035042692
207	0xbe1222bf	-0.14271067
208	0x3c7f56b0	0.015584633
209	0x3db5d5db	0.0887868
210	0xbeacee91	-0.33775762
211	0xbd030487	-0.03198674
212	0xbe11e387	-0.14246951
213	0x3e82c02a	0.25537235
214	0xbcc10ed2	-0.023566637
215	0x3e7e092e	0.2480819
216	0x3eb1f145	0.34754387
217	0xbdde83b0	-0.10864961
218	0x3d960603	0.073253654
219	0xbd1d743b	-0.038440924
220	0xbe2b262f	-0.16713785
221	0xbe601495	-0.21882851
222	0x3c605740	0.013692677
223	0x3de431ff	0.111423485

convs.0.nn.0.bias f4 [32]
0	0xbdaaaccf	-0.08333742
1	0x3da6aac5	0.081380405
2	0x3e63b385	0.2223645
3	0x3e284fc2	0.16436675
4	0x3e30f810	0.17282128
5	0x3dc7a0bc	0.097474545
6	0xbe8c1817	-0.2736213
7	0xbe648f8c	-0.22320384
8	0xbe9730c6	-0.295294
9	0x3e7c7c19	0.24656714
10	0xbea7b035	-0.32751623
11	0xbe927ce8	-0.2861092
12	0x3e86f74e	0.26360554
13	0x3e67a9fa	0.22623435
14	0xbeb1baff	-0.3471298
15	0x3e56f5a0	0.20992136
16	0xbd8d8571	-0.069102176
17	0x3da42c74	0.08016291
18	0xbe81b8d8	-0.25336337
19	0xbd5ae5be	-0.053441755
20	0x3db2bbdc	0.087272376
21	0x3e8b6445	0.27224937
22	0x3e7706d5	0.241237
23	0xbe5660d9	-0.20935382
24	0xbe827103	-0.25476846
25	0xbcdc8e6c	-0.02692338
26	0x3e049e0f	0.1295092
27	0x3e5971fd	0.2123489
28	0xbec2afe8	-0.3802483
29	0xbd07bb25	-0.03313746
30	0x3a7ce908	0.00096477615
31	0xbe3dee49	-0.1854793

convs.0.nn.2.weight f4 [32, 32]
0	0x3e0947ce	0.13406298
1	0xbd47e934	-0.048806384
2	0xbe217c5a	-0.15770093
3	0xbdcfab3d	-0.10140083
4	0x3bbe8dd2	0.005815246
5	0xbdf70c93	-0.12062945
6	0x3d009164	0.031388655
7	0x3e3aaf14	0.1823085
8	0x3b8673d5	0.0041031637
9	0xbd6c33ab	-0.057666462
10	0x3e3b57d8	0.18295228
11	0x3ddd0758	0.10792416
12	0x3e025e48	0.12731278
13	0x3cc842cd	0.024445916
14	0x3be93431	0.0071168174
15	0xbe1047dd	-0.14089914
16	0x3b954bb0	0.004556142
17	0x3e2f50c8	0.1712066
18	0x3c1eb63f	0.009687006
19	0xbe17c2e5	-0.1482044
20	0x3d9b3e65	0.0758026
21	0x3e1c5cd4	0.15269786
22	0x3e31dbec	0.1736905
23	0x3c65fccc	0.014037322
24	0x3d2aac1d	0.041668046
25	0x3cfeb124	0.031090327
26	0xbdb0ffa9	-0.08642513
27	0xbc48d73d	-0.012258348
28	0x3e163a5c	0.146707
29	0x3cdf5527	0.027262283
30	0x3e350dc6	0.17681035
31	0xbdd025fe	-0.101634964
32	0xbc9b7770	-0.01897785
33	0x3bc8a576	0.00612324
34	0xbdcb59c5	-0.099292316
35	0x3e151172	0.14557436
36	0x3deed80a	0.116623
37	0xbdc22cd0	-0.094812036
38	0x3e10c827	0.14138852
39	0x3e31d2e1	0.173656
40	0xbde936c0	-0.11387396
41	0x3a44fd39	0.000751454
42	0x3e337bb0	0.17527652
43	0xbe06893f	-0.13138293
44	0xbcf71da0	-0.030165493
45	0xbe074ff7	-0.13214098
46	0x3df8bb15	0.12145058
47	0x3ca5ead2	0.020253573
48	0x3da597d8	0.080856025
49	0x3e0a2566	0.13490829
50	0xbca41469	-0.020029264
51	0xbe313296	-0.17304453
52	0x3c046a9f	0.008082061
53	0xbbe55cfa	-0.006999609
54	0x3d7bdd15	0.061490137
55	0x3d9c9d14	0.07647148
56	0xbd920ddf	-0.07131552
57	0xbd7209f5	-0.059091527
58	0x3dcffc7b	0.10155579
59	0x3d38efb9	0.045150492
60	0x3d15ef7c	0.036605343
61	0x3dc5d9ef	0.09660708
62	0x3da46f4c	0.08029041
63	0xbe09b195	-0.13446648
64	0x3bbbd95b	0.005732698
65	0x3c6b2c48	0.014353819
66	0xbe27133c	-0.16315931
67	0x3d308ca3	0.04310287
68	0xbc4882a4	-0.012238178
69	0x3e0a53ad	0.13508482
70	0xbe3ceade	-0.1844897
71	0x3e3118b9	0.17294587
72	0xbdc65de1	-0.09685875
73	0x3dca066f	0.09864508
74	0x3e0e01ca	0.1386787
75	0xbd616256	-0.05502542
76	0xbdc84377	-0.09778493
77	0xbcee4f18	-0.02909045
78	0xbde5051a	-0.11182614
79	0x3c3dd6b4	0.011586834
80	0x3d88e33b	0.06683966
81	0x3ce88a84	0.028386362
82	0xbdc9672f	-0.09834134
83	0x3dcb4f9d	0.099272944
84	0x3e1b57d9	0.1517023
85	0xbd84e91b	-0.06489774
86	0x3dcfac84	0.101403266
87	0xbc1cef97	-0.009578607
88	0x3da28c32	0.079368964
89	0xbdf78c60	-0.12087321
90	0xbe235095	-0.15948708
91	0xbbd395b2	-0.006457054
92	0xbe18e691	-0.14931704
93	0x3d989747	0.07450729
94	0x3e259fa8	0.16174185
95	0xbd07caef	-0.033152517
96	0xbc1887e8	-0.009309746
97	0x3d0385ff	0.03211021
98	0xbd98c52b	-0.07459482
99	0x3b2eac43	0.002665297
100	0x3d19c78e	0.037543826
101	0x3e1b0670	0.15139174
102	0xbe1e5f1f	-0.15465973
103	0x3c1f1f7b	0.009712095
104	0xbe172cc5	-0.14763172
105	0xbc9fe030	-0.01951608
106	0xbc3b838e	-0.011444939
107	0xbdaa41db	-0.08313342
108	0x3deb456c	0.114878505
109	0x3e04550a	0.12923065
110	0xbd9cc187	-0.076541
111	0xbd07e603	-0.03317834
112	0xbd8978ad	-0.0671247
113	0xbaa615df	-0.0012671313
114	0x3d8c4961	0.068499334
115	0x3e3268c3	0.17422776
116	0xbe2bf626	-0.16793117
117	0x3d912c45	0.07088522
118	0xbdd301d9	-0.10303087
119	0xbe1d8d23	-0.1538587
120	0x3e102b3d	0.14078994
121	0xbd3ac0f4	-0.04559417
122	0xbdc8d3bf	-0.09806012
123	0x3d4cb960	0.049981475
124	0xbd2973fa	-0.04137037
125	0xbe1e9f1d	-0.15490384
126	0xbdba7d86	-0.09105973
127	0xbda0941e	-0.07840751
128	0xbc260763	-0.010133597
129	0xbdeaea4d	-0.114704706
130	0xbe345e70	-0.1761415
131	0x3dc9e446	0.09857993
132	0xbe1d37d8	-0.15353334
133	0xbc58a42c	-0.013222735
134	0x3e073c5b	0.13206618
135	0xbd8362d2	-0.06415333
136	0xbe06fb8e	-0.13181898
137	0x3d475f76	0.048675023
138	0x3e1ff0f5	0.15619262
139	0xbca8bb61	-0.020597162
140	0xbb8903fe	-0.004181384
141	0x3d9ede8d	0.07757292
142	0x3c667b4b	0.014067481
143	0x3caedce0	0.021345556
144	0x3dc5f0b5	0.09665052
145	0x3db8b631	0.09019125
146	0xbe0235e1	-0.12715866
147	0xbd9039f2	-0.07042302
148	0x3ded71a7	0.11593943
149	0x3d0bc1cf	0.034120377
150	0x3d12c67e	0.03583383
151	0x3e2a38f9	0.16623296
152	0x3df87e7d	0.12133501
153	0x3d9c16dd	0.07621548
154	0x3e22441e	0.15846297
155	0xbe23bea3	-0.15990691
156	0x3c96958a	0.018381853
157	0x3d6f6ca3	0.058453213
158	0xbca1795d	-0.01971119
159	0xbda96194	-0.08270565
160	0x3d221f85	0.03958084
161	0xbe1e26e4	-0.15444523
162	0xbd924c18	-0.0714342
163	0x3dfdb5fb	0.12388226
164	0xbd5709f8	-0.05249974
165	0xbd3a4a9a	-0.0454813
166	0x3dc57fba	0.096435025
167	0xbd63a3a5	-0.055575985
168	0x3d241819	0.040062044
169	0xbe3be68c	-0.18349665
170	0x3ddb411c	0.10705778
171	0xbe0bcc47	-0.13652144
172	0x3d011c97	0.031521406
173	0xbe24532d	-0.16047354
174	0xbe0d22f6	-0.13782868
175	0x3e204b05	0.15653618
176	0xbdd11d81	-0.102107055
177	0xba7007bd	-0.00091564265
178	0xbaeb6afe	-0.0017960963
179	0x3e1f6faa	0.1556994
180	0x3d6d647e	0.057957165
181	0x3da86eca	0.08224256
182	0xbd8936fa	-0.06699939
183	0xbd4f9d15	-0.050686914
184	0x3df376f2	0.118879214
185	0x3d58854b	0.052861493
186	0x3d493a65	0.049127955
187	0xbdf0d241	-0.11758853
188	0xbe0407f8	-0.12893665
189	0x3caf4e65	0.021399686
190	0xbdf927f7	-0.12165826
191	0x3e064c13	0.13114958
192	0x3e154c79	0.14579953
193	0xbd9799b4	-0.074023634
194	0xbdcd2326	-0.1001647
195	0x3e35568f	0.177088
196	0xbdc5e8cb	-0.09663542
197	0xbe0e57a2	-0.13900617
198	0xbe146208	-0.14490521
199	0x3d1d31df	0.03837764
200	0x3ca0e8fb	0.019642344
201	0x3ddf8c83	0.10915472
202	0x3e1c33a7	0.15254079
203	0x3d52276c	0.051307127
204	0x3d17245b	0.036899906
205	0x3e22ad5b	0.15886442
206	0xbd9ac281	-0.0755663
207	0xbd242d88	-0.040082484
208	0x3e14983b	0.14511196
209	0xbd7c2266	-0.061556242
210	0x3dc8d9bf	0.09807157
211	0x3d2375ea	0.039907373
212	0x3d4e39f4	0.050348237
213	0xbd3e6a16	-0.04648789
214	0xbe06f175	-0.13178046
215	0x3e083064	0.1329971
216	0x3e1f27fd	0.15542598
217	0xbe0b2bf2	-0.13590983
218	0xbdc4e727	-0.09614401
219	0x3c4492df	0.011997907
220	0x3daacfed	0.0834044
221	0xbc3293d7	-0.010899506
222	0xbd99f289	-0.07516963
223	0x3e14070b	0.14455812
224	0xbda6ed22	-0.08150698
225	0x3e212616	0.15737185
226	0x3ba2e11d	0.0049706833
227	0x3dc49c18	0.09600085
228	0x3d1a74bc	0.037708983
229	0x3d119b36	0.03554841
230	0x3e054c11	0.13017298
231	0xbc143c25	-0.009047543
232	0x3e0532af	0.13007616
233	0x3d808f5a	0.06277342
234	0xbdcc304d	-0.0997015
235	0x3dc889ae	0.09791885
236	0xbdff294b	-0.12459048
237	0x3db6a832	0.089187995
238	0xbd15984b	-0.03652219
239	0x3d6bcb53	0.057566952
240	0xbc826840	-0.01591885
241	0x3d319d04	0.043362632
242	0xbd4e1a84	-0.050318256
243	0x3d91cb18	0.07118815
244	0x3da76f4b	0.08175524
245	0xbe2590da	-0.16168538
246	0x3e1e91b4	0.15485269
247	0xbe13b10d	-0.14423008
248	0xbd87e6cd	-0.06635819
249	0x3d93699b	0.07197877
250	0x3e23a0ae	0.15979263
251	0x3d5f4af7	0.05451485
252	0xbdc0f45d	-0.094216086
253	0x3d32701a	0.04356394
254	0xbddb4f82	-0.10708524
255	0x3da5da8e	0.080983266

convs.0.nn.2.bias f4 [32]
0	0x3dda1828	0.10649139
1	0xbce7914f	-0.02826753
2	0xbe32217d	-0.17395587
3	0xbcc773ff	-0.024347303
4	0x3c82c21c	0.0159617
5	0x3d13f392	0.03612096
6	0x3d4e9720	0.050437093
7	0xbcaac147	-0.020844115
8	0xbc4c8b66	-0.012484407
9	0xbd452bd4	-0.0481375
10	0x3d736259	0.059419964
11	0x3d3dd886	0.04634907
12	0x3d96bbf8	0.07360071
13	0xbca4702d	-0.02007302
14	0x398b7a86	0.00026603433
15	0x3de90ead	0.11379752
16	0x3cb42a37	0.021992786
17	0xbe147e12	-0.14501217
18	0x3d6f2c8b	0.05839209
19	0x3e251e54	0.1612485
20	0xbce5b54a	-0.028040547
21	0x3de94ddf	0.11391806
22	0xbe155ed7	-0.1458696
23	0xbd02292c	-0.031777546
24	0x3dd817e7	0.10551434
25	0xbdc64b45	-0.09682325
26	0xbcd9c3a8	-0.026582554
27	0xbba968e2	-0.0051699737
28	0xbd1be682	-0.038061626
29	0xbd41fa60	-0.047357917
30	0x3e1844a4	0.14869934
31	0xbd19ec15	-0.03757866

convs.1.nn.0.weight f4 [32, 32]
0	0x3e24e68a	0.16103569
1	0xbd96647f	-0.07343387
2	0xbdeeeece	-0.11666642
3	0x3d4c605c	0.049896583
4	0xbc0c9ced	-0.008582336
5	0xbdf5fe29	-0.12011368
6	0xbe236933	-0.15958099
7	0x3e0e1525	0.13875253
8	0xbdd5124e	-0.10403882
9	0x3e1b767d	0.15181918
10	0xbdfce04a	-0.12347467
11	0x3dc8a237	0.09796565
12	0xbd90ad11	-0.0706426
13	0x3dfd9913	0.12382712
14	0x3e37263a	0.17885676
15	0x3e0dd69d	0.138514
16	0xbdab3ce4	-0.08361223
17	0xbd1d5e55	-0.03842004
18	0xbe027652	-0.12740448
19	0xbcb8cbc7	-0.022558106
20	0x3d3bfb27	0.045893814
21	0x3dd57729	0.104231186
22	0xbda93bf8	-0.08263391
23	0x3dc67996	0.096911594
24	0xbd2739a4	-0.040826455
25	0x3cc790ca	0.024361033
26	0xbde813f6	-0.11331932
27	0x3d456d68	0.04820004
28	0x3cfdb66a	0.03097077
29	0x3dfe16e5	0.124067105
30	0x3e0b176d	0.13583155
31	0x3e1e3020	0.15448046
32	0x3dde6caf	0.108605735
33	0x3bbb87d8	0.005722981
34	0x3deaa924	0.11458042
35	0x3e023d53	0.12718706
36	0x3e040370	0.12891936
37	0x3dd8030a	0.10547455
38	0xbd3eda5e	-0.04659497
39	0x3c3d0d29	0.011538782
40	0xbd81ce98	-0.06338233
41	0x3db6d483	0.08927252
42	0xbd2e9854	-0.04262574
43	0xbe3f779e	-0.18697974
44	0xbd87225c	-0.065983504
45	0xbe0f22d7	-0.13978134
46	0x3ccd480b	0.025058767
47	0x3e0e1cb5	0.13878138
48	0xbca8c899	-0.020603465
49	0xbdad1f62	-0.084532514
50	0xbd92da61	-0.07170559
51	0xbe1dea99	-0.15421523
52	0x3da9d4ce	0.082925424
53	0x3ddd429c	0.1080372
54	0xbe0a3b62	-0.13499215
55	0x3e044b33	0.12919311
56	0x3d4e7f48	0.050414354
57	0xbe1873da	-0.14887944
58	0x3dc91e66	0.09820251
59	0xbcbd33de	-0.023096021
60	0xbdcd71eb	-0.10031494
61	0x3d979d4a	0.074030474
62	0xbde14abd	-0.11000583
63	0x3ca066c1	0.019580247
64	0x3e218840	0.15774632
65	0x3dee775d	0.116438605
66	0x3df25c47	0.11834007
67	0xbdaff43f	-0.08591508
68	0xbdd565f2	-0.10419835
69	0x3d8f6a65	0.07002715
70	0x3b8c2570	0.004276924
71	0x3e06ddd1	0.13170554
72	0x3e12d49c	0.14338917
73	0x3e101e3d	0.14074035
74	0x3d524524	0.05133547
75	0xbde15b86	-0.11003785
76	0x3c1126c6	0.008859342
77	0x3cdce370	0.02696392
78	0xbdd1dff4	-0.10247794
79	0xbc84a8c9	-0.016193764
80	0x3ce9847b	0.028505554
81	0xbdf4a7fa	-0.119461015
82	0xbbd5f355	-0.0065292516
83	0xbe1e071c	-0.154324
84	0x3da90728	0.08253318
85	0xbdc7bf8b	-0.09753331
86	0x3d8bdc96	0.06829183
87	0xbb84b69a	-0.004050088
88	0xbdd41210	-0.10355008
89	0x3d553968	0.0520567
90	0xbdff1ae4	-0.12456301
91	0x3dc2165a	0.094769195
92	0x3c91f8f9	0.017818915
93	0x3d332302	0.043734558
94	0x3ddaac52	0.10677399
95	0x3dfa095a	0.12208815
96	0x3e07d6f9	0.132656
97	0x3dfee13f	0.12445306
98	0xbcc69734	-0.024242021
99	0x3c72df02	0.014823677
100	0xbe25bddf	-0.16185711
101	0x3d4b4119	0.04962263
102	0x3b8bf2e2	0.0042708972
103	0x3e092bef	0.13395666
104	0x3df90b6a	0.1216038
105	0xbcdfd56b	-0.027323445
106	0xbdc5256b	-0.096262775
107	0x3df94473	0.12171259
108	0x3d0833a6	0.03325238
109	0xbdafd313	-0.08585181
110	0xbde623f3	-0.112373255
111	0xbe28ddc3	-0.16490845
112	0x3daff273	0.085911654
113	0x3d8b2bd9	0.06795473
114	0x3d1ad0e0	0.037796855
115	0x3dc027bb	0.09382578
116	0xbddbaee9	-0.10726721
117	0x3e31c09f	0.17358635
118	0x3db94f75	0.09048358
119	0x3da09891	0.078416
120	0xbcfb15c8	-0.030650035
121	0xbe1bd133	-0.15216522
122	0x3d39c292	0.045351572
123	0x3cdb5e8c	0.026778482
124	0x3cd61939	0.026135074
125	0x3db53903	0.08848765
126	0xbdb8f515	-0.09031121
127	0x3e298479	0.1655444
128	0x3bb2fc9a	0.0054622414
129	0xbe1c0668	-0.15236819
130	0xbd9937a8	-0.07481319
131	0x3d4a1034	0.04933186
132	0x3e059ced	0.13048144
133	0xbd8c778f	-0.068587415
134	0xbda7da6f	-0.0819596
135	0xbc818740	-0.015811563
136	0xbe30b1f8	-0.1725539
137	0xbd7bfb1b	-0.06151877
138	0xbde31620	-0.110882044
139	0x3e229ef4	0.15880948
140	0xbde8e96b	-0.11372646
141	0xbcab941e	-0.020944651
142	0x3e0f68e8	0.14004862
143	0xbd316579	-0.043309662
144	0x3e19168c	0.14950007
145	0xbdad3cd4	-0.08458868
146	0xbcba7826	-0.02276237
147	0x3c63dcb3	0.013907599
148	0xbe0795e4	-0.13240772
149	0x3dc9beb4	0.09850827
150	0xbbeb4f4e	-0.0071810847
151	0xbe3566b1	-0.17714955
152	0x3d847019	0.064666934
153	0xbd853926	-0.06505041
154	0xbdb99ea0	-0.090634584
155	0x3d93d5c9	0.07218511
156	0x3d53ff75	0.051757295
157	0xbdd1228e	-0.10211669
158	0x3d86f5bf	0.06589841
159	0x3cf222c6	0.029557597
160	0xbd3db272	-0.046312757
161	0x3de25b7b	0.11052605
162	0x3bc956b2	0.006144368
163	0x3db18b26	0.086691186
164	0xbd075747	-0.03304222
165	0x3d79defe	0.061003678
166	0x3d1539b3	0.03643198
167	0x3e02b013	0.1276248
168	0xbe246591	-0.1605437
169	0xbcf2775d	-0.029597932
170	0x3dd6ba24	0.10484722
171	0xbd9136ee	-0.07090555
172	0xbe08eb41	-0.13370992
173	0x3ddaac17	0.10677355
174	0x3dcdfb97	0.100577526
175	0x3e1ba848	0.15200913
176	0x3da0d57c	0.07853219
177	0xbd1892e4	-0.03724946
178	0xbe0ec135	-0.1394089
179	0xbdd410fa	-0.103548005
180	0x3d354dcf	0.044263657
181	0xbd1998cd	-0.037499238
182	0x3e35b4f5	0.17744811
183	0x3de1f9dd	0.11033986
184	0x3cc038e8	0.023464635
185	0x3e32fbff	0.17478941
186	0x3cc834fd	0.02443933
187	0x3d41985b	0.047264438
188	0x3e3c00c4	0.18359667
189	0xbc39db10	-0.0113437325
190	0x3d557d37	0.052121367
191	0xb9f38938	-0.00046450808
192	0x3e284ee6	0.16436347
193	0x3db56d7b	0.08858772
194	0xbcce203f	-0.02516186
195	0xbe1a89d3	-0.15091638
196	0x3cc31f90	0.023818761
197	0x3b2c45ba	0.0026286677
198	0x3da27ce9	0.07933981
199	0x3d727489	0.059193168
200	0xbe233597	-0.15938412
201	0xbe0bb2c6	-0.13642415
202	0xbd31f533	-0.04344673
203	0xbe1a880f	-0.15090965
204	0x3c2a1b45	0.010382478
205	0x3dc18de8	0.094508946
206	0x3e2eee57	0.17083107
207	0xbbe8646c	-0.0070920493
208	0xbe09cb80	-0.13456535
209	0x3dedb1c3	0.11606171
210	0xbe0faab4	-0.14029962
211	0x3dfd2211	0.12360013
212	0xbd9f9cfe	-0.07793616
213	0xbdae781a	-0.08519001
214	0x3de68b54	0.112570435
215	0x3d7abebe	0.061217062
216	0xbd5beaac	-0.053690597
217	0x3ddaf8f1	0.10692013
218	0xbe1c4ac4	-0.15262896
219	0xbd48e072	-0.049042173
220	0xbdbed432	-0.09317817
221	0xbe04ab8d	-0.12956066
222	0xbe35744f	-0.1772015
223	0xbde1788d	-0.11009321
224	0x3d5626c1	0.052283052
225	0xbde14c6a	-0.11000903
226	0x3e07e48c	0.13270777
227	0xbca35df4	-0.019942261
228	0x3cec1549	0.028818743
229	0x3e11decd	0.14245148
230	0x3cada4c0	0.021196723
231	0xbdf707a7	-0.120620064
232	0xbd28c3f4	-0.0412025
233	0xbc912d62	-0.017721836
234	0xbd7875b3	-0.06065912
235	0x3d335b83	0.043788444
236	0xbe1bf63c	-0.1523065
237	0x3d3574f4	0.04430099
238	0xbdd3ecc3	-0.10347893
239	0x3dfa73f1	0.12229145
240	0xbb78216a	-0.0037861713
241	0xbe0f3c8f	-0.13987945
242	0xbde6f30a	-0.11276825
243	0xbe0e87fb	-0.1391906
244	0x3bf3960b	0.007433658
245	0x3c82363f	0.015895007
246	0xbd931d36	-0.07183306
247	0xbdb0b516	-0.086282894
248	0xbdef34f2	-0.116800204
249	0xbdd5dfd4	-0.104430825
250	0xbd56de80	-0.052458286
251	0xbdc245bc	-0.09485957
252	0x3da37bc7	0.07982593
253	0x3db07665	0.08616332
254	0xbd58b785	-0.052909393
255	0x3caaccd4	0.020849623

convs.1.nn.0.bias f4 [32]
0	0xbd2fc984	-0.04291679
1	0x3d8f1181	0.069857605
2	0x3ccf042e	0.025270548
3	0x3d127e5c	0.035765037
4	0x3e04da2a	0.12973848
5	0xbddb3513	-0.107034825
6	0xbc734d2f	-0.014849945
7	0x3e0774be	0.13228127
8	0xbce44305	-0.027863989
9	0x3c9757e7	0.018474532
10	0x3dcbe5bf	0.0995593
11	0xbb31e4bf	-0.00271444
12	0xbcc3a029	-0.023880081
13	0x3dc41928	0.09575111
14	0x3d96a65a	0.07355948
15	0xbe3e43c9	-0.18580545
16	0x3da0644a	0.078316286
17	0xbcebc8fb	-0.028782358
18	0x3d079789	0.0331035
19	0xbaa59fec	-0.0012636161
20	0x3dece9be	0.1156802
21	0xbe2c4a84	-0.168253
22	0x3d88cbba	0.06679483
23	0x3dd7a649	0.10529763
24	0xbdff2dd1	-0.12459911
25	0xbcfb72fa	-0.030694474
26	0x3db22cc7	0.08699947
27	0x3d134f4f	0.035964306
28	0x3dde9d04	0.10869792
29	0x3e0c77e3	0.13717608
30	0x3e15c24f	0.14624904
31	0x3e2ef51c	0.1708569

convs.1.nn.2.weight f4 [32, 32]
0	0x3e231ca1	0.1592889
1	0xbcdb64af	-0.026781408
2	0xbd3c565c	-0.045980796
3	0xbe016c65	-0.12639005
4	0xbd14a163	-0.036286723
5	0x3d3d4f7d	0.046218384
6	0x3db7cedb	0.089750014
7	0x3c686dc3	0.0141863255
8	0x3dc9b9a4	0.09849861
9	0x3e284086	0.16430864
10	0x3df18111	0.117921956
11	0x3ce5a4a0	0.0280326
12	0x3aa136f0	0.0012299698
13	0xbdff3951	-0.12462104
14	0x3dc6eb93	0.09712901
15	0xbd9374b4	-0.07199994
16	0xbb7f2155	-0.003892978
17	0x3e0e9e5c	0.13927597
18	0x3e205538	0.15657508
19	0xbbed4170	-0.007240467
20	0x3deeea7d	0.11665819
21	0x3e073b30	0.13206172
22	0xbde23b56	-0.11046474
23	0xbd39f850	-0.045402825
24	0x3d908e43	0.07058384
25	0x3e010f3a	0.12603465
26	0xbe106b3d	-0.14103408
27	0xbdb1883f	-0.08668565
28	0x3e0ef968	0.13962328
29	0x3e0b9aa6	0.13633212
30	0xbda115ec	-0.078655094
31	0x3dbc38cd	0.091905214
32	0x3d221ab7	0.03957626
33	0xbdaa9324	-0.08328846
34	0x3d961936	0.07329027
35	0x3e0e5165	0.13898237
36	0xbdee20b6	-0.11627333
37	0xbdf882da	-0.12134333
38	0x3df89bf2	0.12139119
39	0xbac16e8c	-0.0014757677
40	0x3dbf08e7	0.0932787
41	0xbe144ec7	-0.14483176
42	0xbe19c8c8	-0.15017998
43	0x3df0ab62	0.11751439
44	0xb88712f1	-6.44083e-05
45	0xbc16bbdc	-0.009200063
46	0xbdb3718b	-0.08761891
47	0x3dca2be8	0.09871656
48	0x3ccc0e17	0.024909062
49	0xbe3f7c06	-0.18699655
50	0x3dbe6bec	0.09297928
51	0x3c64357c	0.013928767
52	0xbda3adf2	-0.07992162
53	0x3def7571	0.11692322
54	0x3d903626	0.07041578
55	0x3d82ec98	0.06392783
56	0xbe114ab2	-0.1418865
57	0x3dce64bd	0.10077808
58	0xbe12dc7d	-0.14341922
59	0xbd84598d	-0.06462393
60	0x3d70b8b1	0.058769885
61	0xbdc83769	-0.09776194
62	0x3dc35a95	0.095387615
63	0x3dbc3ba5	0.09191064
64	0x3d28503e	0.04109215
65	0x3e026550	0.1273396
66	0x3c8342db	0.01602309
67	0xbd542f8d	-0.05180316
68	0x3dee7724	0.11643818
69	0x3c273abb	0.0102068735
70	0xbdbababc	-0.09117648
71	0xbd8eafc9	-0.06967122
72	0x3d8153a8	0.06314784
73	0xbcb21357	-0.021737738
74	0xbc97abea	-0.018514592
75	0x3d9f016d	0.07763944
76	0xbe25f1cc	-0.1620552
77	0xbd4d53a7	-0.050128605
78	0xbe21fe24	-0.15819603
79	0x3c38ddbf	0.011283337
80	0x3d804789	0.06263644
81	0x3ce5b248	0.028039113
82	0x3d35c133	0.044373702
83	0x3d5affd9	0.05346665
84	0x3d5adaa3	0.053431164
85	0x3d6e3cd7	0.05816349
86	0xbd77f839	-0.060539458
87	0x3e371ddd	0.17882486
88	0xbd859ae6	-0.06523685
89	0x3d8cebd3	0.068809174
90	0x3e392cc1	0.18083479
91	0x3d62ad62	0.055341132
92	0xbdcdb302	-0.10043909
93	0xbd2e3fa8	-0.042541176
94	0xbe1652aa	-0.14679971
95	0xbdc73c2f	-0.09728276
96	0x3c4c1a1d	0.012457398
97	0x3e1247b3	0.14285164
98	0xbc8637cc	-0.016384028
99	0xb9806e47	-0.00024496226
100	0x3c8dd0c6	0.017311465
101	0xbdb8be56	-0.09020679
102	0xbd9c1019	-0.07620258
103	0xbe100a77	-0.14066492
104	0xbc2fd649	-0.010732242
105	0x3d513ae1	0.051081542
106	0x3e03fe80	0.12890053
107	0xbe2da145	-0.1695605
108	0x3db71446	0.08939414
109	0xbe09968a	-0.13436332
110	0x3dad6898	0.08467215
111	0xbe0366e2	-0.12832215
112	0xbdd7c0b7	-0.10534804
113	0xbe109f50	-0.14123273
114	0x3e228f30	0.15874934
115	0xbe0b84b5	-0.13624842
116	0x3e02e9b8	0.12784469
117	0x3e1e506e	0.15460369
118	0xbde09edb	-0.10967799
119	0x3e10c456	0.14137396
120	0x3e21f435	0.15815814
121	0xbe345f2a	-0.17614427
122	0xbddcde16	-0.10784547
123	0x3e1a0f66	0.15044937
124	0xbdd722d5	-0.105046906
125	0x3de1fcd9	0.11034555
126	0xbdc8a1eb	-0.097965084
127	0xbc9a96e2	-0.018870775
128	0xbde56d26	-0.11202459
129	0x3d06d9cc	0.03292255
130	0xbdcf313a	-0.10116811
131	0xbdb617dc	-0.088912696
132	0x3cf56bb7	0.029958589
133	0xbc2cf5da	-0.010556662
134	0xbbd1ffcc	-0.006408667
135	0xbdb2d151	-0.0873133
136	0x3dca5658	0.0987975
137	0x3e327d72	0.17430666
138	0x3de474b3	0.11155071
139	0xbe1173c8	-0.14204323
140	0xbe0799a9	-0.1324221
141	0xbde92082	-0.113831535
142	0x3b5b78a1	0.0033488648
143	0xbc9125ec	-0.017718278
144	0x3cc0dd24	0.023542948
145	0x3d528ea5	0.051405568
146	0x3dd9c3e0	0.10633063
147	0x3dc80387	0.09766298
148	0x3d487f2a	0.048949398
149	0xbd83b185	-0.064303435
150	0xbc9642ab	-0.018342337
151	0xbd823d51	-0.063593514
152	0xbdf4a785	-0.11946014
153	0xbd03a217	-0.032137003
154	0xbe2129f6	-0.15738663
155	0x3e04d3e5	0.12971456
156	0x3e08bf22	0.13354161
157	0x3c96f66c	0.01842805
158	0xbde83282	-0.113377586
159	0xbd4e21b6	-0.050325118
160	0x3d4821d9	0.048860405
161	0x3e19a1d7	0.15003143
162	0x3e14d05f	0.14532612
163	0x3d6a2cb5	0.057171542
164	0x3d9ef529	0.07761604
165	0xbd24d3a8	-0.040240914
166	0xbddde1d3	-0.10834088
167	0xbd9f29b7	-0.07771628
168	0xbd8e78fd	-0.069566704
169	0x3d047e73	0.032347154
170	0x3c796096	0.015220782
171	0x3dec296b	0.11531337
172	0x3e2bde5c	0.16784042
173	0xbdd45c9b	-0.103692256
174	0x3dc8a776	0.09797566
175	0xbd450508	-0.0481005
176	0x3dd438b0	0.10362375
177	0xbe2144d9	-0.1574892
178	0xbd6337fa	-0.055473305
179	0x3de216c8	0.110395014
180	0xbd13fec6	-0.036131643
181	0xbdb9fc2a	-0.090812996
182	0x3e0b5ccd	0.1360962
183	0xbde8bdc6	-0.113643214
184	0xbddc09cd	-0.10744057
185	0xbc2e3891	-0.010633604
186	0x3dbdad01	0.092615135
187	0xbdfb98e0	-0.12285018
188	0x3e022093	0.12707739
189	0xbe2596c0	-0.16170788
190	0x3e11314d	0.14178963
191	0xbe09e5ba	-0.1346654
192	0x3c850af9	0.016240584
193	0xbdf20101	-0.11816598
194	0xbe0e2a5f	-0.13883351
195	0x3e32664c	0.17421836
196	0x3d96ccf6	0.07363312
197	0xbe1072ed	-0.1410634
198	0xbe20198d	-0.15634747
199	0xbc1ad267	-0.009449578
200	0x3dfb1c8a	0.12261303
201	0x3db8f42b	0.09030946
202	0x3b8f8c86	0.0043807654
203	0x3cf8bfea	0.03036495
204	0xbe0d6c6b	-0.1381089
205	0x3dd930ae	0.10604988
206	0xbc9a2c64	-0.018819995
207	0xbe0f4d83	-0.13994412
208	0xbe09a26e	-0.13440868
209	0xbd206c0d	-0.039165545
210	0xbdc11ade	-0.09428953
211	0xbd8a8599	-0.06763763
212	0x3e361ad6	0.17783675
213	0x3c834fcd	0.016029263
214	0xbdbd241f	-0.09235405
215	0x3e1777bf	0.14791773
216	0x3e1f83a6	0.15577564
217	0x3c00d767	0.007863856
218	0x3bb99c63	0.0056643947
219	0x3d1e8775	0.0387034
220	0xbd2f333b	-0.042773467
221	0x3d0a1e5b	0.033720355
222	0x3d7348df	0.059395667
223	0x3e130023	0.14355521
224	0x3da58c34	0.08083382
225	0x3d250f05	0.040297527
226	0xbc49a353	-0.012307006
227	0x3e0b88f0	0.13626456
228	0x3d8f3234	0.06991997
229	0x3d4dd760	0.050254226
230	0x3e015cf8	0.12633121
231	0x3d34f91d	0.044182885
232	0xbd541576	-0.05177828
233	0x3d56aa54	0.05240853
234	0xbdacacf7	-0.08431428
235	0x3de1b505	0.11020855
236	0xbd5b6236	-0.053560458
237	0x3d2a4386	0.0415683
238	0x3d785d11	0.06063563
239	0xbe030659	-0.1279539
240	0xbe0c6e68	-0.13713992
241	0x3e06d3b2	0.13166693
242	0xbe388ca3	-0.18022399
243	0xbd54278f	-0.05179554
244	0x3dd187ac	0.102309555
245	0x3d4b7c00	0.049678802
246	0x3e305e64	0.17223507
247	0xbe34374b	-0.17599218
248	0x3d8b13a4	0.067908555
249	0xbd8af940	-0.06785822
250	0x3d93ff49	0.07226426
251	0x3df29d84	0.1184645
252	0x3e022713	0.12710218
253	0xbe2ddd2a	-0.16978899
254	0xbd737038	-0.059433192
255	0x3dfcb074	0.12338343

convs.1.nn.2.bias f4 [32]
0	0xbc37cc01	-0.011218072
1	0xbe087a00	-0.1332779
2	0x3d4d7a51	0.05016548
3	0x3b340822	0.0027470668
4	0x3cf0f331	0.029412838
5	0xbde88623	-0.113537095
6	0x3c49b919	0.012312197
7	0xbdeb961c	-0.115032405
8	0x3e2aebc1	0.16691495
9	0xbe07cdfa	-0.13262168
10	0xbe15b13a	-0.14618388
11	0x3d9d855f	0.07691454
12	0x3c68416a	0.014175752
13	0xbd2b47a3	-0.041816365
14	0x3dba8808	0.09107977
15	0x3df60c8b	0.12014111
16	0x3e17bd35	0.1481827
17	0xbc825b76	-0.015912753
18	0xbc19e5c4	-0.009393159
19	0x3dd945c0	0.10609007
20	0x3e3420a7	0.17590581
21	0xbd06baf0	-0.03289312
22	0xbc959843	-0.01826108
23	0xbc958e50	-0.018256336
24	0x3c89031c	0.016725115
25	0xbdf3593f	-0.11882257
26	0x3e21df47	0.1580783
27	0xbc0cb681	-0.008588434
28	0x3d8e45d4	0.069469124
29	0x3e2776c5	0.163539
30	0x3db653f1	0.08902729
31	0xbd8d3dea	-0.06896575

convs.2.nn.0.weight f4 [32, 32]
0	0xbe2184ca	-0.15773311
1	0xbc0a5b32	-0.008444594
2	0x3e3e9872	0.18612841
3	0x3e360cdf	0.17778347
4	0xbd5d01d4	-0.05395682
5	0xbb2c6567	-0.0026305558
6	0xbdf82e9b	-0.12118264
7	0x3b74ad09	0.0037334582
8	0x3dc82654	0.097729355
9	0x3c609f91	0.013709919
10	0xbd7c738b	-0.061633628
11	0xbe4060c4	-0.18786913
12	0xb90a91c2	-0.00013215005
13	0xbe1c58e6	-0.15268287
14	0x3d8d7df4	0.06908789
15	0xbe1a29f7	-0.15055071
16	0x3ddd1c1b	0.10796376
17	0xbe2cf2ca	-0.16889492
18	0x3cb44f27	0.022010399
19	0x3d696865	0.056984324
20	0x3e295367	0.16535722
21	0x3e17ff93	0.14843588
22	0xbb4fc583	-0.003170342
23	0x3e01359d	0.12618108
24	0xbcd488d0	-0.025944144
25	0x3dc7abbd	0.09749553
26	0x3e04297e	0.12906453
27	0xbdb52dcb	-0.08846625
28	0x3dad93b6	0.08475439
29	0xbd1038e2	-0.035210498
30	0x3d9e3fa0	0.07726979
31	0x3e159b1b	0.1460995
32	0xbe30eea9	-0.17278542
33	0xbddb07a2	-0.10694815
34	0xbe1c82f3	-0.15284328
35	0xbe014870	-0.12625289
36	0x3dfc734e	0.1232668
37	0x3da0f7bd	0.07859752
38	0xbdd20de0	-0.10256553
39	0x3d8072b3	0.06271877
40	0x3e13bfd3	0.14428644
41	0xbde858ca	-0.1134506
42	0x3d97cdf7	0.074123316
43	0xbdaf07e2	-0.085464254
44	0x3d154bfc	0.036449417
45	0xbe20a906	-0.15689477
46	0xbda3a6a4	-0.079907686
47	0x3d115132	0.035477825
48	0xbe05475d	-0.13015504
49	0xbda216d6	-0.07914512
50	0x3db78855	0.0896155
51	0xbdc44d29	-0.0958503
52	0x3e094f80	0.13409233
53	0x3d3fade7	0.046796706
54	0x3d868bf3	0.06569662
55	0x3da04cc1	0.0782714
56	0xbd84a621	-0.06476999
57	0xbe1106cd	-0.1416275
58	0xbe13caed	-0.14432879
59	0xbe101e83	-0.1407414
60	0xbdb5a95f	-0.088701956
61	0x3d474d5d	0.048657764
62	0xbe0c7970	-0.137182
63	0xbdefccd8	-0.11708993
64	0x3d5d5a08	0.05404094
65	0xbc5f1a02	-0.013617041
66	0x3dd02ca6	0.10164766
67	0x3d6597ff	0.056053158
68	0xbbc6b3f9	-0.006063935
69	0xbe16ae8b	-0.1471502
70	0x3dbfe588	0.093699515
71	0x3d4a5cba	0.049404837
72	0xbd830e08	-0.063991606
73	0x3d531067	0.051529314
74	0x3e10dd1c	0.14146847
75	0xbc501af0	-0.012701735
76	0x3c8d460c	0.017245315
77	0xbbf12982	-0.0073596844
78	0x3d93536e	0.07193647
79	0xbdf504b7	-0.1196379
80	0x3d388a00	0.045053482
81	0xbdf498f8	-0.11943239
82	0xbe044771	-0.12917878
83	0x3e16d453	0.14729433
84	0x3e0ca47f	0.13734625
85	0x3e25f55e	0.16206881
86	0xbdf429b0	-0.11922014
87	0x3e14f287	0.14545642
88	0xbe055f68	-0.13024676
89	0xbdbb3733	-0.09141388
90	0x3ceb0419	0.028688477
91	0x3dd4e0dc	0.10394451
92	0xbe349126	-0.17633495
93	0x3e10ab76	0.14127907
94	0xbcbf392f	-0.023342697
95	0x3d7c1a12	0.0615483
96	0xb9d8c3e5	-0.00041344683
97	0x3e25f2b4	0.16205865
98	0xbbe22419	-0.006901276
99	0x3bdb546b	0.006693413
100	0xbd5cd9ce	-0.053918652
101	0xbdb20c0b	-0.08693703
102	0x3dc5cf84	0.09658721
103	0xbd63e42f	-0.055637535
104	0xbd8d74c9	-0.069070406
105	0x3d77fd8e	0.060544543
106	0xbe1c930b	-0.15290467
107	0x3dce11c9	0.10061986
108	0x3df7d07e	0.121003136
109	0x3e1c1b51	0.15244795
110	0xbcd32cb0	-0.025778145
111	0xbdbff572	-0.09372987
112	0x3e04b0ea	0.12958112
113	0x3de3df67	0.11126595
114	0x3e225b62	0.15855172
115	0xbe0cef91	-0.13763262
116	0xbdedc293	-0.11609378
117	0xbe290e8f	-0.1650946
118	0xbde26c0c	-0.110557646
119	0x3e12cb7f	0.1433544
120	0xbe3393c1	-0.17536832
121	0x3da80ec7	0.082059436
122	0xbcce6bdb	-0.025197914
123	0x3e276e6f	0.16350721
124	0x3e2ee69e	0.17080161
125	0x3ccaee0e	0.024771716
126	0xbd2aeef9	-0.04173181
127	0x3dcf8f99	0.10134811
128	0x3dd9aaf4	0.1062831
129	0xbd889118	-0.066682994
130	0xbe2f3913	-0.17111616
131	0x3b5de9f2	0.0033861366
132	0xbd97dc7c	-0.07415101
133	0xbdd151e7	-0.102207
134	0x3ae1cd35	0.0017227294
135	0x3dd6b4c4	0.10483697
136	0xbe42c83d	-0.19021697
137	0x3da37c10	0.079826474
138	0xbba16d2c	-0.0049263444
139	0xbbbd2d74	-0.0057732407
140	0x3e1cc75a	0.15310422
141	0xbc40a380	-0.011757731
142	0xbdbfb971	-0.09361542
143	0xbcc59039	-0.024116622
144	0xbd3d2fc4	-0.04618813
145	0xbe15a996	-0.14615473
146	0xbe0c7f8b	-0.13720529
147	0x3d6a2e3e	0.057173006
148	0xbe0bd2a0	-0.13654566
149	0xbd8181c6	-0.063235804
150	0x3e0646fe	0.13113019
151	0x3a802854	0.0009777644
152	0xbd4c9a1c	-0.049951658
153	0xbd867e05	-0.06567005
154	0xbd72c69a	-0.059271432
155	0xbe140ebf	-0.1445875
156	0xbe0d6035	-0.13806231
157	0xbc6d85c0	-0.0144972205
158	0x3d6863b2	0.0567357
159	0x3dd3519d	0.10318301
160	0xbb98ef8f	-0.0046672295
161	0xbe016b89	-0.12638678
162	0x3d74665b	0.059667926
163	0xbe3b000e	-0.1826174
164	0x3d07bf40	0.033141375
165	0x3db676a0	0.08909345
166	0xbd425031	-0.047439758
167	0x3d973776	0.07383625
168	0xbe32debd	-0.1746778
169	0xbda24f56	-0.079252884
170	0x3dbbf388	0.09177309
171	0x3e39d8cc	0.18149108
172	0x3dfe8842	0.12428333
173	0x3d09292c	0.03348653
174	0xbe31567f	-0.17318152
175	0xbcca722c	-0.024712645
176	0xbe102380	-0.14076042
177	0xbe0c7bc5	-0.1371909
178	0xbd9a5aa9	-0.07536823
179	0xbd79bf43	-0.060973417
180	0x3e1e0953	0.15433244
181	0xbe29dfe8	-0.1658932
182	0x3df433ec	0.11923966
183	0x3da1a29a	0.07892342
184	0xbdfd5c37	-0.12371104
185	0xbcaabef2	-0.020843003
186	0xbdfffa66	-0.124989316
187	0x3ca716d2	0.020396624
188	0x3d6b571e	0.05745613
189	0xbdcdd20c	-0.10049829
190	0x3e2b176a	0.1670815
191	0xbde132b0	-0.10995996
192	0xbd044985	-0.032296676
193	0xbaf5d527	-0.0018755541
194	0xbde1a7dc	-0.11018345
195	0xbca524e5	-0.020159194
196	0xbdf3c042	-0.11901905
197	0x3b821d3e	0.003970771
198	0x3cd2b521	0.025721135
199	0xbe2235ec	-0.15840882
200	0x3e334257	0.17505775
201	0xb944b3b6	-0.00018758964
202	0x3e28a883	0.16470532
203	0x3b4f8de9	0.0031670278
204	0xbda222e9	-0.07916815
205	0xbd8f2b05	-0.06990627
206	0x3be9a389	0.0071300906
207	0xbd28762a	-0.041128315
208	0x3d2be963	0.04197062
209	0xbd1cc590	-0.038274348
210	0xbdbcbd7a	-0.09215827
211	0x3d577953	0.05260594
212	0x3e3be7a1	0.18350078
213	0xbcfb38f1	-0.0306668
214	0x3d3780e7	0.044800665
215	0xbdf7598b	-0.12077626
216	0xbdd04e6b	-0.10171207
217	0xbe43d2aa	-0.1912333
218	0xbdc197cf	-0.09452783
219	0x3daee14e	0.08539067
220	0x3e209e06	0.15685281
221	0x3e48f4b4	0.19624597
222	0xbb8ae16f	-0.0042382996
223	0xbdc55f29	-0.09637291
224	0x3a24db20	0.00062887557
225	0x3d8415a5	0.06449441
226	0x3dc08a9f	0.0940144
227	0xbd2af4b4	-0.041737273
228	0xbd43498b	-0.047677558
229	0xbe2efb0d	-0.17087956
230	0x3d7139fb	0.058893185
231	0x3b997e8e	0.004684276
232	0xbdf3ab38	-0.11897892
233	0x3c029f5c	0.007972565
234	0x3d1f6164	0.03891124
235	0xbe08001d	-0.13281293
236	0x3e200b67	0.1562935
237	0xbdedb501	-0.116067894
238	0x3dcf4c4c	0.10121974
239	0xbd4249e7	-0.04743376
240	0xbdef0ca8	-0.11672336
241	0xbd8987f0	-0.06715381
242	0xbc8b1960	-0.016979873
243	0xbd56b065	-0.052414317
244	0x3ddb5355	0.10709254
245	0xbe32f04f	-0.17474483
246	0xbdcd41a7	-0.10022288
247	0xbcc46560	-0.02397412
248	0xbe0423a7	-0.12904225
249	0xbddcf382	-0.10788633
250	0xbe2f68fa	-0.17129889
251	0x3d8f8fb6	0.070098326
252	0xbd96990a	-0.07353409
253	0x3df5ed02	0.12008096
254	0x3e25b766	0.16183242
255	0xbe0856b6	-0.13314328

convs.2.nn.0.bias f4 [32]
0	0xbd8889a4	-0.06666878
1	0x3e0fa10a	0.14026275
2	0xbdff9e5d	-0.12481377
3	0xbcb51c24	-0.022108145
4	0x3e3b67af	0.18301271
5	0x3df825f2	0.121166125
6	0xbd92b620	-0.07163644
7	0xbd256a6a	-0.040384687
8	0x3be2cfa7	0.0069217267
9	0xbe256ae9	-0.16154064
10	0xbe31396c	-0.17307061
11	0x3df63fd7	0.12023895
12	0x3e1ee1d6	0.15515837
13	0xbcad9ea8	-0.021193817
14	0xbe129b58	-0.14317071
15	0x3dc31eea	0.09527381
16	0x3dcd8797	0.10035627
17	0x3d8f08f0	0.069841266
18	0x3d61dbed	0.05514138
19	0x3db75851	0.08952392
20	0xbd9d6668	-0.07685548
21	0x3e2e5f1c	0.17028469
22	0xbca02635	-0.019549469
23	0xbabe74d7	-0.0014530671
24	0xbd0b24a9	-0.03397051
25	0x3d8c41f1	0.06848515
26	0xbdc3eabe	-0.09566258
27	0x3df35352	0.118811265
28	0xbd9b79fa	-0.075916246
29	0xbe41963f	-0.1890497
30	0xbd6a3277	-0.057177033
31	0x3dd5e5c4	0.10444215

convs.2.nn.2.weight f4 [32, 32]
0	0x3e142e8c	0.14470881
1	0xbe22586a	-0.1585404
2	0x3e3231ad	0.17401762
3	0xbe3018fc	-0.17197031
4	0x3e0cd3a4	0.1375261
5	0xbcb75d01	-0.022383215
6	0xbe05f7ee	-0.13082859
7	0xbe0c7682	-0.13717082
8	0x3da283f0	0.07935321
9	0x3d52877d	0.051398743
10	0x3dca94dc	0.09891674
11	0xbe2e16b9	-0.17000856
12	0xbd70b123	-0.05876268
13	0x3e1fbc48	0.15599167
14	0x3dfd645c	0.12372658
15	0x3d37f57f	0.044911858
16	0xbdf326a0	-0.118726015
17	0xbe0df341	-0.13862325
18	0xbda4c16f	-0.08044707
19	0x3dae94a9	0.085244484
20	0x3e3adf62	0.18249276
21	0x3c7fc2ad	0.015610379
22	0xbd05bd5b	-0.032651287
23	0x3d94f876	0.07273953
24	0xbe277972	-0.16354921
25	0x3dfc83a8	0.12329799
26	0xbe1b76d7	-0.15182053
27	0xbde617c3	-0.11235001
28	0xbda8123d	-0.08206604
29	0xbca9f29c	-0.020745568
30	0x3d964b8b	0.073386274
31	0x3e29d6ca	0.16585842
32	0xbe306f6b	-0.17230003
33	0x3d4a4261	0.04937971
34	0xbe133ff6	-0.14379868
35	0x3cdb3765	0.026759813
36	0x3dfb33c9	0.122657366
37	0x3d9c70ec	0.07638726
38	0xbdbb864b	-0.09156474
39	0xbd6ccc86	-0.057812236
40	0x3d989cea	0.07451804
41	0x3da37152	0.079805985
42	0xbde5dbb3	-0.11223545
43	0x3e02a469	0.1275803
44	0xbd9676b3	-0.07346859
45	0xbc26075d	-0.0101335915
46	0x3dc87e22	0.09789683
47	0x3e133d43	0.14378838
48	0xbe158d9b	-0.146048
49	0xbe015322	-0.12629369
50	0x3dc1c6f5	0.09461776
51	0x3be32429	0.006931801
52	0x3ddae63a	0.106884435
53	0xbd4d2ca4	-0.0500914
54	0x3d5808a1	0.052742604
55	0x3e02fb28	0.12791121
56	0x3e11ddcf	0.1424477
57	0x3dd07783	0.10179045
58	0x3ca41fb3	0.020034647
59	0x3dc792c6	0.09744792
60	0xbb7b2283	-0.003832013
61	0xbe147bb4	-0.14500314
62	0x3d21fdd2	0.039548703
63	0x3cd1a8e8	0.025593236
64	0x3d31403e	0.043274157
65	0xbd468fb5	-0.048476893
66	0x3d923706	0.07139401
67	0xbe2ad74b	-0.1668369
68	0xbdde83e8	-0.10865003
69	0xbdafe286	-0.08588128
70	0xbe30b114	-0.1725505
71	0xbd27c072	-0.040955015
72	0x3dd52d72	0.10409059
73	0x3e10819b	0.1411194
74	0x3d9bba70	0.076039195
75	0x3bd421f0	0.006473772
76	0xbd3ebd1a	-0.04656706
77	0x3dadf2d1	0.08493579
78	0xbcd3a2e5	-0.02583451
79	0xbe28f597	-0.16499935
80	0xbccd7f96	-0.025085252
81	0x3e248b0b	0.16068666
82	0x3dc908b5	0.09816114
83	0x3d7cee33	0.061750602
84	0xbd2f7531	-0.04283637
85	0x3ddc8cf4	0.10769072
86	0x3e2440d2	0.16040352
87	0x3d5b2d5a	0.053510047
88	0x3e1f52d4	0.1555894
89	0x3ced4248	0.02896227
90	0x3dd3a04f	0.10333311
91	0xbcb65d30	-0.022261232
92	0xbdc7a5cb	-0.097484194
93	0x3d882ecb	0.0664955
94	0x3dbb6664	0.09150389
95	0xbe1eb5d7	-0.15499054
96	0xbd39d389	-0.04536775
97	0x3d65a993	0.05606992
98	0x3ba3e6fb	0.0050019003
99	0x3e2f1a12	0.17099789
100	0x3c671daa	0.014106194
101	0xbdc44f71	-0.09585465
102	0x3e0911be	0.13385674
103	0x3e318a24	0.17337853
104	0xbc971e59	-0.018447088
105	0x3cf4eb31	0.029897304
106	0x3e35b857	0.17746101
107	0xbc5ac9dc	-0.013353791
108	0xbd0d77e7	-0.034538176
109	0x3e1246d4	0.14284831
110	0x3e1abb29	0.15110458
111	0x3c1bd169	0.0095103765
112	0xbdfdfdf3	-0.124019526
113	0xbe0625f6	-0.13100418
114	0xbd9c3154	-0.07626596
115	0xbe0a896d	-0.13528986
116	0xbe00950d	-0.12556858
117	0xbc702e7b	-0.014659519
118	0xbc51e682	-0.012811305
119	0x3db12cba	0.08651109
120	0xbcfd2c29	-0.030904846
121	0xb7456620	-1.1765893e-05
122	0x3e136953	0.14395647
123	0x3d7a1efa	0.061064698
124	0xbcc478da	-0.023983408
125	0x3d0dcadd	0.034617294
126	0x3e0b8e5b	0.13628523
127	0xbe2fdf36	-0.17174992
128	0x3e3167d8	0.1732477
129	0x3e25de30	0.16198039
130	0x3e10aafe	0.14127728
131	0x3d9fd101	0.07803536
132	0xbd7eea51	-0.06223518
133	0xbe2e910a	-0.17047516
134	0xbcab78ab	-0.020931562
135	0x3e27fe67	0.1640564
136	0xbe019e4d	-0.12658043
137	0x3d9f2548	0.07770783
138	0xbd8085de	-0.06275533
139	0x3d083738	0.033255786
140	0xbc1b1a8e	-0.00946678
141	0xbdb5b3af	-0.088721626
142	0xbe29a3f4	-0.1656645
143	0xbda054c4	-0.07828668
144	0x3cf32fe8	0.02968593
145	0x3cfd3180	0.030907393
146	0x3d53e01b	0.051727396
147	0x3e052de3	0.13005786
148	0x3d61a714	0.05509098
149	0xbe3e273b	-0.18569653
150	0xbdf21cdd	-0.118219115
151	0xbd7ebde1	-0.0621928
152	0xbe047cdf	-0.1293826
153	0x3d40a435	0.0470316
154	0xbd04b67f	-0.032400604
155	0x3e29050b	0.1650583
156	0x3d4e4781	0.05036116
157	0x3e0f6389	0.14002813
158	0xbda5a6b7	-0.08088439
159	0x3e4c1a0b	0.1993181
160	0xbd3025eb	-0.04300491
161	0x3e0de1db	0.13855688
162	0xbc55f9a2	-0.013060005
163	0xbdcd29ba	-0.10017724
164	0x3c36eefa	0.011165375
165	0xbe2fc78e	-0.17165968
166	0x3dc437a3	0.09580924
167	0xbd547897	-0.051872816
168	0xbd5a6ac7	-0.053324487
169	0x3b515c89	0.0031946024
170	0xbd521c6b	-0.051296633
171	0x3e056cfb	0.13029854
172	0x3e47abf8	0.19499195
173	0x3d8f6830	0.07002294
174	0xbb4a91b6	-0.0030909604
175	0xbdb90f0b	-0.09036072
176	0x3e1c6630	0.15273356
177	0xbd554aef	-0.052073415
178	0xbe0729d9	-0.13199557
179	0x3df60e21	0.120144136
180	0xbdf0fe8e	-0.117673025
181	0xbc548242	-0.012970509
182	0xbc920dd0	-0.017828852
183	0x3dd280f6	0.102785036
184	0xbdfd91d4	-0.1238133
185	0xbddc67a9	-0.10761959
186	0xbe2d1d6e	-0.16905758
187	0xbd2a5b3c	-0.041590914
188	0xbe06c227	-0.1316
189	0x3df7a48a	0.1209193
190	0x3dc75013	0.0973207
191	0x3dede2bd	0.116155125
192	0x3df72b77	0.12068837
193	0xbdf0b298	-0.11752814
194	0x3ab4ec5c	0.0013803351
195	0xbc5a6585	-0.013329868
196	0xbde3dd6a	-0.11126216
197	0xbcda241e	-0.02662855
198	0xbd20c8bd	-0.03925394
199	0xbe31d3bf	-0.17365931
200	0x3c93b26c	0.018029414
201	0xbd8171a2	-0.06320502
202	0xbc7edff1	-0.0155563215
203	0xbc68ea76	-0.014216056
204	0xbcbb61bc	-0.022873752
205	0x3d064b6d	0.032786775
206	0x3dc55cdf	0.096368544
207	0x3e262589	0.16225256
208	0xbe1e5a4b	-0.15464132
209	0x3dcdc4d1	0.100473054
210	0x3d89d39e	0.06729816
211	0x3e0c664c	0.13710898
212	0x3e0a2ec5	0.13494404
213	0x3daa9b04	0.08330348
214	0x3d250572	0.040288396
215	0x3d6dd342	0.0580628
216	0xbd9ae3f2	-0.07563008
217	0xbdcbcb3c	-0.09950873
218	0xbe07c059	-0.13256969
219	0xbda06484	-0.07831672
220	0x3e2564c2	0.16151717
221	0xbdda2862	-0.10652234
222	0xbe035280	-0.1282444
223	0x3dc5ca45	0.096577205
224	0x3ddd26bc	0.107984036
225	0x3df78bb1	0.12087191
226	0xbdc327b0	-0.09529054
227	0x3d2777ae	0.04088562
228	0xbd8cede3	-0.06881311
229	0xbe10d087	-0.14142047
230	0x3ddc1730	0.1074661
231	0xbd3d63e6	-0.04623785
232	0xbdd4db39	-0.10393376
233	0x3c5dcf04	0.013538126
234	0xbda944c0	-0.08265066
235	0x3d64a80a	0.055824317
236	0x3e073028	0.13201964
237	0x3d8e07d5	0.069350876
238	0xbd3f497e	-0.046700947
239	0x3e061cb1	0.13096882
240	0xbdedd0c1	-0.11612082
241	0xbda1b579	-0.07895941
242	0x3c4c32c2	0.0124632735
243	0x3e30a2cb	0.172496
244	0x3d032a97	0.03202304
245	0xbd845b4f	-0.06462728
246	0x3d0e8080	0.034790516
247	0xbc3c2f04	-0.011485819
248	0xbc5f0a05	-0.013613229
249	0xbe077d0e	-0.13231298
250	0x3db44cb4	0.088036925
251	0xbe37a323	-0.17933325
252	0x3e0f58af	0.13998674
253	0xbd5a9ccd	-0.053372193
254	0xbdc97a06	-0.09837727
255	0x3c7c6d32	0.015406894

convs.2.nn.2.bias f4 [32]
0	0x3c44fbb9	0.012022906
1	0xbb423700	-0.0029634833
2	0x3d830231	0.06396902
3	0x3e1039ca	0.14084545
4	0xbe112895	-0.14175637
5	0x3d8e37db	0.06944247
6	0x3be9769e	0.007124736
7	0x3e11978d	0.14217968
8	0xbd0503a5	-0.03247418
9	0x3c0ebd82	0.008712174
10	0x3e21b66b	0.15792243
11	0xbd69e3e2	-0.05710209
12	0xbe12db63	-0.14341502
13	0xbe12f332	-0.14350584
14	0xbdc4adf7	-0.09603494
15	0xbc28fcea	-0.010314206
16	0xbe1c9672	-0.15291765
17	0xbd9bdf3b	-0.07610937
18	0x3cde55cb	0.027140519
19	0x3e2718ce	0.16318056
20	0x3c914463	0.017732805
21	0x3e07d589	0.13265051
22	0x3dd64ef1	0.10464276
23	0xbd5845b7	-0.05280086
24	0x3de18199	0.11011047
25	0xbd7e19da	-0.062036373
26	0x3caf93c9	0.021432774
27	0xbcdc14cd	-0.026865387
28	0x3cf08c60	0.029363811
29	0xbd64b414	-0.0558358
30	0x3d8ce8bf	0.0688033
31	0x3d8a7ad6	0.0676171

lns.0.weight f4 [32]
0	0x3f7e90e9	0.99439865
1	0x3f80ab67	1.0052308
2	0x3f84048f	1.0313891
3	0x3f822c05	1.0169684
4	0x3f803217	1.0015286
5	0x3f7f8e02	0.9982606
6	0x3f8087ff	1.0041503
7	0x3f7baa1a	0.9830643
8	0x3f7cd15f	0.98756975
9	0x3f7e2cc5	0.9928706
10	0x3f7f5ee8	0.9975419
11	0x3f800bf9	1.0003654
12	0x3f7e9360	0.99443626
13	0x3f8106b6	1.0080173
14	0x3f7ca800	0.9869385
15	0x3f7b38b1	0.9813338
16	0x3f80a5b1	1.0050565
17	0x3f79b3e3	0.9754011
18	0x3f82b1f3	1.0210556
19	0x3f7fa9a9	0.99868256
20	0x3f80b189	1.005418
21	0x3f80759e	1.0035894
22	0x3f80e6ff	1.0070494
23	0x3f803419	1.0015899
24	0x3f80ae9c	1.0053287
25	0x3f7ca9b3	0.9869644
26	0x3f7da176	0.99074495
27	0x3f7df736	0.9920534
28	0x3f826e0d	1.0189835
29	0x3f809838	1.0046453
30	0x3f838e51	1.0277807
31	0x3f80328b	1.0015424

lns.0.bias f4 [32]
0	0xbb868035	-0.004104639
1	0x3b99c9e7	0.004693258
2	0xbc50eb84	-0.012751464
3	0xbc1e9c8a	-0.0096808765
4	0x3b125d40	0.0022333413
5	0xbad42975	-0.0016186672
6	0x3b98217e	0.0046426645
7	0x3b8010ce	0.0039082533
8	0x39f8a7b8	0.00047427206
9	0x3bb26988	0.005444709
10	0x3b950150	0.0045472756
11	0xba805af6	-0.0009792733
12	0x3b9863da	0.004650575
13	0xbc8f913e	-0.017525312
14	0x3c4e426f	0.012589081
15	0xbc07b792	-0.008283513
16	0xbb847252	-0.0040419484
17	0x3cdbf216	0.026848834
18	0xbc213b04	-0.009840731
19	0x3ab8e9db	0.001410778
20	0xbadf9779	-0.0017058692
21	0xbc10fbf0	-0.008849129
22	0xbc294f16	-0.010333797
23	0x3b4451c5	0.0029955965
24	0xbc2f87cc	-0.010713529
25	0xba999eb7	-0.0011720274
26	0x3c6df2ae	0.014523191
27	0xbbf4135e	-0.007448598
28	0xbcb49ddd	-0.022047931
29	0xbbae3790	-0.005316682
30	0xbb6d70f4	-0.0036230655
31	0xba60b4ae	-0.0008571845

lns.1.weight f4 [32]
0	0x3f811f29	1.0087634
1	0x3f808889	1.0041667
2	0x3f82b8c3	1.0212635
3	0x3f81aa19	1.0130035
4	0x3f8243df	1.0176963
5	0x3f81b4ee	1.013334
6	0x3f81ec8c	1.0150313
7	0x3f7f82d9	0.9980903
8	0x3f83966e	1.0280282
9	0x3f80ce99	1.0063049
10	0x3f811c18	1.0086699
11	0x3f821367	1.0162171
12	0x3f7f94f2	0.9983665
13	0x3f82e91b	1.0227388
14	0x3f847518	1.0348234
15	0x3f7e4520	0.99324226
16	0x3f7fc62a	0.9991175
17	0x3f808016	1.0039089
18	0x3f7e6835	0.9937776
19	0x3f7f6d02	0.9977571
20	0x3f829b29	1.0203601
21	0x3f814145	1.0098044
22	0x3f810a69	1.0081302
23	0x3f80e18c	1.0068831
24	0x3f7f888a	0.9981772
25	0x3f81387c	1.0095363
26	0x3f810f67	1.0082825
27	0x3f7e9ebc	0.9946096
28	0x3f817c5f	1.011608
29	0x3f82c127	1.0215195
30	0x3f837e71	1.0272962
31	0x3f82998d	1.020311

lns.1.bias f4 [32]
0	0x3b6eb0e4	0.0036421353
1	0xbc4bd4b1	-0.012440846
2	0x3adb917e	0.0016751734
3	0x3b2859d7	0.0025688314
4	0xbc8cc47d	-0.017183537
5	0xb6c12291	-5.7558723e-06
6	0x3a6c2232	0.0009007781
7	0xba66bf78	-0.0008802335
8	0xbc163346	-0.009167498
9	0xbc0ba0a0	-0.008522183
10	0x3c8f5a0a	0.017498989
11	0x3bc21126	0.0059224544
12	0x3c0f8caf	0.008761569
13	0xbcb63923	-0.022244042
14	0xbc291973	-0.010321009
15	0xbc270164	-0.010193203
16	0xbba17846	-0.004927668
17	0xbc0483f0	-0.008088097
18	0xba4e272c	-0.00078641134
19	0x3a1d593c	0.00060023717
20	0x3c8ae01a	0.016952563
21	0xbc2a1f8f	-0.010383501
22	0x3c7083a5	0.014679824
23	0x3b9d8cef	0.0048080604
24	0xbc80cab2	-0.015721653
25	0xbc849076	-0.016182166
26	0xbc49e1ed	-0.012321931
27	0x3bcf339b	0.0063232905
28	0x3c1a2dac	0.009410303
29	0x3bbb7ed5	0.0057219067
30	0x3c3552aa	0.011067072
31	0xbca7254f	-0.020403532
