GNNStack_checkpoints/run_11_12/artery_model_best_val_acc.pt (torch, 35383 bytes, 20 tensors)

convs.0.nn.0.weight f4 [32, 7]
0	0x3cb1016c	0.021607123
1	0x3e42f9bd	0.1904058
2	0xbcb02da1	-0.021506133
3	0x3998b6ea	0.0002912798
4	0xbbb69565	-0.0055720084
5	0x3e46e9a3	0.19425063
6	0x3cfc3396	0.030786317
7	0xbea663ef	-0.32498118
8	0xbe8cdcac	-0.2751211
9	0x3cd27100	0.025688648
10	0xbce576b7	-0.02801071
11	0x3ebb9941	0.3664036
12	0xbdb7d24a	-0.08975656
13	0x3e939ae3	0.28829107
14	0xbe9f2952	-0.31086212
15	0xbeb8ebbc	-0.3611735
16	0xbd239b94	-0.039943293
17	0xbe7457b6	-0.23861584
18	0xbde73850	-0.11290038
19	0x3d122d49	0.03568772
20	0xbea8ed6d	-0.32993641
21	0x3e854656	0.26030225
22	0xbe62ef2b	-0.22161548
23	0x3e9507e3	0.2910758
24	0x3dff63c6	0.12470202
25	0xbd92872f	-0.071546905
26	0xbea85c0d	-0.3288273
27	0x3d75ca61	0.060007457
28	0xbe57033c	-0.20997328
29	0x3ea77b25	0.3271114
30	0xbea2a084	-0.3176309
31	0xbdc8a5db	-0.097972594
32	0xbe52a9b2	-0.20572546
33	0xbe77f826	-0.24215755
34	0xbe4c2fb2	-0.1994007
35	0xbd0a53f1	-0.03377146
36	0x3cd0f386	0.025506746
37	0x3d77f260	0.06053388
38	0x3e42b087	0.19012652
39	0xbe2274fa	-0.15864936
40	0xbe72421a	-0.23658028
41	0xbda4b154	-0.08041635
42	0x3ebb1e41	0.3654652
43	0xbd38c39b	-0.04510842
44	0xbea0c269	-0.31398323
45	0x3e99bd7c	0.30027378
46	0x3dccc563	0.09998586
47	0x3d8e6806	0.06953435
48	0x3d8989e4	0.06715754
49	0x3e844f1c	0.25841606
50	0xbe23fc7e	-0.16014287
51	0x3e8fa999	0.2805908
52	0x3eb7aeda	0.3587559
53	0xbdc8c34b	-0.09802874
54	0x3e7741b1	0.24146153
55	0x3e5784a2	0.21046689
56	0x3eb31c5a	0.34982568
57	0xbdb3ca99	-0.08778877
58	0xbe65d09e	-0.22442862
59	0xbe0d17cb	-0.13778608
60	0xbe86253d	-0.26200286
61	0x3c356594	0.011071581
62	0x3eb9c7ec	0.3628534
63	0x3eb84166	0.35987395
64	0x3e902003	0.28149423
65	0x3d20e82d	0.03928392
66	0x3bffb94e	0.0078040725
67	0x3e7ba5ae	0.2457492
68	0x3e6ba389	0.23011602
69	0xbd11a0ad	-0.035553623
70	0xbdbff62c	-0.093731254
71	0x3e1b03b2	0.15138128
72	0xbc84043c	-0.0161153
73	0xbe883279	-0.26601008
74	0xbe34aac3	-0.17643265
75	0x3e9f5a26	0.31123465
76	0x3ea2d6d0	0.31804514
77	0xbe164384	-0.14674193
78	0xbd9f76c3	-0.07786324
79	0xbe3cce32	-0.18438032
80	0xbdf8ab2f	-0.12142026
81	0x3eb1a496	0.34695882
82	0xbeab91e1	-0.33509734
83	0x3e3be3d4	0.18348628
84	0xbeaedfb0	-0.34155035
85	0xbe418f4a	-0.18902317
86	0xbd8f69e4	-0.07002619
87	0x3ce226e7	0.02760644
88	0xbd609dec	-0.054838106
89	0xbe2ae9ed	-0.16690798
90	0xbe2d0e2a	-0.16899934
91	0xbe6e1d50	-0.2325337
92	0xbe895a5c	-0.2682675
93	0xbe6dbb13	-0.23215894
94	0x3eb9a718	0.36260295
95	0xbe34967d	-0.17635532
96	0xbea18ac1	-0.31551173
97	0x3e86a318	0.26296306
98	0x3e1560e2	0.14587739
99	0x3e85dc08	0.26144433
100	0xbebfd73c	-0.37468898
101	0xbeb8453f	-0.3599033
102	0xbe889cfb	-0.26682267
103	0xbe482287	-0.19544421
104	0xba87ded0	-0.0010366086
105	0x3e2371d9	0.15961398
106	0x3e63f4d5	0.22261365
107	0xbea46b1c	-0.32112968
108	0x3e19958d	0.14998455
109	0xbe6261c4	-0.22107607
110	0x3db24b00	0.08705711
111	0x3df5b22c	0.11996874
112	0x3d80ec90	0.06295121
113	0x3e0f36a6	0.1398569
114	0xbc613da4	-0.013747606
115	0x3e7dac06	0.24772653
116	0x3da9938f	0.08280098
117	0x3eadc156	0.33936566
118	0x3db3588a	0.08757122
119	0xbe4c4c66	-0.19951019
120	0x3e7ec81a	0.2488102
121	0x3cff9bf5	0.031202296
122	0x3ebb6db6	0.3660714
123	0xbd16e088	-0.036835223
124	0x3ec173d9	0.37783697
125	0xbe5bc927	-0.21463452
126	0x3e42874d	0.18996926
127	0xbe92fdef	-0.2870936
128	0x3e8249d5	0.25446954
129	0x3d9092b9	0.07059235
130	0x3e5ade89	0.21373953
131	0xbeaa390d	-0.3324665
132	0xbec137c1	-0.3773785
133	0x3e3f4c48	0.18681443
134	0xbe2789fd	-0.16361232
135	0x3e16f013	0.14740019
136	0xbe6001d0	-0.21875691
137	0xbde80253	-0.11328568
138	0x38fa38d1	0.00011931512
139	0x3e674eaa	0.22588602
140	0x3e574961	0.21024086
141	0xbce1b209	-0.027550714
142	0xbdcf64a7	-0.1012662
143	0xbc69584c	-0.014242243
144	0x3e479b38	0.19492805
145	0xbea357a5	-0.31902805
146	0xbde953c2	-0.11392929
147	0xbebe8681	-0.37211993
148	0x3d3b949e	0.04579603
149	0xbd559da3	-0.052152287
150	0x3e5b5f61	0.21423103
151	0x3e969e6d	0.29417744
152	0xbea8a195	-0.32935777
153	0xbe2e88c0	-0.17044353
154	0xbd8a121a	-0.06741734
155	0x3b747b8d	0.0037305087
156	0xbd9eec86	-0.07759957
157	0xbe75107c	-0.2393207
158	0xbe0df46f	-0.13862775
159	0xbbb3d1fa	-0.0054876776
160	0x3e9c85a4	0.3057071
161	0xbdc70309	-0.09717376
162	0x3e8051e4	0.25062478
163	0xbe9c9610	-0.3058324
164	0x3c943224	0.018090315
165	0xbe96c136	-0.29444283
166	0xbeb5c3ca	-0.35500938
167	0x3d167f22	0.036742337
168	0xbe390e67	-0.180719
169	0x3e8f615a	0.2800396
170	0x3e994040	0.2993183
171	0xbec1de79	-0.37865046
172	0xbcdd4d15	-0.027014295
173	0xbd8300d5	-0.06396643
174	0xbe585bdb	-0.2112879
175	0xbe83ec39	-0.2576616
176	0xbe2a2224	-0.16614586
177	0x3e28953a	0.16463175
178	0x3db72184	0.089419395
179	0x3e6ade65	0.229364
180	0xbcefab41	-0.029256465
181	0x3e478e89	0.19487967
182	0x3da2c484	0.07947639
183	0xbda21459	-0.07914037
184	0xbca77cd2	-0.020445261
185	0xbeaf4538	-0.34232497
186	0xbb355ea8	-0.0027674828
187	0xbdfa1de1	-0.1221273
188	0xbe028c78	-0.12748897
189	0xbe190897	-0.14944683
190	0xbda5ea48	-0.08101326
191	0xbe8e4b6e	-0.27791923
192	0x3cb9c6b7	0.022677762
193	0xbc4de8e6	-0.012567734
194	0xbdc6e199	-0.09710998
195	0x3ea8c945	0.32966056
196	0x3e828c34	0.25497591
197	0x3de320f8	0.11090273
198	0xbe1144c6	-0.14186391
199	0x3d44d81a	0.048057653
200	0xbe840e74	-0.25792277
201	0x3e87dcf2	0.26535755
202	0x3eb48c93	0.352635
203	0xbd827149	-0.06369264
204	0x3e978cc4	0.29599583
205	0x3eb61e4f	0.3557
206	0xbca5d769	-0.020244317
207	0xbe10ebe1	-0.1415248
208	0x3cad19d4	0.02113048
209	0x3d7a8e12	0.061170645
210	0xbeb12bca	-0.3460372
211	0xbcc3a07c	-0.023880236
212	0xbe0b5550	-0.13606763
213	0x3e81e112	0.25367028
214	0xbc4846bd	-0.012223897
215	0x3e7cfb0b	0.2470514
216	0x3eacdfaf	0.33764407
217	0xbdea7203	-0.11447527
218	0x3d9dd112	0.077058926
219	0xbd0f7b48	-0.03502968
220	0xbe2913dd	-0.16511483
221	0xbe5aa843	-0.21353249
222	0x3bd6552c	0.006540915
223	0x3de6c499	0.11267967

convs.0.nn.0.bias f4 [32]
0	0xbd9655d9	-0.07340593
1	0x3d8de517	0.06928461
2	0x3e6f0d85	0.23345001
3	0x3e20aefc	0.15691751
4	0x3e2238bc	0.15841955
5	0x3dd09551	0.1018473
6	0xbe90a721	-0.2825251
7	0xbe6abaef	-0.22922872
8	0xbe9202c7	-0.28517744
9	0x3e79dd5e	0.24400851
10	0xbea9a209	-0.33131436
11	0xbe8f3b1a	-0.27974778
12	0x3e82d43c	0.25552547
13	0x3e669f95	0.22521813
14	0xbeb6352b	-0.3558744
15	0x3e5d1efc	0.21593851
16	0xbda861a3	-0.08221748
17	0x3db1023e	0.08643006
18	0xbe735c1d	-0.23765607
19	0xbd5c9891	-0.053856436
20	0x3dac3a71	0.08409584
21	0x3e8f9296	0.28041524
22	0x3e72673a	0.2367219
23	0xbe51ed62	-0.2050071
24	0xbe7e8931	-0.24857022
25	0xbcadd419	-0.0212193
26	0x3dff0526	0.12452154
27	0x3e572a2b	0.2101218
28	0xbebfb950	-0.3744607
29	0xbd032dd3	-0.032026123
30	0x3c456583	0.012048128
31	0xbe38b6ab	-0.18038432

convs.0.nn.2.weight f4 [32, 32]
0	0x3e0e5fe8	0.13903773
1	0xbd3962ff	-0.045260426
2	0xbe28a4d0	-0.16469121
3	0xbdda9b4f	-0.10674154
4	0x3c1a5a08	0.009420879
5	0xbe022ccc	-0.12712401
6	0x3d31816d	0.04333632
7	0x3e3066d6	0.17226729
8	0x3c3b348c	0.011426102
9	0xbd406107	-0.046967532
10	0x3e2dd0c3	0.16974168
11	0x3e056065	0.13025053
12	0x3dfccd74	0.123438746
13	0x3c88d465	0.01670284
14	0x3c13f93a	0.009031588
15	0xbe0a3a81	-0.1349888
16	0x3c81cb8a	0.015844125
17	0x3e34fabe	0.17673776
18	0x3bff111b	0.0077840216
19	0xbe207d7b	-0.15672867
20	0x3dbd8b77	0.092551164
21	0x3e2500cd	0.16113587
22	0x3e1fe491	0.15614535
23	0x3c2b1c5b	0.010443772
24	0x3d1aeb05	0.03782179
25	0x3cfe451a	0.03103881
26	0xbd9959d7	-0.07487839
27	0xbc920250	-0.017823368
28	0x3e1652e2	0.14680055
29	0x3cacaa9f	0.021077452
30	0x3e32cfa2	0.17462018
31	0xbde43693	-0.11143222
32	0xbc97a5ae	-0.01851162
33	0x3b6cc279	0.0036126657
34	0xbde2a2d2	-0.11066212
35	0x3e0f11d0	0.13971639
36	0x3e009f09	0.12560667
37	0xbdc61c11	-0.09673322
38	0x3e1fcd48	0.15605652
39	0x3e2b8d11	0.16753031
40	0xbdd1ae9c	-0.10238382
41	0x39446437	0.0001872935
42	0x3e31266c	0.17299813
43	0xbdee0b60	-0.11623263
44	0xbcf80c1a	-0.030279208
45	0xbe03d389	-0.12873663
46	0x3e03dc5e	0.12877032
47	0x3cf92b70	0.03041622
48	0x3da5b4ee	0.0809115
49	0x3e09c44f	0.13453792
50	0xbccd1dea	-0.025038678
51	0xbe352cf5	-0.17692931
52	0x3c47f8f0	0.012205347
53	0xbbda3c4e	-0.006660021
54	0x3d6e41f1	0.058168355
55	0x3da83743	0.08213665
56	0xbd9f2363	-0.07770421
57	0xbd83f95c	-0.06444046
58	0x3ddf9b28	0.109182656
59	0x3d433b00	0.04766369
60	0x3d28a01f	0.04116833
61	0x3db53308	0.08847624
62	0x3daaafed	0.083343364
63	0xbe07c00b	-0.13256852
64	0x3c28e9d9	0.01030966
65	0x3c8180b2	0.015808437
66	0xbe2a6375	-0.16639502
67	0x3d0f2225	0.034944672
68	0xbba99c31	-0.00517609
69	0x3e0c9160	0.13727331
70	0xbe347a82	-0.17624858
71	0x3e27f16a	0.16400686
72	0xbdba73ed	-0.09104142
73	0x3dcbd1a4	0.09952095
74	0x3e04adf2	0.1295698
75	0xbcf74119	-0.030182408
76	0xbdbc2047	-0.09185844
77	0xbcd5ff41	-0.026122691
78	0xbde2bead	-0.11071525
79	0x3c97f1f7	0.018547995
80	0x3d8e6cb0	0.06954324
81	0x3d0e21e9	0.034700308
82	0xbdd5ec2b	-0.10445436
83	0x3dc126e9	0.0943125
84	0x3e1f9534	0.1558426
85	0xbd672a8e	-0.056437068
86	0x3db9f7a2	0.09080435
87	0xbc55b821	-0.013044388
88	0x3d932be3	0.07186105
89	0xbe00258f	-0.12514327
90	0xbe20e3cd	-0.15711899
91	0xbbf75ecf	-0.007549144
92	0xbe1b97b4	-0.15194589
93	0x3d826fc9	0.063689776
94	0x3e26fc02	0.16307071
95	0xbd0adc5d	-0.03390156
96	0x3a772803	0.00094282645
97	0x3d094214	0.033510283
98	0xbda22718	-0.07917613
99	0xbb89d256	-0.004205982
100	0x3d342975	0.04398485
101	0x3e18d2f1	0.14924218
102	0xbe1cf9a4	-0.15329605
103	0x3a06f2d9	0.00051478815
104	0xbe19f143	-0.1503344
105	0xbc46b66a	-0.012128452
106	0xbbc952cb	-0.006143903
107	0xbd8ec2b8	-0.069707334
108	0x3de9f200	0.11423111
109	0x3e00a9b3	0.12564735
110	0xbd9a94cb	-0.07547911
111	0xbd008656	-0.031378113
112	0xbd607651	-0.054800335
113	0x3c006d6f	0.007838591
114	0x3d82e347	0.06391006
115	0x3e2b454c	0.16725653
116	0xbe227358	-0.15864313
117	0x3d9d64df	0.07685255
118	0xbde073a4	-0.10959557
119	0xbe1a6029	-0.15075745
120	0x3e112ff1	0.14178444
121	0xbd3b9836	-0.045799457
122	0xbdc37a34	-0.09544793
123	0x3d468e89	0.048475776
124	0xbd31663c	-0.04331039
125	0xbe1f7217	-0.15570866
126	0xbdb3f737	-0.08787387
127	0xbda1ced1	-0.07900775
128	0xbc0404c5	-0.008057778
129	0xbdf3d51a	-0.1190588
130	0xbe339547	-0.17537414
131	0x3dcd2aaf	0.10017907
132	0xbe17aa6d	-0.14811106
133	0xbc938161	-0.018006029
134	0x3e1559a1	0.14584972
135	0xbd80bec6	-0.06286387
136	0xbdf7e843	-0.12104847
137	0x3d4b7d3e	0.049679987
138	0x3e223a1e	0.15842482
139	0xbcd10cca	-0.025518794
140	0xbc198f74	-0.009372581
141	0x3da1abce	0.07894097
142	0x3cb56a80	0.02214551
143	0x3d065ca6	0.0328032
144	0x3dc77355	0.09738795
145	0x3db25a10	0.08708584
146	0xbe00bc4f	-0.12571834
147	0xbd8d9c91	-0.06914628
148	0x3df51a57	0.119679146
149	0x3cf26133	0.029587364
150	0x3d2a2717	0.041541185
151	0x3e30d0d7	0.17267166
152	0x3df009e3	0.11720636
153	0x3d937454	0.07199922
154	0x3e2916c5	0.16512592
155	0xbe1e9ae5	-0.15488775
156	0x3cc74a7f	0.024327515
157	0x3d5cbcb2	0.05389089
158	0xbcd26e53	-0.025687372
159	0xbda80452	-0.08203949
160	0x3cf305c4	0.029665835
161	0xbe174156	-0.14771017
162	0xbd924512	-0.0714208
163	0x3e0836b7	0.13302122
164	0xbd85f64f	-0.0654112
165	0xbd581f9c	-0.05276452
166	0x3db46540	0.088083744
167	0xbd3c58f8	-0.045983285
168	0x3d0b0b20	0.033946157
169	0xbe36f39e	-0.1786637
170	0x3dcb8777	0.09937947
171	0xbe180a63	-0.14847712
172	0x3cd857be	0.026409026
173	0xbe2e28d3	-0.1700776
174	0xbe16c3bc	-0.14723104
175	0x3e19b438	0.15010154
176	0xbdce463c	-0.1007199
177	0xbc1320c6	-0.008979982
178	0x3bdfa233	0.0068247556
179	0x3e27198d	0.1631834
180	0x3d74b8c2	0.05974651
181	0x3da8edc6	0.08248477
182	0xbd95c860	-0.07313609
183	0xbd70edc9	-0.05882052
184	0x3dfa2313	0.12213721
185	0x3d79303e	0.060837023
186	0x3d4ccec0	0.05000186
187	0xbe033ceb	-0.12816207
188	0xbe0852fb	-0.13312905
189	0x3ce88c92	0.028387342
190	0xbe07477c	-0.13210863
191	0x3dff264e	0.12458478
192	0x3e1a5f63	0.1507545
193	0xbd91e3ef	-0.07123553
194	0xbde18810	-0.1101228
195	0x3e2e84d7	0.17042862
196	0xbdb7744f	-0.08957731
197	0xbe0e2c56	-0.138841
198	0xbe0b642b	-0.1361243
199	0x3cf5af97	0.029990954
200	0x3cd81bc4	0.026380427
201	0x3de7b4ea	0.113138035
202	0x3e16645f	0.14686726
203	0x3d9799bd	0.0740237
204	0x3d09a6ef	0.033606466
205	0x3e233eb6	0.15941891
206	0xbd9656b7	-0.07340758
207	0xbd0a80c8	-0.03381422
208	0x3e19e888	0.1503011
209	0xbd5b308f	-0.053513106
210	0x3dc01fcf	0.09381067
211	0x3d13091e	0.035897367
212	0x3d6b6626	0.057470463
213	0xbd18efc7	-0.037338044
214	0xbe15dc4f	-0.14634822
215	0x3e04f08f	0.12982391
216	0x3e1cd956	0.15317282
217	0xbe0c5744	-0.13705164
218	0xbdb7bf9e	-0.08972095
219	0x3c1d187a	0.009588355
220	0x3dab0eed	0.08352456
221	0xbc8b8131	-0.017029377
222	0xbd90f791	-0.070784695
223	0x3e0fa153	0.14026384
224	0xbdab521e	-0.08365272
225	0x3e22ebf6	0.15910324
226	0x3af864ef	0.0018950979
227	0x3dc9977a	0.09843345
228	0x3d268ae8	0.040659815
229	0x3d00c95c	0.03144203
230	0x3e0b3d20	0.13597536
231	0xbb621cd6	-0.003450205
232	0x3e079b67	0.13242875
233	0x3d820b2e	0.063497886
234	0xbdcff669	-0.10154421
235	0x3dd895af	0.10575425
236	0xbe00a264	-0.12561947
237	0x3db0d25d	0.086338736
238	0xbd1b3ac9	-0.03789786
239	0x3d666dde	0.05625712
240	0xbc82895e	-0.015934642
241	0x3d2b77f5	0.041862447
242	0xbd47f466	-0.04881706
243	0x3d9e5f73	0.07733049
244	0x3dae929b	0.085240565
245	0xbe23e15b	-0.16003935
246	0x3e1c0b4d	0.15238686
247	0xbe13de50	-0.14440274
248	0xbd8d1193	-0.06888118
249	0x3d93cede	0.07217191
250	0x3e2a0657	0.16603981
251	0x3d613dbc	0.054990515
252	0xbdc1c57d	-0.09461496
253	0x3d272720	0.040808797
254	0xbdd86d53	-0.10567727
255	0x3da269e8	0.07930356

convs.0.nn.2.bias f4 [32]
0	0x3deeb574	0.11655703
1	0xbcee9d47	-0.02912773
2	0xbe2f7577	-0.17134653
3	0xbc9c72a1	-0.019097628
4	0x3c791c1b	0.015204455
5	0x3d2a7b4b	0.041621488
6	0x3d6567ce	0.0560072
7	0xbca12cdb	-0.019674709
8	0xbc36acdf	-0.011149614
9	0xbd16856c	-0.036748335
10	0x3d8fc20d	0.07019434
11	0x3d21a25d	0.039461482
12	0x3d8e192b	0.06938394
13	0xbc73a495	-0.014870782
14	0xbc06df0d	-0.00823189
15	0x3e00e428	0.12587035
16	0x3cb10758	0.021609947
17	0xbe2029f7	-0.15641008
18	0x3d2c4405	0.042057056
19	0x3e1f0019	0.15527381
20	0xbcea2461	-0.0285818
21	0x3de6aad1	0.112630494
22	0xbe0a1dbf	-0.1348791
23	0xbcebcd22	-0.028784338
24	0x3deafd38	0.11474079
25	0xbdb88fd7	-0.0901181
26	0xbd22d5b3	-0.03975458
27	0xbb74b8f5	-0.0037341688
28	0xbd114f37	-0.035475936
29	0xbd4f083f	-0.050544973
30	0x3e0b94d8	0.13630998
31	0xbceafcb8	-0.028684959

convs.1.nn.0.weight f4 [32, 32]
0	0x3e24cc75	0.16093619
1	0xbd9ee111	-0.07757772
2	0xbdfbc4cd	-0.12293396
3	0x3d471ec8	0.04861334
4	0xbc9c13e7	-0.019052459
5	0xbdfae04a	-0.12249811
6	0xbe20e337	-0.15711676
7	0x3e176fa2	0.14788678
8	0xbdc5a36e	-0.09650312
9	0x3e1858f9	0.1487769
10	0xbe0372f1	-0.12836815
11	0x3db8bb25	0.0902007
12	0xbd8ab877	-0.06773465
13	0x3e02faf5	0.12791045
14	0x3e2f5c8f	0.17125152
15	0x3e194863	0.1496902
16	0xbdb92112	-0.09039511
17	0xbd41617f	-0.04721212
18	0xbdf91c00	-0.12163544
19	0xbcf0b1d3	-0.029381668
20	0x3d5e2236	0.054231845
21	0x3de6bfa1	0.11267019
22	0xbdb79278	-0.089634836
23	0x3ddf2a1e	0.10896705
24	0xbd2fa071	-0.04287762
25	0x3c71df4d	0.014762712
26	0xbdecf667	-0.11570435
27	0x3d26637c	0.04062222
28	0x3cb0ac9e	0.021566685
29	0x3dedfba7	0.116202645
30	0x3e078bfd	0.13236995
31	0x3e1494f3	0.14509945
32	0x3de849b6	0.11342184
33	0xbbbc29fb	-0.005742309
34	0x3dd504a1	0.104012735
35	0x3dfa7e5c	0.122311324
36	0x3e05fda3	0.13085036
37	0x3dcff184	0.10153487
38	0xbd49db41	-0.049281362
39	0x3c1344ad	0.008988542
40	0xbd80fab3	-0.06297817
41	0x3db819d8	0.08989304
42	0xbd2f48d6	-0.04279407
43	0xbe3efb0a	-0.18650451
44	0xbd865678	-0.06559461
45	0xbe1031f3	-0.14081554
46	0x3cd121c3	0.025528794
47	0x3e0b51a8	0.13605368
48	0xbca6389e	-0.020290669
49	0xbda994d2	-0.08280338
50	0xbd701219	-0.05861101
51	0xbe1cd220	-0.15314531
52	0x3db0efaa	0.08639462
53	0x3de19349	0.110144205
54	0xbe08ff23	-0.13378577
55	0x3df7769c	0.1208317
56	0x3d5ab179	0.053391907
57	0xbe228a15	-0.15872987
58	0x3dc44833	0.095840834
59	0xbc8c8896	-0.017154973
60	0xbdcdfac3	-0.100575946
61	0x3d988c57	0.07448643
62	0xbdd53354	-0.10410181
63	0x3cbb4044	0.022857793
64	0x3e2d071e	0.16897246
65	0x3dc4ff1f	0.09618973
66	0x3dd6fbfe	0.104972824
67	0xbdc0ef5d	-0.09420655
68	0xbdd7b078	-0.105317056
69	0x3d78ed1f	0.06077301
70	0xba6eb509	-0.0009105956
71	0x3e085b0f	0.13315986
72	0x3e1c3ca9	0.15257515
73	0x3e12319f	0.14276741
74	0x3d5ee98f	0.054421958
75	0xbde9ee59	-0.11422414
76	0x3c392086	0.011299258
77	0x3cd5ca20	0.026097357
78	0xbdda3914	-0.10655418
79	0xbcac789c	-0.021053605
80	0x3cc71b19	0.024304913
81	0xbdfd095c	-0.12355301
82	0x3ca6fb0a	0.020383377
83	0xbe214afa	-0.15751258
84	0x3dbdd7df	0.0926969
85	0xbdb9934b	-0.09061297
86	0x3d893f57	0.06701534
87	0xbca6fc11	-0.020383867
88	0xbdd43038	-0.103607595
89	0x3d329ac1	0.043604616
90	0xbe064e69	-0.13115849
91	0x3dd6076c	0.10450634
92	0x3c6ef841	0.0145855555
93	0x3d220030	0.03955096
94	0x3def25b6	0.11677115
95	0x3df2e592	0.11860193
96	0x3e0edb9a	0.13950959
97	0x3dedf061	0.11618114
98	0xbcde382f	-0.0271264
99	0xba2a5127	-0.0006497078
100	0xbe1e3b27	-0.15452252
101	0x3d257c2b	0.04040162
102	0x3b88afd4	0.004171351
103	0x3e07bebe	0.13256356
104	0x3e02f898	0.12790143
105	0xbce08a7e	-0.027409788
106	0xbdbc345f	-0.091896765
107	0x3df52e20	0.11971688
108	0x3d1188f4	0.035531
109	0xbdb893ff	-0.09012603
110	0xbdea4002	-0.1143799
111	0xbe3016ab	-0.17196147
112	0x3da67001	0.08126832
113	0x3d87a29e	0.06622814
114	0x3d5f25c9	0.054479394
115	0x3dbd65f0	0.09247959
116	0xbdc66c32	-0.09688605
117	0x3e300ae5	0.17191656
118	0x3db7ecd5	0.08980719
119	0x3d736c0a	0.059429206
120	0xbd03af37	-0.03214952
121	0xbe1d59cf	-0.1536629
122	0x3d1efe0e	0.038816504
123	0x3d084ebb	0.03327821
124	0x3cd49681	0.025950672
125	0x3db11aca	0.08647688
126	0xbdaa7d6f	-0.08324706
127	0x3e27fc5f	0.16404866
128	0x3bcb92fa	0.0062125893
129	0xbe20ca22	-0.15702108
130	0xbd9cae6b	-0.07650455
131	0x3d40839e	0.04700052
132	0x3e026cbc	0.12736791
133	0xbd93be9f	-0.072140925
134	0xbda2c816	-0.079483196
135	0xbc50c712	-0.012742775
136	0xbe2d32b7	-0.16913877
137	0xbd7bb852	-0.06145508
138	0xbde1cda0	-0.11025548
139	0x3e1f7e29	0.1557547
140	0xbde6aee5	-0.11263827
141	0xbca3b340	-0.019982934
142	0x3e0c5f4a	0.13708225
143	0xbd214b5b	-0.039378505
144	0x3e170e5f	0.14751576
145	0xbdb51207	-0.08841329
146	0xbc99c18e	-0.018769052
147	0x3c357368	0.011074878
148	0xbe04eabb	-0.12980168
149	0x3dcfdab9	0.1014914
150	0xbbc12116	-0.0058938367
151	0xbe3529da	-0.17691746
152	0x3d893030	0.06698644
153	0xbd8ba852	-0.06819214
154	0xbdbcc5f3	-0.09217443
155	0x3d954247	0.07288032
156	0x3d4694b0	0.048481643
157	0xbdd77b0b	-0.105215155
158	0x3d86db84	0.06584838
159	0x3cd35ea6	0.025801968
160	0xbd73bdad	-0.05950706
161	0x3df4f447	0.11960655
162	0xbb89bbce	-0.0042032963
163	0x3d9d6f73	0.07687273
164	0xbd1283d7	-0.035770264
165	0x3d67335f	0.056445476
166	0x3d3033c2	0.04301811
167	0x3e11c876	0.14236626
168	0xbe1cebdf	-0.15324353
169	0xbd2a8ce4	-0.04163827
170	0x3dbddf74	0.09271136
171	0xbdaa3230	-0.08310354
172	0xbe022f39	-0.12713327
173	0x3df118b1	0.11772288
174	0x3db58d99	0.08864898
175	0x3e2895fa	0.16463462
176	0x3d88ff92	0.06689371
177	0xbd4874c1	-0.04893947
178	0xbe0c9788	-0.1372968
179	0xbdebfbe1	-0.115226515
180	0x3d68b0c1	0.05680919
181	0xbd0e4145	-0.034730215
182	0x3e292d4e	0.16521189
183	0x3de58614	0.11207214
184	0x3c9303f1	0.017946215
185	0x3e30b21f	0.17255448
186	0x3c90bb34	0.01766739
187	0x3d0fbf08	0.03509429
188	0x3e2f51b6	0.17121014
189	0xbcc000c1	-0.02343786
190	0x3d6a4203	0.05719186
191	0xbc501b4a	-0.012701819
192	0x3e2e6cf2	0.17033747
193	0x3da7723a	0.08176084
194	0xbd399b7b	-0.045314293
195	0xbe1f06d8	-0.15529954
196	0x3cd5d863	0.026104158
197	0xba7dead4	-0.0009686176
198	0x3d9e5b4c	0.07732257
199	0x3d80b85a	0.06285162
200	0xbe23b51d	-0.15987058
201	0xbe0e7e97	-0.13915478
202	0xbd32a2a2	-0.04361213
203	0xbe1c3ade	-0.15256831
204	0x3c4af46f	0.012387379
205	0x3dc603e6	0.09668712
206	0x3e2d5692	0.16927555
207	0xbc3a165f	-0.011357873
208	0xbe0b9fb4	-0.1363514
209	0x3df52777	0.11970418
210	0xbdfd8512	-0.12378897
211	0x3dfa71fe	0.122287735
212	0xbd91abc6	-0.07112841
213	0xbdaf37bc	-0.08555552
214	0x3de44274	0.111454874
215	0x3d519896	0.051170908
216	0xbd5e1787	-0.054221656
217	0x3dda9f7d	0.10674951
218	0xbe204deb	-0.15654723
219	0xbd3d87b3	-0.04627199
220	0xbdc17fef	-0.094482295
221	0xbe063e47	-0.13109694
222	0xbe28144e	-0.16413996
223	0xbde2a43f	-0.11066484
224	0x3d5b9a96	0.05361422
225	0xbdc6ea3e	-0.09712647
226	0x3e1703c1	0.14747526
227	0xbcf8eac8	-0.03038539
228	0x3d16f74a	0.036856927
229	0x3e08ab8a	0.13346687
230	0x3d0b89eb	0.034067076
231	0xbde2d0fd	-0.110750176
232	0xbd012399	-0.03152809
233	0xbce7ddef	-0.028304068
234	0xbd9a02c7	-0.07520061
235	0x3d00572c	0.031333134
236	0xbe105a7b	-0.14097016
237	0x3d2f1311	0.042742793
238	0xbded44b0	-0.11585367
239	0x3e0aa9d8	0.13541353
240	0xbc81fab9	-0.015866624
241	0xbe1b4339	-0.15162362
242	0xbe02e117	-0.12781177
243	0xbe1b322f	-0.15155862
244	0x3c7e3652	0.015515881
245	0x3c3e71b6	0.0116237905
246	0xbdad816b	-0.0847195
247	0xbdaf018e	-0.085452184
248	0xbe032e40	-0.12810612
249	0xbdd61348	-0.10452896
250	0xbd7c2669	-0.06156007
251	0xbdd7b3ba	-0.10532327
252	0x3d874754	0.06605402
253	0x3d96d126	0.07364111
254	0xbd89e6a7	-0.067334466
255	0x3c1b46d7	0.009477339

convs.1.nn.0.bias f4 [32]
0	0xbd127bc6	-0.03576257
1	0x3d8dce1d	0.069240786
2	0x3cec3b93	0.028837001
3	0x3d1b122e	0.037859134
4	0x3e07767b	0.1322879
5	0xbdc37dac	-0.095454544
6	0xbc61c011	-0.013778702
7	0x3e142479	0.14467038
8	0xbc868253	-0.016419565
9	0x3c81521e	0.015786227
10	0x3dd7c7e8	0.10536176
11	0x3c34fe7e	0.011047004
12	0xbc7ac2af	-0.015305205
13	0x3dc556f0	0.09635723
14	0x3d89882f	0.06715428
15	0xbe34cd0d	-0.17656346
16	0x3d9c6a45	0.07637457
17	0xbcfddf48	-0.030990258
18	0x3d040dde	0.032239787
19	0x3bb8cc90	0.00563962
20	0x3decd37c	0.11563775
21	0xbe20ef58	-0.15716302
22	0x3d9008c5	0.07032923
23	0x3dc9a6bf	0.098462574
24	0xbe05dcf5	-0.1307257
25	0xbca10a75	-0.019658307
26	0x3dc0ad2b	0.09408029
27	0x3d00cffe	0.031448357
28	0x3de8d93a	0.11369558
29	0x3e0f7d13	0.14012556
30	0x3e18e46d	0.14930888
31	0x3e33e57a	0.17568007

convs.1.nn.2.weight f4 [32, 32]
0	0x3e27bc00	0.1638031
1	0xbcc82a7e	-0.024434324
2	0xbd15e1be	-0.036592238
3	0xbdfd4fc5	-0.123687305
4	0xbd1b8ddf	-0.037977096
5	0x3d4170dc	0.04722677
6	0x3dc10971	0.09425629
7	0x3c80446e	0.01565763
8	0x3dd18faa	0.1023248
9	0x3e270374	0.16309911
10	0x3df48315	0.119390644
11	0x3d101994	0.035180643
12	0xbc002b62	-0.007822843
13	0xbdf0d01e	-0.11758445
14	0x3dd72181	0.10504437
15	0xbd97b712	-0.07407965
16	0x399be710	0.0002973606
17	0x3e1244c9	0.14284052
18	0x3e3175e7	0.17330132
19	0xbc511de7	-0.012763477
20	0x3e0153ae	0.12629578
21	0x3e128031	0.14306714
22	0xbde0f973	-0.10985079
23	0xbcee2f2e	-0.029075231
24	0x3d89509b	0.067048274
25	0x3dee92b7	0.116490774
26	0xbe08a08f	-0.13342498
27	0xbd930f9b	-0.07180711
28	0x3e0af157	0.13568626
29	0x3e0cde58	0.13756692
30	0xbd961983	-0.07329085
31	0x3dd4bd8d	0.103877164
32	0x3cce2750	0.02516523
33	0xbdae0fd8	-0.08499116
34	0x3d9a9c79	0.07549376
35	0x3e09cfa5	0.13458116
36	0xbdfb8189	-0.12280566
37	0xbdf34598	-0.11878508
38	0x3e014202	0.12622836
39	0x3ae41d58	0.0017403765
40	0x3dbd6050	0.09246886
41	0xbe17e647	-0.14833938
42	0xbe165677	-0.14681421
43	0x3dfae3f8	0.12250513
44	0x3b6e95a2	0.0036405106
45	0x3bf30623	0.007416503
46	0xbda186e6	-0.07887058
47	0x3dd01b34	0.101614386
48	0x3d0c075c	0.034186706
49	0xbe382256	-0.17981848
50	0x3db34c60	0.08754802
51	0x3c86c89a	0.016453076
52	0xbd9aa818	-0.075515926
53	0x3dfc698a	0.123248175
54	0x3d8451e3	0.06460931
55	0x3d9084fa	0.07056613
56	0xbe119b7b	-0.14219467
57	0x3dcde010	0.10052502
58	0xbe196b92	-0.14982441
59	0xbd8e545b	-0.06949683
60	0x3d63d97d	0.055627335
61	0xbdc9427d	-0.09827135
62	0x3dc71d53	0.0972239
63	0x3dc13c13	0.094352864
64	0x3d070302	0.032961853
65	0x3e02caf4	0.12772733
66	0xbb42e173	-0.002973643
67	0xbd648cb8	-0.055798262
68	0x3df4ab3f	0.11946725
69	0x3b4fe763	0.003172361
70	0xbdc98784	-0.09840301
71	0xbd92d4e4	-0.07169512
72	0x3d68e29e	0.056856744
73	0xbc6feded	-0.014644128
74	0xbcc6fc2c	-0.024290167
75	0x3d856f4c	0.06515369
76	0xbe27cb22	-0.16386083
77	0xbd7f041b	-0.062259775
78	0xbe283101	-0.16424944
79	0x3c0d2f4a	0.008617232
80	0x3d6c23a0	0.057651162
81	0x3cf8ba5a	0.030362297
82	0x3ca18333	0.019715881
83	0x3d5eb5b7	0.054372516
84	0x3d196ee6	0.037459277
85	0x3d418de0	0.047254443
86	0xbd8295d5	-0.063762344
87	0x3e263733	0.16231994
88	0xbd6fa7c8	-0.058509618
89	0x3dae9356	0.08524196
90	0x3e2d3ee9	0.1691853
91	0x3cf95ca0	0.030439675
92	0xbdc48d04	-0.09597209
93	0xbd2fe685	-0.04294445
94	0xbe21d8d3	-0.15805368
95	0xbdf0039a	-0.11719437
96	0x3c7141c7	0.014725155
97	0x3e162f4b	0.14666478
98	0xbcf4eac5	-0.029897103
99	0xbc011d7e	-0.007880567
100	0x3c70b4b2	0.014691519
101	0xbdbe8aa3	-0.093037866
102	0xbdaa7be3	-0.08324411
103	0xbe0a3f7d	-0.13500781
104	0xbc5e4de6	-0.013568377
105	0x3d50c08c	0.050964877
106	0x3e02b775	0.12765296
107	0xbe34dea8	-0.17663062
108	0x3dbd0e07	0.09231191
109	0xbe123b3c	-0.14280409
110	0x3db0ace6	0.08626728
111	0xbdfd382f	-0.12364232
112	0xbddf8b80	-0.109152794
113	0xbe11d2d1	-0.14240576
114	0x3e18de4b	0.14928548
115	0xbe0f10ac	-0.13971204
116	0x3df61daa	0.12017377
117	0x3e1b1b8b	0.15147226
118	0xbde9a8d3	-0.11409154
119	0x3e04dae4	0.12974125
120	0x3e2713b0	0.16316104
121	0xbe2bfba6	-0.16795215
122	0xbdeeec49	-0.116661616
123	0x3e08e9e8	0.13370478
124	0xbdd7bfeb	-0.10534652
125	0x3de977fa	0.11399837
126	0xbdd26002	-0.10272218
127	0xbceb32e9	-0.0287108
128	0xbdda5da6	-0.10662393
129	0x3d0b3754	0.033988312
130	0xbdcd7905	-0.10032848
131	0xbdbde0fc	-0.09271428
132	0x3d054dfd	0.03254508
133	0xbaf96864	-0.0019028303
134	0xbbb1c505	-0.005425098
135	0xbda64845	-0.08119253
136	0x3dda157b	0.10648628
137	0x3e2fef38	0.17181098
138	0x3de49028	0.11160308
139	0xbe0e3dad	-0.13890715
140	0xbe0f545a	-0.13997021
141	0xbde04698	-0.10950965
142	0x3c13d5d4	0.009023149
143	0xbc318005	-0.010833745
144	0x3cebf448	0.028803006
145	0x3d69b795	0.057059843
146	0x3de6160a	0.11234672
147	0x3dbedfef	0.09320056
148	0x3d54df72	0.051970907
149	0xbd5f495b	-0.054513317
150	0xbc80a06d	-0.015701497
151	0xbd6652a2	-0.05623115
152	0xbdfaba98	-0.12242621
153	0xbcf1524b	-0.029458186
154	0xbe2206de	-0.15822932
155	0x3e09e15c	0.13464874
156	0x3e06c88a	0.13162437
157	0x3c993c42	0.018705491
158	0xbde326e9	-0.11091406
159	0xbd415af5	-0.047205884
160	0x3d4199ec	0.047265932
161	0x3e16ffd4	0.14746028
162	0x3e1b35e0	0.1515727
163	0x3d7976dc	0.06090437
164	0x3dabd002	0.08389284
165	0xbd4dd649	-0.050253186
166	0xbde6c08e	-0.11267196
167	0xbdac4104	-0.08410838
168	0xbd89b7e3	-0.06724527
169	0x3cff7dea	0.03118797
170	0x3c1542a3	0.009110126
171	0x3df17b0f	0.1179105
172	0x3e1f46c9	0.15554346
173	0xbdf39a46	-0.1189466
174	0x3da8c83f	0.08241319
175	0xbd657c90	-0.056026995
176	0x3dc38e6e	0.09548651
177	0xbe257352	-0.16157272
178	0xbd4d93cc	-0.05018978
179	0x3dd86fa2	0.10568167
180	0xbd07979b	-0.033103567
181	0xbdbc9eb8	-0.09209961
182	0x3e0b8bfc	0.13627619
183	0xbde53da3	-0.11193397
184	0xbde3d18a	-0.11123951
185	0xbc65bb72	-0.014021741
186	0x3dc6e649	0.09711892
187	0xbde9ba3b	-0.11412474
188	0x3e017030	0.12640452
189	0xbe286978	-0.16446483
190	0x3e11b696	0.14229807
191	0xbe03365d	-0.12813707
192	0x3c0beb9b	0.008540059
193	0xbdf93de5	-0.121700086
194	0xbe1bd339	-0.15217294
195	0x3e2e2dba	0.17009631
196	0x3d94e981	0.072711
197	0xbe1987f3	-0.14993267
198	0xbe23205d	-0.15930314
199	0xbc3536f1	-0.011060462
200	0x3ded306b	0.115815006
201	0x3dbcb575	0.09214298
202	0x3b944466	0.0045247553
203	0x3cc377bf	0.02386081
204	0xbe02be34	-0.12767869
205	0x3dd8401f	0.10559105
206	0xbc9cd8ce	-0.01914635
207	0xbe13c5ed	-0.14430971
208	0xbe08ee6f	-0.13372205
209	0xbd260086	-0.040527843
210	0xbde87636	-0.11350672
211	0xbd7cd9d1	-0.061731163
212	0x3e2d0862	0.16897729
213	0x3c126f07	0.008937604
214	0xbdc83720	-0.09776139
215	0x3e0baba8	0.136397
216	0x3e23780b	0.15963762
217	0x3ca361c6	0.019944083
218	0xbbe720f1	-0.0070534875
219	0x3c99166d	0.018687451
220	0xbd1be102	-0.03805638
221	0x3cfa11fd	0.030526156
222	0x3d517ccc	0.051144406
223	0x3e06986b	0.1314408
224	0x3da7efb0	0.08200014
225	0x3d17ab40	0.03702855
226	0xbc5edd7f	-0.0136026135
227	0x3e0c8dde	0.13725993
228	0x3d97b008	0.07406622
229	0x3d4d8bba	0.05018208
230	0x3df731fc	0.12070081
231	0x3d196e26	0.03745856
232	0xbd51bf31	-0.051207725
233	0x3d4dfaf5	0.05028816
234	0xbdb69cb7	-0.0891661
235	0x3ddc444d	0.10755215
236	0xbd63de6b	-0.055632036
237	0x3d12764e	0.035757355
238	0x3d455ed0	0.048186123
239	0xbe075080	-0.13214302
240	0xbe174492	-0.14772251
241	0x3dfaae39	0.122402616
242	0xbe35d30f	-0.17756294
243	0xbd6bb800	-0.057548523
244	0x3dcaaa88	0.098958075
245	0x3d2aaf76	0.04167124
246	0x3e2f52ac	0.1712138
247	0xbe36169e	-0.17782065
248	0x3d8496e5	0.06474093
249	0xbd87e6f5	-0.066358484
250	0x3d98a27d	0.07452867
251	0x3dfdf162	0.12399556
252	0x3dfd8172	0.12378205
253	0xbe310e1e	-0.17290542
254	0xbd7d8fd0	-0.06190473
255	0x3df982e0	0.121831656

convs.1.nn.2.bias f4 [32]
0	0xbb3cbb91	-0.0028798322
1	0xbe065190	-0.13117051
2	0x3d111950	0.03542453
3	0xbb960737	-0.004578497
4	0x3d00eadb	0.031473976
5	0xbde50dd3	-0.111842774
6	0x3a9ddb88	0.0012043575
7	0xbdf047e0	-0.11732459
8	0x3e2a91e9	0.16657223
9	0xbe06f51c	-0.1317944
10	0xbe18681f	-0.14883469
11	0x3d9aa43c	0.075508565
12	0x3c17ad53	0.009257632
13	0xbd11043d	-0.035404433
14	0x3db9f8cf	0.090806596
15	0x3e068ac5	0.13138874
16	0x3e1b1f6a	0.15148702
17	0xbc50e640	-0.012750208
18	0xbbe35258	-0.0069373064
19	0x3ddbb4fb	0.10727879
20	0x3e341a25	0.17588098
21	0xbd04c426	-0.032413624
22	0xbccc7d90	-0.024962217
23	0xbc465d40	-0.0121071935
24	0x3cbc5664	0.022990413
25	0xbdedfdd8	-0.116206825
26	0x3e2553a1	0.16145183
27	0xbc8244c4	-0.01590193
28	0x3d9b1e26	0.0757411
29	0x3e2727ca	0.16323772
30	0x3daf6bad	0.085654594
31	0xbd8706e2	-0.0659311

convs.2.nn.0.weight f4 [32, 32]
0	0xbe2478e4	-0.16061741
1	0xbc6f211e	-0.014595298
2	0x3e2c55d9	0.16829623
3	0x3e26543e	0.16243073
4	0xbd272139	-0.040803168
5	0x3c056ec1	0.008144082
6	0xbe0ee8f2	-0.13956049
7	0x3c3b909b	0.011448051
8	0x3d96ec57	0.07369297
9	0x3cdfcd9b	0.02731972
10	0xbd8cbd4b	-0.06872042
11	0xbe2db5a7	-0.16963826
12	0x3c413d39	0.011794382
13	0xbe0f3f18	-0.13988912
14	0x3d41669a	0.04721699
15	0xbe14af46	-0.14519987
16	0x3de5c721	0.112196214
17	0xbe22c49a	-0.1589531
18	0x3d0888c7	0.033333566
19	0x3d909649	0.070599146
20	0x3e1db6c6	0.15401754
21	0x3e250785	0.1611615
22	0xbaa08026	-0.0012245222
23	0x3df00a5f	0.11720728
24	0xbd057101	-0.032578472
25	0x3de49c81	0.11162663
26	0x3e11b5c1	0.1422949
27	0xbd9be4f6	-0.0761203
28	0x3d9e0ff5	0.07717887
29	0xbd537ba3	-0.05163158
30	0x3dac3d04	0.08410075
31	0x3e22dfa5	0.15905626
32	0xbe2e9926	-0.17050609
33	0xbdebbbe8	-0.1151045
34	0xbe1ff186	-0.15619478
35	0xbe0647c7	-0.13113318
36	0x3df6e334	0.12055054
37	0x3da2f8c5	0.07957605
38	0xbddc81a8	-0.107669175
39	0x3d744a07	0.05964091
40	0x3e0cf0cb	0.1376373
41	0xbdeea088	-0.11651713
42	0x3d990c4b	0.07473048
43	0xbda73372	-0.08164109
44	0x3d1039fd	0.035211552
45	0xbe23f57c	-0.16011614
46	0xbda61c7c	-0.08110902
47	0x3d25fd7c	0.040524945
48	0xbe089b66	-0.1334053
49	0xbda87932	-0.08226241
50	0x3db5b7f6	0.088729784
51	0xbdc9ad97	-0.09847563
52	0x3e0cb5d8	0.13741243
53	0x3d32e64c	0.04367666
54	0x3d8fa747	0.070143275
55	0x3da5ab97	0.08089369
56	0xbd824a78	-0.0636186
57	0xbe1476b8	-0.14498413
58	0xbe1630d7	-0.14667068
59	0xbe133af0	-0.14377952
60	0xbdb10a36	-0.08644526
61	0x3d4f8a61	0.050669078
62	0xbe076204	-0.13220984
63	0xbdf641a9	-0.120242424
64	0x3d7621ee	0.06009095
65	0xbcd9b343	-0.026574736
66	0x3da6160a	0.08109672
67	0x3d0227f3	0.03177638
68	0xbb68e042	-0.0035534059
69	0xbe13481f	-0.14382981
70	0x3d93d781	0.072188385
71	0x3d4949ff	0.049142834
72	0xbdbfaef2	-0.0935954
73	0x3d5deccf	0.054180916
74	0x3e152b03	0.14567189
75	0x3b5071cb	0.0031806107
76	0x3cea2d21	0.028585972
77	0xbbb3e560	-0.00548999
78	0x3d2eb95f	0.042657252
79	0xbdd64ad7	-0.10463493
80	0x3d429c6e	0.047512464
81	0xbdf6f0a9	-0.12057621
82	0xbe0540b7	-0.13012968
83	0x3e197888	0.14987385
84	0x3e09a49f	0.13441704
85	0x3e27ce1f	0.16387223
86	0xbddb23c0	-0.10700178
87	0x3e1760c7	0.14783011
88	0xbe158e82	-0.14605144
89	0xbdb5710f	-0.08859455
90	0x3cfadfcf	0.030624298
91	0x3dd8407d	0.10559175
92	0xbe3079a5	-0.17233904
93	0x3e088c9f	0.13334893
94	0x3b2b8cd6	0.0026176474
95	0x3d82282b	0.06355318
96	0xbb276af8	-0.0025545936
97	0x3e2d2d29	0.16911758
98	0x3b8b699a	0.004254532
99	0x3ca4220e	0.02003577
100	0xbd70b6d0	-0.058768094
101	0xbdbc326e	-0.09189306
102	0x3de262e1	0.11054016
103	0xbd73f76e	-0.05956214
104	0xbd49b957	-0.04924902
105	0x3d619ad9	0.055079315
106	0xbe1bbb6c	-0.15208215
107	0x3dbae0af	0.09124886
108	0x3dea4b88	0.11440188
109	0x3e174721	0.14773227
110	0xbb4f39e2	-0.0031620194
111	0xbdcc99b5	-0.09990255
112	0x3e026f4d	0.1273777
113	0x3ddf4f50	0.109037995
114	0x3e24f809	0.16110243
115	0xbe11d9e0	-0.14243269
116	0xbddc6640	-0.1076169
117	0xbe2db873	-0.16964893
118	0xbdf7fc83	-0.1210871
119	0x3e150b2c	0.14555043
120	0xbe335ce4	-0.17515904
121	0x3d9ac552	0.07557167
122	0xbcf41150	-0.029793411
123	0x3e22faf9	0.15916051
124	0x3e2e79c1	0.17038633
125	0x3d0b67a6	0.034034394
126	0xbd6bb4ce	-0.057545476
127	0x3dc5dc65	0.096611775
128	0x3dbe1e81	0.09283162
129	0xbd6642ba	-0.05621598
130	0xbe246eed	-0.1605794
131	0x3c6a7e3e	0.014312325
132	0xbd843fa5	-0.06457452
133	0xbdc2c5c5	-0.09510378
134	0x3c8e32f2	0.017358277
135	0x3e0193fb	0.12654106
136	0xbe358af0	-0.17728782
137	0x3db9d1ac	0.09073195
138	0xbc89a919	-0.016804265
139	0xbc553845	-0.013013904
140	0x3e1dc389	0.15406622
141	0xba7c9881	-0.0009635762
142	0xbdac9b81	-0.084280975
143	0xbd0d4488	-0.034489185
144	0xbd235cf6	-0.039883576
145	0xbe0ca623	-0.13735251
146	0xbe081a2f	-0.13291238
147	0x3d891f26	0.06695394
148	0xbe17c5c2	-0.14821532
149	0xbd56ca81	-0.052439217
150	0x3dff7304	0.12473109
151	0xbc0bdcca	-0.008536527
152	0xbd3ab128	-0.045579106
153	0xbd683dc4	-0.05669953
154	0xbd465ab2	-0.048426338
155	0xbe094688	-0.13405812
156	0xbe1a1b3b	-0.1504945
157	0xbcca6594	-0.02470664
158	0x3d3b57f4	0.045738176
159	0x3de994f2	0.11405362
160	0xbc67680a	-0.014123926
161	0xbdf094ac	-0.11747107
162	0x3d913daa	0.070918396
163	0xbe314a89	-0.17313589
164	0x3d154aa8	0.03644815
165	0x3dbbcc11	0.09169782
166	0xbd0f5002	-0.03498841
167	0x3dad70ab	0.08468755
168	0xbe1f8c2b	-0.15580814
169	0xbd9a868d	-0.07545195
170	0x3daf8f43	0.08572247
171	0x3e2e7ded	0.17040224
172	0x3dfa48d4	0.12220922
173	0x3d1a1ca4	0.03762497
174	0xbe261e93	-0.162226
175	0xbd041b8d	-0.032252837
176	0xbe0bd2e4	-0.13654667
177	0xbe082a10	-0.13297296
178	0xbd973225	-0.07382611
179	0xbd6c71fe	-0.0577259
180	0x3e1bb278	0.15204799
181	0xbe25b20f	-0.16181205
182	0x3de77729	0.11302025
183	0x3d9aadce	0.07552682
184	0xbdf2534e	-0.11832295
185	0xbc93d22a	-0.01804455
186	0xbdf811ed	-0.12112794
187	0x3cc8121a	0.024422694
188	0x3d56c7cf	0.052436646
189	0xbdcf66a0	-0.10126996
190	0x3e1dcdb8	0.15410507
191	0xbdd8ec35	-0.10591928
192	0xbcf5ad0e	-0.029989745
193	0xbbd967d2	-0.006634691
194	0xbdfa6570	-0.12226379
195	0xbd030058	-0.03198275
196	0xbde685a2	-0.11255957
197	0x3c3a7421	0.011380226
198	0x3c8481bb	0.016175142
199	0xbe1e5c56	-0.15464911
200	0x3e19050b	0.1494333
201	0x3bd53824	0.0065069366
202	0x3e29ab65	0.16569288
203	0x3c8e9848	0.017406598
204	0xbd93fddf	-0.072261564
205	0xbd830579	-0.06397528
206	0xbc40c0c3	-0.011764708
207	0xbd1e1d91	-0.038602415
208	0x3d38a535	0.04507943
209	0xbd0ac2ff	-0.03387737
210	0xbdb42368	-0.08795816
211	0x3d723d71	0.059140626
212	0x3e340084	0.17578322
213	0xbccb4dac	-0.02481731
214	0x3d514fd0	0.051101506
215	0xbe001234	-0.12506944
216	0xbddf7906	-0.10911755
217	0xbe3b566b	-0.18294685
218	0xbdb4e2fa	-0.08832355
219	0x3dba0df7	0.09084695
220	0x3e1ecd6f	0.15508054
221	0x3e3b22f9	0.1827506
222	0x3c0940c6	0.00837726
223	0xbdb8e46e	-0.090279445
224	0xbbf53612	-0.0074832523
225	0x3d908e07	0.070583396
226	0x3db9fb7c	0.0908117
227	0xbd417ef2	-0.047240205
228	0xbd07b0e4	-0.03312768
229	0xbe202a3a	-0.15641108
230	0x3d708045	0.058716077
231	0x3ca3e670	0.020007342
232	0xbe0203c7	-0.12696753
233	0x3cc139c4	0.023587115
234	0x3d0438a4	0.03228058
235	0xbdff66cd	-0.124707796
236	0x3e2bf243	0.16791634
237	0xbdcfc89c	-0.10145685
238	0x3da9a0e5	0.08282641
239	0xbd5b6092	-0.053558894
240	0xbddcc46f	-0.10779654
241	0xbd62bc46	-0.055355333
242	0xbbd12a4e	-0.006383217
243	0xbd1b1807	-0.03786471
244	0x3dbd6906	0.09248547
245	0xbe242ae8	-0.16031992
246	0xbdd297c2	-0.10282852
247	0xbd10ecb8	-0.035382003
248	0xbe0a4998	-0.13504636
249	0xbdb7963c	-0.08964202
250	0xbe20bd54	-0.15697223
251	0x3dac3442	0.08408405
252	0xbdac6b1e	-0.084188685
253	0x3dd17e3b	0.10229155
254	0x3e229f01	0.15880968
255	0xbdf2ac27	-0.11849242

convs.2.nn.0.bias f4 [32]
0	0xbda12747	-0.0786882
1	0x3e131dc9	0.14366831
2	0xbe00dc40	-0.12584019
3	0xbc93196a	-0.017956454
4	0x3e30048b	0.17189233
5	0x3dee78b5	0.11644117
6	0xbd9d77be	-0.07688855
7	0xbd5fa24e	-0.054598145
8	0x3c547bb3	0.012968945
9	0xbe2310e3	-0.1592441
10	0xbe33a6f6	-0.1754416
11	0x3de50989	0.11183459
12	0x3e117e48	0.14208329
13	0xbccc9288	-0.024972215
14	0xbe15ec36	-0.14640889
15	0x3dc349de	0.095355734
16	0x3dc0d9ba	0.09416528
17	0x3da4cb3f	0.080465786
18	0x3d55177e	0.052024357
19	0x3da7b39d	0.081885554
20	0xbdac5b0c	-0.08415803
21	0x3e2fdca3	0.1717401
22	0xbc5f4ea4	-0.013629589
23	0x3ba45df3	0.0050160824
24	0xbd1f1fdc	-0.038848743
25	0x3d8fd563	0.07023122
26	0xbdcfb917	-0.10142725
27	0x3de40328	0.111334145
28	0xbdc6c5ae	-0.09705673
29	0xbe346e22	-0.17620137
30	0xbd80f6ba	-0.06297059
31	0x3dc1ae68	0.094570935

convs.2.nn.2.weight f4 [32, 32]
0	0x3e13f080	0.14447212
1	0xbe234d9f	-0.15947579
2	0x3e2f54b8	0.17122161
3	0xbe2f92f8	-0.17145908
4	0x3e06563c	0.13118833
5	0xbcef7104	-0.029228695
6	0xbe07db10	-0.1326716
7	0xbe0f8da9	-0.14018883
8	0x3da315fa	0.07963176
9	0x3d4190a2	0.047257073
10	0x3dc04451	0.0938803
11	0xbe29b9a9	-0.1657473
12	0xbd6d4e60	-0.057936072
13	0x3e1afec1	0.15136243
14	0x3df54f04	0.11977962
15	0x3d367a57	0.044550266
16	0xbde8abf7	-0.11360925
17	0xbe11c74f	-0.14236186
18	0xbdad6f94	-0.084685475
19	0x3da242ed	0.07922921
20	0x3e363d07	0.17796718
21	0x3ca03211	0.019555124
22	0xbcea651a	-0.028612662
23	0x3d96dc19	0.07366199
24	0xbe2d07e6	-0.16897544
25	0x3df0b4e0	0.11753249
26	0xbe21cf24	-0.15801674
27	0xbdf470cb	-0.11935576
28	0xbd978e1e	-0.074001536
29	0xbca8dea7	-0.020613981
30	0x3d9b22dd	0.07575009
31	0x3e2a7559	0.16646327
32	0xbe2daf71	-0.16961457
33	0x3d374d33	0.044751357
34	0xbe1ad952	-0.15121964
35	0x3cdd57ea	0.02701946
36	0x3de3a730	0.11115873
37	0x3d87eea9	0.06637318
38	0xbdca15e4	-0.098674566
39	0xbd8d4427	-0.06897765
40	0x3d92eeac	0.07174429
41	0x3da2b9b4	0.07945576
42	0xbdf8672b	-0.12129053
43	0x3e05bfa9	0.13061394
44	0xbd9ddf3c	-0.07708594
45	0xbc2a9f34	-0.010413934
46	0x3db30089	0.087403364
47	0x3e134429	0.1438147
48	0xbe13f071	-0.1444719
49	0xbe0d24b0	-0.13783526
50	0x3db43d69	0.088007756
51	0xbba25033	-0.004953408
52	0x3dd0c67a	0.101941064
53	0xbd370d22	-0.04469026
54	0x3d752d01	0.059857372
55	0x3e018e89	0.12652029
56	0x3e0bf0bd	0.13666053
57	0x3dc671eb	0.09689697
58	0x3c70ee89	0.014705309
59	0x3db0ac8e	0.08626662
60	0x3b8e013e	0.004333644
61	0xbe108e81	-0.14116861
62	0x3d3eb356	0.046557747
63	0x3cc67c43	0.024229174
64	0x3d302309	0.043002162
65	0xbd4c6ada	-0.04990659
66	0x3d896448	0.0670858
67	0xbe2c916a	-0.16852346
68	0xbde84757	-0.11341732
69	0xbdb900df	-0.09033369
70	0xbe325d3f	-0.17418383
71	0xbd385f94	-0.045013025
72	0x3dcef1af	0.10104691
73	0x3e0fc51b	0.14040034
74	0x3d99c734	0.07508698
75	0x3c5db933	0.0135329245
76	0xbd420155	-0.04736455
77	0x3da799f4	0.08183661
78	0xbcf745cb	-0.030184647
79	0xbe2947a5	-0.16531236
80	0xbcc358f1	-0.023846122
81	0x3e2069f1	0.15665413
82	0x3dc429ca	0.09578283
83	0x3d63d74b	0.05562524
84	0xbd345cfe	-0.044033997
85	0x3de14bd4	0.11000791
86	0x3e27830e	0.16358587
87	0x3d589e22	0.052885182
88	0x3e1c9b2e	0.15293571
89	0x3ccca687	0.02498175
90	0x3dc9db8a	0.09856327
91	0xbcda3c9b	-0.026640227
92	0xbdbdd8e5	-0.09269885
93	0x3d905e1e	0.070492014
94	0x3dc21d8a	0.094782904
95	0xbe18eece	-0.14934847
96	0xbd112380	-0.035434246
97	0x3d5c818d	0.053834487
98	0x3be4ef17	0.0069865095
99	0x3e315210	0.1731646
100	0xbbee9275	-0.0072806426
101	0xbde12729	-0.10993797
102	0x3e06deb8	0.13170898
103	0x3e2d6a12	0.16934994
104	0xbca5f385	-0.02025772
105	0x3d013d74	0.031552747
106	0x3e2f4c12	0.17118862
107	0xbb735e43	-0.0037135042
108	0xbcf2826b	-0.029603204
109	0x3e126e96	0.14299998
110	0x3e135d6c	0.14391106
111	0x3c2e38a0	0.010633618
112	0xbdef8708	-0.11695677
113	0xbe0f4ba6	-0.13993701
114	0xbdaa1d3f	-0.083063595
115	0xbe177223	-0.14789633
116	0xbe0a7b79	-0.13523664
117	0xbc16d6d3	-0.0092064915
118	0xbb4c5bdc	-0.0031182682
119	0x3daffbe0	0.08592963
120	0xbd1f8688	-0.03894666
121	0xbbdd116a	-0.0067464607
122	0x3e0dbce9	0.13841595
123	0x3d458618	0.048223585
124	0xbbc453d0	-0.0059914365
125	0x3d301abd	0.04299425
126	0x3e10b678	0.14132106
127	0xbe27155e	-0.16316745
128	0x3e16532f	0.1468017
129	0x3e1deeb3	0.15423088
130	0x3e03a2ad	0.12855025
131	0x3d8b1a5d	0.06792138
132	0xbd4a9304	-0.04945661
133	0xbe26c301	-0.16285326
134	0xbd00ea42	-0.031473406
135	0x3e1d046b	0.15333717
136	0xbdf52e8f	-0.11971771
137	0x3d77dcb2	0.060513206
138	0xbd8595ac	-0.06522688
139	0x3c54a08d	0.012977731
140	0xbce00830	-0.027347654
141	0xbdcdfd8c	-0.10058126
142	0xbe2c5860	-0.16830587
143	0xbdb751f8	-0.08951181
144	0x3bc9e612	0.0061614597
145	0x3cfabdaa	0.030608017
146	0x3d49dc8c	0.049282596
147	0x3e09be04	0.13451391
148	0x3d6bebc3	0.057597887
149	0xbe3795e1	-0.17928268
150	0xbe0f0406	-0.13966379
151	0xbda00a54	-0.0781447
152	0xbe08491b	-0.13309138
153	0x3d627435	0.055286605
154	0xbcf1f10a	-0.029533882
155	0x3e2e2b7a	0.17008772
156	0x3c797ab3	0.015227008
157	0x3df80cbe	0.121118054
158	0xbda6830f	-0.08130466
159	0x3e3821d7	0.17981659
160	0xbda46325	-0.08026723
161	0x3dfd8069	0.12378008
162	0xbd0488de	-0.03235709
163	0xbde66f57	-0.11251705
164	0x3cd8666b	0.026416024
165	0xbe2bc641	-0.16774847
166	0x3da3b5f4	0.07993689
167	0xbd8fcc2a	-0.07021363
168	0xbd2e922a	-0.04261986
169	0xbce58e2c	-0.028021894
170	0xbd645f82	-0.055755146
171	0x3dd5c85a	0.10438605
172	0x3e2b22d1	0.167125
173	0x3d6b0783	0.05738021
174	0xbbfb8c1b	-0.007676614
175	0xbde20917	-0.1103689
176	0x3e0028fb	0.12515633
177	0xbd7809b9	-0.060556147
178	0xbe0e5754	-0.139005
179	0x3dfb8e3b	0.12282988
180	0xbdf89e10	-0.12139523
181	0xba2f5385	-0.00066881656
182	0xbd34c205	-0.044130344
183	0x3db75bd0	0.08953059
184	0xbe08ea04	-0.1337052
185	0xbdde286d	-0.10847554
186	0xbe331987	-0.17490207
187	0xbd20b616	-0.03923615
188	0xbe3074a9	-0.17232002
189	0x3dc57bff	0.09642791
190	0x3dd06dec	0.10177216
191	0x3db46b16	0.088094875
192	0x3df52ee2	0.11971833
193	0xbdf04711	-0.11732305
194	0x3b0fe58c	0.002195689
195	0xbc562b6d	-0.013071877
196	0xbddadf3a	-0.10687108
197	0xbcca18cf	-0.024670033
198	0xbd1d2222	-0.03836263
199	0xbe30b977	-0.17258249
200	0x3c98dfbf	0.018661378
201	0xbd805c2f	-0.062675826
202	0xbc543a8a	-0.01295341
203	0xbc80ada3	-0.015707796
204	0xbcc4a31b	-0.024003556
205	0x3d0d8198	0.03454742
206	0x3dc7f26f	0.097630374
207	0x3e260c6d	0.16215678
208	0xbe1ed31c	-0.1551022
209	0x3dcf3ff8	0.10119623
210	0x3d8b6de5	0.0680807
211	0x3e0e55cc	0.13899916
212	0x3e0c79e4	0.13718373
213	0x3da95412	0.08267988
214	0x3d1fb284	0.038988605
215	0x3d6e20f2	0.058136888
216	0xbd98f026	-0.0746768
217	0xbdca13bb	-0.098670445
218	0xbe06e862	-0.13174585
219	0xbd9cb2d7	-0.076512985
220	0x3e22dad6	0.15903792
221	0xbddbae09	-0.10726554
222	0xbe04831e	-0.12940642
223	0x3dc3c0da	0.09558268
224	0x3da84d56	0.08217876
225	0x3de40766	0.11134224
226	0xbdf74e95	-0.12075535
227	0x3d10fe3d	0.03539871
228	0xbd7986d3	-0.060919594
229	0xbe0f7a6c	-0.14011544
230	0x3dbe9139	0.09305043
231	0xbd83f309	-0.0644284
232	0xbdc6c2ad	-0.097051
233	0x3b63dd15	0.0034769226
234	0xbdb354ad	-0.08756385
235	0x3cf7340d	0.030176187
236	0x3de5c262	0.11218716
237	0x3d8123bc	0.06305644
238	0xbd5923b9	-0.053012583
239	0x3e00b904	0.12570578
240	0xbe0a1cd6	-0.13487563
241	0xbdafd06a	-0.08584674
242	0x3c1b9678	0.009496324
243	0x3e2f0c3b	0.1709451
244	0x3cf4078b	0.029788753
245	0xbd6a3c2c	-0.05718629
246	0x3c9466cb	0.018115422
247	0xbc957add	-0.018247062
248	0xbc905ce5	-0.01762242
249	0xbe05bdce	-0.13060686
250	0x3dbd3837	0.09239238
251	0xbe37daba	-0.17954531
252	0x3dda4b80	0.10658932
253	0xbdab83f3	-0.08374777
254	0xbdbda5c5	-0.09260134
255	0xbc4b907c	-0.0124245845

convs.2.nn.2.bias f4 [32]
0	0x3c045753	0.00807746
1	0xbc0362a1	-0.00801912
2	0x3d7d1e79	0.06179664
3	0x3e0cd97f	0.13754843
4	0xbe1c0c1a	-0.15238991
5	0x3d572fca	0.05253581
6	0x3bfe4011	0.007759102
7	0x3e080cad	0.13286085
8	0xbd149757	-0.03627714
9	0x3c1b716c	0.009487491
10	0x3e222a50	0.15836453
11	0xbd8cea24	-0.06880596
12	0xbe1176ba	-0.14205447
13	0xbe1c4ceb	-0.15263717
14	0xbddd1d33	-0.10796585
15	0xbc46f5c2	-0.012143554
16	0xbe22e919	-0.15909232
17	0xbd9bb304	-0.07602504
18	0x3c4c7a34	0.012480307
19	0x3e2229ae	0.15836212
20	0xbb9a6dd4	-0.0047127996
21	0x3e06a02b	0.13147037
22	0x3dd36dbe	0.10323666
23	0xbd608414	-0.05481346
24	0x3dd3c6a3	0.10340621
25	0xbd8cd201	-0.068759926
26	0x3cb0daa4	0.021588631
27	0xbd0768a9	-0.033058796
28	0x3d061430	0.032734096
29	0xbd61c3ef	-0.055118497
30	0x3d8d5998	0.06901854
31	0x3d98fdc2	0.074702755

lns.0.weight f4 [32]
0	0x3f80834c	1.0040069
1	0x3f80962c	1.0045829
2	0x3f807a7b	1.0037378
3	0x3f803357	1.0015668
4	0x3f807b58	1.0037642
5	0x3f7fce58	0.9992423
6	0x3f801524	1.0006452
7	0x3f7decab	0.9918925
8	0x3f7ed3c7	0.99541897
9	0x3f7ed35b	0.9954125
10	0x3f803a5f	1.0017813
11	0x3f804a94	1.002276
12	0x3f7f1c97	0.99653
13	0x3f810045	1.0078207
14	0x3f7db62f	0.99106115
15	0x3f7ef1e7	0.99587864
16	0x3f8052c4	1.0025258
17	0x3f7e884b	0.99426717
18	0x3f806991	1.0032216
19	0x3f802765	1.0012022
20	0x3f805c63	1.0028194
21	0x3f8055ea	1.0026219
22	0x3f8062a1	1.0030099
23	0x3f7f2a3a	0.9967381
24	0x3f806610	1.0031147
25	0x3f7f5bf9	0.99749714
26	0x3f7ed5fa	0.9954525
27	0x3f7ed643	0.9954569
28	0x3f808ef0	1.0043621
29	0x3f806c18	1.0032988
30	0x3f81819e	1.0117681
31	0x3f80028a	1.0000775

lns.0.bias f4 [32]
0	0x3a2ce864	0.0006595908
1	0x3b8e60a3	0.004345016
2	0xbbd59bd1	-0.006518819
3	0x394828f1	0.00019088738
4	0x3ad47f9a	0.0016212345
5	0xb9d86692	-0.0004127515
6	0x3b42bb1a	0.0029713572
7	0x3beae66a	0.007168581
8	0xbac65b72	-0.0015133454
9	0x3b72eb30	0.0037066452
10	0x3b2c4a30	0.0026289336
11	0xbb186ce4	-0.0023258263
12	0xbb49944f	-0.0030758565
13	0xbbcfd9b1	-0.0063430895
14	0x3c12be15	0.008956452
15	0xbabb3e7f	-0.0014285593
16	0xbb2278bb	-0.00247912
17	0x3bc09f8b	0.005878394
18	0xbc0a8fb1	-0.00845711
19	0xbade680d	-0.0016968265
20	0xbb13dd62	-0.0022562374
21	0xbb016997	-0.0019746774
22	0xbb9e364b	-0.0048282496
23	0x3ade11b2	0.001694253
24	0xbbbc3313	-0.005743393
25	0x39f6e3d4	0.00047090522
26	0x3bb58e1a	0.0055406215
27	0xbb8482e7	-0.004043925
28	0xbc06cf9f	-0.008228212
29	0xbb7aaa76	-0.0038248575
30	0xbb8c3b76	-0.0042795492
31	0x3aa07e27	0.0012244628

lns.1.weight f4 [32]
0	0x3f804f46	1.0024192
1	0x3f7fcf24	0.99925447
2	0x3f7ff32e	0.9998044
3	0x3f7f4ee6	0.99729764
4	0x3f8003ea	1.0001194
5	0x3f80d9e6	1.0066497
6	0x3f804de9	1.0023776
7	0x3f803493	1.0016044
8	0x3f80ef71	1.0073072
9	0x3f8052ca	1.0025265
10	0x3f802e5f	1.0014151
11	0x3f7fabc0	0.99871445
12	0x3f7eb8cd	0.99500734
13	0x3f80bb5d	1.0057179
14	0x3f817216	1.0112941
15	0x3f7e75fd	0.99398786
16	0x3f7f8212	0.99807847
17	0x3f7fcd42	0.99922574
18	0x3f7e38d3	0.99305457
19	0x3f7f37f9	0.9969478
20	0x3f7ff1f0	0.9997854
21	0x3f805bb6	1.0027988
22	0x3f80469c	1.0021548
23	0x3f8080ea	1.0039341
24	0x3f7f0698	0.99619436
25	0x3f7f9074	0.9982979
26	0x3f8047af	1.0021876
27	0x3f7fff53	0.9999897
28	0x3f808c52	1.0042822
29	0x3f811316	1.008395
30	0x3f819f9d	1.0126835
31	0x3f8110f9	1.0083305

lns.1.bias f4 [32]
0	0x3b2f32c0	0.002673313
1	0xbbefb86a	-0.007315685
2	0xb8f67d19	-0.00011753495
3	0x3b0d3afd	0.0021550052
4	0x3892ca4c	6.999503e-05
5	0x3b81a41c	0.003956331
6	0xbb9299ab	-0.004473885
7	0xba578bb0	-0.0008222414
8	0xbb927c14	-0.0044703577
9	0xbb8d4be0	-0.0043120235
10	0x3c0108dc	0.007875647
11	0x3bdd7e97	0.0067594755
12	0x3bab0518	0.005219113
13	0xbbbb9573	-0.005724603
14	0xbbde098c	-0.0067760404
15	0xbb8d2bf4	-0.004308218
16	0xba95523c	-0.0011392306
17	0xbb3d71ab	-0.0028906863
18	0x3aecf3a9	0.0018077987
19	0x3b1cd3a6	0.0023929863
20	0x3a68e215	0.00088837865
21	0xbb352377	-0.0027639547
22	0x3bf5a09f	0.007495954
23	0x3aa188c2	0.0012324082
24	0xbbe55c2c	-0.006999513
25	0xbbd73139	-0.006567147
26	0xbbabf9bf	-0.005248278
27	0x3925c1d0	0.00015807827
28	0x3b84a3be	0.00404784
29	0x3a5eb9b7	0.00084963016
30	0x3bf734b2	0.0075441236
31	0xbc0ac439	-0.008469635
